Assets/Training Agents/Shooter.onnx (onnx, 74763 bytes, 9 tensors)

network_body.observation_encoder.processors.0.normalizer.running_mean f4 [7]
0.0019862216 0.0075646997 0.0 0.8717285 0.9999863 -0.0833835 -0.22822666
00000000: 452b 023b 4de1 f73b 0000 0000 9929 5f3f
00000010: 1aff 7f3f f8c4 aabd 40b4 69be

network_body._body_endoder.seq_layers.0.weight f4 [128, 7]
0.10280902 -0.22141987 0.2802587 -0.44716164 -0.02114943 0.12387768 0.32734814 0.25240937
-0.91947883 0.603598 -0.21229023 -0.1522909 0.23455115 0.1281165 0.09657232 -0.7250431
0.3177807 -0.040779617 -0.37108633 0.24536204 0.5115619 -0.38035724 -0.651738 0.6988119
0.23116896 0.5446628 0.04976553 0.53489196 0.71211946 -0.0771648 0.15213835 -0.45057422
-0.044767212 0.15337873 -0.42956087 0.04224718 0.7870936 0.4039909 0.03280038 0.0733257
-0.03252492 0.19907315 -0.41720107 0.3729074 -0.47232556 0.0683291 -0.43116263 -0.090033606
-0.25658175 -0.35904917 0.043231048 -0.30581543 -0.38047877 0.07232749 -0.82409364 0.19684203
-0.13592954 0.13505468 -0.83772385 -0.018978005 0.02904694 -0.35201928 1.0599633 -0.011264558
-0.1067024 0.34025446 0.17862584 0.6479789 -0.4661995 0.40030596 0.44153267 0.38245532
-0.025699036 0.11290422 -0.106109604 -0.097408 -0.24253994 0.08714801 -0.15524058 -0.45012304
-0.114999466 -0.42403832 0.46484414 -0.6671735 -0.299965 -0.03491816 0.57998246 0.1458844
0.23200709 0.50763625 -0.47474757 -0.17169572 0.15051562 -0.5696046 0.16920656 0.21296561
0.31557232 0.5981998 -0.73726314 -0.16491705 -0.37344784 0.4703959 0.19776598 0.50436044
0.3658641 -0.024784302 0.4131708 0.4861057 0.5351948 -0.1219417 0.12901163 -0.23297854
0.2562792 0.09455694 0.32497013 -0.13173509 0.22181359 0.5027542 0.068934485 -0.15113255
0.62197393 -0.4944514 -0.6283934 -0.10969066 -0.2653448 -0.18219121 -0.45387375 -0.295058
0.5505361 -0.39694113 -0.3211311 0.32056764 0.14549702 0.43282086 0.010113245 0.82313395
-0.14124915 -0.18930364 0.37946177 0.15601885 0.30229408 -0.14670749 -0.5174524 -0.403801
0.71917117 0.061077762 -0.36160854 -0.25190374 -0.1235139 0.44946492 0.080195725 -0.07328362
0.3679754 -0.10531371 -0.44107533 -0.03211733 -0.38975027 0.049707446 -0.34810856 0.16278386
-0.25243947 -0.44723728 -0.4162463 -0.37761432 -0.8757107 0.34131092 -0.5910055 0.39000547
0.10148591 -0.5130887 0.19420072 -0.16507521 0.40878135 0.3517634 -0.056414433 0.14111464
-0.20434083 -0.16065331 0.081970826 -0.21781382 1.0213183 -0.31116453 -0.48803803 0.64455813
0.35661042 0.4209016 0.4869784 -0.2046361 -0.3601301 0.045817435 0.44647038 -0.11127258
-0.12052059 -0.046047952 0.20772767 0.18639496 0.33954257 0.35981113 -0.98898613 0.15603168
-0.15644121 0.103875235 0.22030911 -0.65236527 0.45238963 -0.18835181 0.31112492 -0.10563158
0.714579 -0.061301168 0.13703829 -0.043562625 0.279377 -0.428949 0.94582933 -0.05328757
-0.15689552 0.119488135 0.34010327 -0.027343571 0.07806185 0.51828974 -0.6727819 0.2065713
0.35325533 -0.047824986 0.31306818 0.28139696 0.38190874 -0.14456922 0.1458286 0.6299062
0.036842503 0.09731379 -0.18098807 -0.05691485 -0.13715516 0.40311265 -0.3815784 -0.042238597
-0.49143967 0.09857426 0.7275881 0.61443275 0.2527332 0.12923536 -0.49432582 -0.07056643
-0.5103543 -0.0043380843 -0.17441177 -0.18335724 0.49097735 -0.37970516 -0.06367197 0.3975919
00000000: 898d d23d e4bb 62be 117e 8f3e 5ff2 e4be
00000010: 9241 adbc 95b3 fd3d 2d9a a73e cd3b 813e
00000020: f762 6bbf 6685 1a3f 9c62 59be 25f2 1bbe
00000030: 2d2e 703e f930 033e b5c7 c53d 6d9c 39bf
00000040: 27b4 a23e 8708 27bd 07ff bdbe 3040 7b3e
00000050: b8f5 023f 2fbe c2be 4dd8 26bf 56e5 323f
00000060: 8eb7 6c3e 056f 0b3f f1d6 4b3d aeee 083f
00000070: 764d 363f 9408 9ebd 28ca 1b3e aab1 e6be
00000080: d35d 37bd 500f 1d3e 67ef dbbe 610b 2d3d
00000090: f77e 493f e5d7 ce3e b159 063d c92b 963d
000000a0: da38 05bd d5d9 4b3e 619b d5be b8ed be3e
000000b0: a8d4 f1be 21f0 8b3d 59c1 dcbe 8a63 b8bd
000000c0: af5e 83be 4bd5 b7be 0a13 313d d793 9cbe
000000d0: 1dce c2be 6f20 943d cdf7 52bf f590 493e
000000e0: 1d31 0bbe c64b 0a3e 1275 56bf c377 9bbc
000000f0: d9f3 ed3c df3b b4be e1ac 873f fb8e 38bc
00000100: ca86 dabd d535 ae3e b1e9 363e f2e1 253f
00000110: b3b1 eebe e7f4 cc3e 9210 e23e 2fd1 c33e
00000120: c986 d2bc 543a e73d fe4f d9bd d87d c7bd
00000130: 645c 78be a87a b23d 63f7 1ebe 8776 e6be
00000140: d784 ebbd 8d1b d9be 0d00 ee3e e2cb 2abf
00000150: 0395 99be 5806 0fbd bb79 143f b862 153e
00000160: 4493 6d3e 73f4 013f 1d12 f3be 01d1 2fbe
00000170: c420 1a3e 9bd1 11bf 7c44 2d3e a813 5a3e
00000180: b292 a13e 9f23 193f 47bd 3cbf 04e0 28be
00000190: 8e34 bfbe bbd7 f03e 2a83 4a3e c41d 013f
000001a0: 8a52 bb3e 7308 cbbc 208b d33e d9e2 f83e
000001b0: 8702 093f 92bc f9bd a01b 043e ed91 6ebe
000001c0: 0737 833e 12a7 c13d 7c62 a63e 90e5 06be
000001d0: 1a23 633e 80b4 003f 862d 8d3d 7ec2 1abe
000001e0: af39 1f3f bc28 fdbe 64de 20bf 7fa5 e0bd
000001f0: 46db 87be 5590 3abe 2462 e8be d811 97be
00000200: efef 0c3f de3b cbbe 4c6b a4be 7121 a43e
00000210: 2cfd 143e b29a dd3e 06b2 253c e8b8 523f
00000220: 9ea3 10be d0d8 41be d048 c23e 68c3 1f3e
00000230: 4ac6 9a3e 7d3a 16be c377 04bf 01bf cebe
00000240: 9a1b 383f ad2c 7a3d c124 b9be 87f9 80be
00000250: dbf4 fcbd 4420 e63e a83d a43d b915 96bd
00000260: 4667 bc3e b7ae d7bd a0d4 e1be 768d 03bd
00000270: 598d c7be 099a 4b3d 493b b2be d0b0 263e
00000280: bf3f 81be 49fc e4be 3c1e d5be aa56 c1be
00000290: 942e 60bf 4ec0 ae3e 234c 17bf ccae c73e
000002a0: d8d7 cf3d c859 03bf 8edc 463e 7a09 29be
000002b0: ca4b d13e 551a b43e d212 67bd 5b80 103e
000002c0: b93e 51be 4d82 24be 52e0 a73d 960a 5fbe
000002d0: 8fba 823f f550 9fbe 1fe0 f9be c301 253f
000002e0: a495 b63e 6a80 d73e 3c55 f93e 208c 51be
000002f0: f962 b8be 10ab 3b3d c497 e43e e1e2 e3bd
00000300: 80d3 f6bd c79c 3cbd 90b6 543e 52de 3e3e
00000310: 86d8 ad3e 2a39 b83e 322e 7dbf c5c6 1f3e
00000320: 2032 20be 8abc d43d b698 613e 6901 27bf
00000330: 9d9f e73e 4cdf 40be c44b 9f3e 5f55 d8bd
00000340: a6ee 363f ef16 7bbd c453 0c3e b96e 32bd
00000350: 810a 8f3e 349f dbbe df21 723f 1144 5abd
00000360: 38a9 20be 32b6 f43d 0422 ae3e a0ff dfbc
00000370: e4de 9f3d a3ae 043f 6f3b 2cbf 6d87 533e
00000380: e2dd b43e 22e4 43bd 794a a03e 4313 903e
00000390: 8b89 c33e f409 14be 1854 153e 8841 213f
000003a0: 2ae8 163d 744c c73d f054 39be 8c1f 69bd
000003b0: 6772 0cbe c864 ce3e 3e5e c3be 6102 2dbd
000003c0: fb9d fbbe 4de1 c93d 3743 3a3f 774b 1d3f
000003d0: 3f66 813e 4656 043e 4618 fdbe 2285 90bd
000003e0: 94a6 02bf 7d26 8ebb 0099 32be 00c2 3bbe
000003f0: 6261 fb3e b768 c2be 7366 82bd 2a91 cb3e

network_body._body_endoder.seq_layers.0.bias f4 [128]
0.0002024656 0.003292295 -0.0006766471 0.0040567033 -0.0025352312 0.0008885028 -0.0023234766 0.0007832241
-0.0018142558 0.002851436 0.002002681 0.0027419003 0.0039782487 0.0029217128 0.0015378443 -0.00093695143
0.0007457075 0.0017954373 -0.0037117384 0.00045205347 0.0013881306 -0.0026328547 -0.0028399567 0.0005589682
-0.003506604 -0.0030871248 0.0021898833 -0.0005090855 0.00080810866 -0.0038053766 0.0009473613 0.00094495335
-0.0016414924 -0.0020507516 -0.0022438397 0.0009040373 0.0006962934 0.0027483602 -0.00070437224 0.002750135
0.0006384999 0.0007545747 -0.0026904582 -0.0015123104 0.00072062033 -0.0006788296 0.0035331426 -0.0023341903
-0.0025825016 -0.001853625 0.00088445586 -0.0013167226 0.0010542473 0.0030723019 0.00032917724 -0.0007888702
-0.0013214824 -0.0011143258 0.00032247277 0.0025329192 0.0002539273 0.0031926685 0.0032346062 0.0005015635
-0.0035179511 0.0054460214 -0.0004784886 -0.0016902627 0.00238906 0.0008224534 -0.004093654 0.002822776
0.0012505011 -0.0008211201 -0.0018126566 0.0038928294 -5.5594628e-05 0.0033528297 0.0018479923 -0.0015484709
0.0017343815 0.0005341034 0.0007947911 -0.00083477533 0.004684043 -0.0016440422 -0.0005940463 -0.00061725825
-0.0024663534 -0.000582129 0.0027407173 0.003897214 0.0032117835 0.0033538677 -0.004042616 0.0025310852
-0.0025409972 0.0022865974 0.0028712265 -0.0011040778 0.0010762312 -0.0026935705 -0.00224968 0.0028327312
-0.0014517659 -0.00018514326 -0.001126418 0.00030440092 0.0042168875 -0.003719545 0.0025194136 -0.0031898117
0.005229538 0.0012802389 0.0017721588 0.0021733395 -0.00046759046 0.0018753178 -0.001871615 0.0006114616
0.0027997345 0.0021793994 0.0023141003 -0.0023206226 0.00080144656 -0.0031337673 -0.0034517052 0.003650559
00000000: f24c 5439 8bc3 573b 0561 31ba 18ee 843b
00000010: 1f26 26bb 6aea 683a 7845 18bb 4851 4d3a
00000020: 53cc edba 28df 3a3b 693f 033b 74b1 333b
00000030: f85b 823b 357a 3f3b 7e91 c93a bf9d 75ba
00000040: 957b 433a e154 eb3a a340 73bb 9701 ed39
00000050: eff1 b53a f98b 2cbb 911e 3abb b987 123a
00000060: 0ecf 65bb 5c51 4abb 2584 0f3b 2674 05ba
00000070: 41d7 533a a063 79bb 5758 783a bfb6 773a
00000080: 5827 d7ba e765 06bb 620d 13bb ebfc 6c3a
00000090: 7687 363a d51d 343b 9fa5 38ba 9c3b 343b
000000a0: 0161 273a a7ce 453a 6652 30bb b738 c6ba
000000b0: 03e8 3c3a 7cf3 31ba 4c8c 673b 37f9 18bb
000000c0: 303f 29bb 56f5 f2ba d4da 673a e195 acba
000000d0: ab2e 8a3a ac58 493b 6c95 ac39 2fcc 4eba
000000e0: 9735 adba 920e 92ba 9011 a939 55ff 253b
000000f0: 8c21 8539 173c 513b b0fb 533b 5b7b 033a
00000100: 6d8d 66bb 8a74 b23b a7dd fab9 ce8b ddba
00000110: c791 1c3b ea99 573a 0f24 86bb 53fe 383b
00000120: dbe7 a33a 7040 57ba aa96 edba d71e 7f3b
00000130: 472e 69b8 26bb 5b3b 5538 f23a 10f6 caba
00000140: 3054 e33a 1303 0c3a 8759 503a d3d4 5aba
00000150: 9a7c 993b e77c d7ba c6b9 1bba 80cf 21ba
00000160: 8ba2 21bb 049a 18ba 9b9d 333b 6768 7f3b
00000170: c97c 523b 90cc 5b3b ec77 84bb 90e0 253b
00000180: dc86 26bb bdda 153b 302b 3c3b b4b6 90ba
00000190: 5410 8d3a 9d86 30bb 5e6f 13bb 58a5 393b
000001a0: 2e49 beba 0423 42b9 51a4 93ba 0098 9f39
000001b0: d12d 8a3b 9cc3 73bb bf1c 253b 290c 51bb
000001c0: 8b5c ab3b b0cd a73a c847 e83a 966e 0e3b
000001d0: ee26 f5b9 39cd f53a fa50 f5ba 7e4a 203a
000001e0: c07b 373b 41d4 0e3b 29a8 173b 9615 18bb
000001f0: 2b18 523a e45f 4dbb 0136 62bb 383e 6f3b

network_body._body_endoder.seq_layers.2.weight f4 [128, 128]
-0.14619455 -0.012376283 0.07106871 -0.051029667 0.036076352 -0.06257386 0.015951749 0.027617602
-0.045925062 -0.09947694 0.06478893 -0.114579424 0.03435497 0.003152055 -0.1739254 -0.0009907112
-0.037468817 0.13033648 0.057046108 -0.10672969 0.006350268 -0.01649538 -0.02287399 -0.0748943
-0.0038116267 0.11246645 0.13436192 -0.10973204 0.049990136 0.134074 -0.058203325 -0.03340299
-0.16995046 0.10363123 -0.1689574 0.049542233 0.025101261 0.002249162 0.046532255 -0.17260823
0.13613205 -0.087321945 -0.031746477 0.18414278 0.024022514 -0.054362882 0.025151208 -0.015559526
0.0011979698 -0.09970344 0.13602903 -0.03165672 -0.10749245 -0.09232099 -0.043623295 0.04772032
-0.023865743 0.093490936 -0.16789328 -0.23627794 0.11696413 0.026835334 -0.064844385 0.027177786
0.017133027 -0.11940728 -0.016133897 0.14563608 -0.0066582835 0.058021214 0.027314913 0.08724404
-0.0407588 0.056213323 0.051502403 0.03782732 0.020144757 -0.003858561 0.16190103 -0.057022408
-0.04898263 -0.12792291 0.0019412988 -0.1026378 -0.17318489 0.1186066 0.023243794 0.10041144
0.05818115 0.004322328 -0.10541405 -0.08090483 0.17129841 -0.0043348125 -0.12775156 0.051281344
-0.008088591 -0.0017908068 0.039270636 -0.0021206914 -0.10217287 0.12812798 0.017795198 0.13542368
0.028420746 -0.08333569 0.042332634 0.058415655 -0.057295527 -0.021540124 0.17055696 0.030865323
-0.080535114 -0.0922288 -0.028085394 0.12562492 -0.087542355 -0.18573758 0.09335005 -0.02670372
-0.1686758 0.071002364 0.027512863 0.2972287 -0.034686793 -0.002940096 0.015884088 0.022880837
0.006127463 -0.05429582 -0.0904725 0.068752594 0.023067676 0.024889959 -0.08920054 -0.07541338
-0.01845959 -0.03459199 -0.106997214 0.02484212 0.118130386 -0.0076362817 -0.11700783 -0.026233906
0.17588021 -0.20186259 -0.026463415 -0.0547336 -0.01858939 -0.019921836 -0.06525407 0.0003999337
-0.069228984 0.010029721 0.013402617 -0.010038528 -0.14689241 0.07749042 0.16102839 0.1130079
0.026229668 0.0943894 0.028632902 -0.17970406 -0.12041883 -0.09052375 -0.13231118 0.024309518
-0.017895889 0.03938583 -0.088209696 -0.050027587 -0.010933197 -0.07080612 -0.026506048 -0.014276368
0.011125252 0.050060634 0.046604652 0.09472677 0.060195863 0.023821486 -0.07958424 -0.003747779
0.12188442 -0.15106371 0.019518014 0.10377967 -0.062179994 0.0669996 -0.103514805 0.008002494
-0.037398502 -0.0049708 -0.06606483 0.067166045 0.0126940375 -0.09074219 0.1713108 0.14025742
-0.051215038 0.11699387 -0.0299966 0.16324455 0.059756994 -0.026185071 0.053471804 -0.0703804
-0.061457008 -0.07621119 -0.22086573 0.05055654 -0.08582913 -0.06531036 -0.09833096 0.026455952
-0.05647861 0.07958914 0.101000234 0.042241856 0.09733659 -0.119824894 0.01297411 0.04972514
0.057872526 -0.18173566 0.03734334 -0.08223258 -0.01635875 0.057175346 -0.042568497 0.12754452
0.013096552 0.024698902 -0.1416278 0.011522922 0.024324305 0.030461146 -0.0895452 -0.0020037813
-0.074479565 0.03455098 -0.10293654 -0.22883873 0.14135878 0.102113344 -0.033444278 0.01789177
0.0066356976 -0.22376744 -0.012773377 -0.05447021 0.16386993 -0.07073725 0.1823052 0.07033408
00000000: 06b4 15be e5c5 4abc 798c 913d 7c04 51bd
00000010: ccc4 133d b926 80bd 3ead 823c 4f3e e23c
00000020: eb1b 3cbd 91ba cbbd 0fb0 843d 9ea8 eabd
00000030: ccb7 0c3d b592 4e3b 8019 32be c0da 81ba
00000040: e778 19bd ed76 053e 2ea9 693d 1995 dabd
00000050: e915 d03b 5221 87bc 3c62 bbbc 2f62 99bd
00000060: 7ccc 79bb cf54 e63d 2c96 093e 31bb e0bd
00000070: 75c2 4c3d b24a 093e 9c66 6ebd 93d1 08bd
00000080: 7e07 2ebe 9c3c d43d 2b03 2dbe ccec 4a3d
00000090: 29a1 cd3c ad66 133b 9b98 3e3d 36c0 30be
000000a0: 3366 0b3e d9d5 b2bd 9808 02bd ed8f 3c3e
000000b0: ddca c43c 9dab 5ebd e809 ce3c 62ed 7ebc
000000c0: 3205 9d3a 5131 ccbd 324b 0b3e 7aaa 01bd
000000d0: 0025 dcbd ca12 bdbd 57ae 32bd 6276 433d
000000e0: 1782 c3bc 2d78 bf3d 37ec 2bbe d8f2 71be
000000f0: e48a ef3d c6d5 db3c 22cd 84bd f3a3 de3c
00000100: 905a 8c3c ce8b f4bd 3c2b 84bc a021 153e
00000110: bb2d dabb a7a7 6d3d 86c3 df3c 01ad b23d
00000120: b3f2 26bd f13f 663d 2ff4 523d d2f0 1a3d
00000130: 9e06 a53c e9df 7cbb 62c9 253e 5490 69bd
00000140: 03a2 48bd 39fe 02be 2e73 fe3a c433 d2bd
00000150: 6157 31be 04e8 f23d c569 be3c 83a4 cd3d
00000160: 5c4f 6e3d 51a2 8d3b 52e3 d7bd 6eb1 a5bd
00000170: da68 2f3e 0b0b 8ebb 4ed1 02be 630c 523d
00000180: 0286 04bc 81b9 eaba 3fda 203d 4cfb 0abb
00000190: 0240 d1bd fb33 033e 3cc7 913c 81ac 0a3e
000001a0: a0d2 e83c e7ab aabd fc64 2d3d 4145 6f3d
000001b0: b7ae 6abd ea74 b0bc 7ca6 2e3e 46d9 fc3c
000001c0: 98ef a4bd 74e2 bcbd 5713 e6bc d2a3 003e
000001d0: 6849 b3bd fe31 3ebe 502e bf3d c3c1 dabc
000001e0: 59b9 2cbe b069 913d a862 e13c 5c2e 983e
000001f0: bd13 0ebd a0ae 40bb 591f 823c 9870 bb3c
00000200: e3c8 c83b 4b65 5ebd a549 b9bd 29ce 8c3d
00000210: 6cf8 bc3c 07e6 cb3c c6ae b6bd 5572 9abd
00000220: 9138 97bc 55b0 0dbd 5b21 dbbd b481 cb3c
00000230: 58ee f13d c639 fabb cda1 efbd 7de8 d6bc
00000240: f119 343e 11b5 4ebe cec9 d8bc 5730 60bd
00000250: c748 98bc 1e33 a3bc eda3 85bd 31ae d139
00000260: edc7 8dbd b353 243c a696 5b3c a378 24bc
00000270: f76a 16be 4cb3 9e3d a0e4 243e b070 e73d
00000280: 9adf d63c 3b4f c13d 8c8f ea3c 5704 38be
00000290: 269e f6bd 8464 b9bd 957c 07be c124 c73c
000002a0: 669a 92bc 0953 213d 49a7 b4bd bae9 4cbd
000002b0: 2721 33bc cd02 91bd 3623 d9bc 6de7 69bc
000002c0: b046 363c 610c 4d3d 85e4 3e3d 1c00 c23d
000002d0: f08f 763d 4725 c33c 10fd a2bd 4c9d 75bb
000002e0: 8a9e f93d 72b0 1abe 3ee4 9f3c 708a d43d
000002f0: 73b0 7ebd 1637 893d 92ff d3bd e51c 033c
00000300: 2c2f 19bd 18e2 a2bb ff4c 87bd 5a8e 893d
00000310: a7fa 4f3c 0bd7 b9bd 196c 2f3e a49f 0f3e
00000320: dcc6 51bd 7b9a ef3d 6ebb f5bc 9429 273e
00000330: c0c3 743d 1382 d6bc 4005 5b3d 9923 90bd
00000340: 58ba 7bbd 9d14 9cbd a02a 62be 6014 4f3d
00000350: 2fc7 afbd 70c1 85bd be61 c9bd 27ba d83c
00000360: 1d56 67bd a2ff a23d 36d9 ce3d cc05 2d3d
00000370: 6858 c73d c166 f5bd 5d91 543c 97ac 4b3d
00000380: be0b 6d3d ea18 3abe 55f5 183d 8e69 a8bd
00000390: c902 86bc b230 6a3d 4e5c 2ebd 089b 023e
000003a0: ec92 563c 5a55 ca3c e106 11be a3ca 3c3c
000003b0: c443 c73c a789 f93c 7963 b7bd df51 03bb
000003c0: be88 98bd 5485 0d3d 65d0 d2bd b354 6abe
000003d0: 5bc0 103e cd20 d13d defc 08bd c391 923c
000003e0: 4470 d93b 4b23 65be 6d47 51bc 281c 5fbd
000003f0: 85cd 273e b1de 90bd 37ae 3a3e 500b 903d

network_body._body_endoder.seq_layers.2.bias f4 [128]
0.00026659833 -0.0021590593 0.0010742743 0.0027878853 -0.0027024462 -0.0021201666 0.00081799494 0.00084735185
0.0010376538 0.00073677854 0.0033293061 0.002715246 0.002936025 -0.001881485 -0.003665433 0.0015971215
-0.0011829461 0.00097399903 1.5722817e-05 -0.0039799684 -9.14999e-06 0.0014074618 0.0030828647 -0.001651852
0.00019824335 -0.00228177 0.0011048578 -0.0023276894 -0.0022509804 0.00046554618 0.0003156743 -0.0012348216
-0.001668005 0.001973641 0.0015150893 -0.00039395396 -0.00063575315 -0.0025938824 -0.0008312401 -0.0019337017
-0.0014412632 0.0018452287 -0.0024385494 -0.0029264118 -0.002133054 0.0016053814 0.00197046 0.0020988649
0.00015644946 0.0028059548 0.0010865951 -0.00032477517 0.0002939648 0.00067889085 -0.002650366 -0.0018473057
0.0003414663 -0.0021231289 -0.0018264202 0.002460353 0.003771386 -0.00029499244 0.0018979798 0.0010889847
-0.0040311166 0.003242969 -0.0024335266 0.00012818321 -0.00033001608 -0.0032132498 0.0027385538 -0.002424207
0.00071772176 0.0007431768 -0.0026938156 0.0002013152 -0.002316013 -0.0024549975 0.00089581613 0.0006685437
0.00058301375 0.0017574993 -0.0013621998 0.0028187423 -0.0011008014 -0.0026239227 0.0010658482 0.00227052
0.00037620874 -0.0011020424 -0.0023310997 0.0015785362 -0.0023489532 -0.0022291823 0.0016637653 -0.0016264574
0.0025657145 0.0019093935 0.00031247246 0.0028470722 0.0024653657 0.004103783 -0.0027257656 0.0002226284
-0.0002997907 -0.00096494734 0.0030405417 -0.0001185154 0.0036526136 0.0017778014 0.0011207873 -0.0005075392
0.0016143121 0.002318243 0.0018604927 -0.0018891362 -0.0040999143 0.00096174446 0.00027362272 -0.004391978
0.0027937966 -0.0022033756 -0.0020355987 -0.001893532 0.00058072386 0.0021498692 0.0023913314 -0.001965586
00000000: 39c6 8b39 017f 0dbb aace 8c3a f4b4 363b
00000010: 861b 31bb 7ef2 0abb b66e 563a d220 5e3a
00000020: e201 883a 5f24 413a 7d30 5a3b 45f2 313b
00000030: 536a 403b 299c f6ba c337 70bb 8156 d13a
00000040: 160d 9bba f853 7f3a 7ee4 8337 656a 82bb
00000050: e882 19b7 957a b83a e309 4a3b f582 d8ba
00000060: 8bdf 4f39 c089 15bb e0d0 903a 268c 18bb
00000070: 2f85 13bb 8d14 f439 1681 a539 bdd9 a1ba
00000080: f6a0 daba 3458 013b f695 c63a 9b8b ceb9
00000090: aca8 26ba 20fe 29bb 94e7 59ba 4374 fdba
000000a0: c5e8 bcba 9adb f13a 12d0 1fbb 0bc9 3fbb
000000b0: b5ca 0bbb a96b d23a d522 013b 1c8d 093b
000000c0: 950c 2439 1ce4 373b 156c 8e3a 9646 aab9
000000d0: 4a1f 9a39 98f7 313a c3b1 2dbb 4b21 f2ba
000000e0: d506 b339 3124 0bbb 7e64 efba e03d 213b
000000f0: 5c29 773b 37a9 9ab9 a2c5 f83a 43bc 8e3a
00000100: 7517 84bb fe87 543b cd7b 1fbb eb68 0639
00000110: 0206 adb9 6395 52bb 4f79 333b 72df 1ebb
00000120: 7e25 3c3a c0d1 423a ba8a 30bb 2318 5339
00000130: 40c8 17bb 06e4 20bb 34d5 6a3a 3541 2f3a
00000140: 64d5 183a e45b e63a d78b b2ba a6ba 383b
00000150: c448 90ba 1ef6 2bbb eeb3 8b3a 01cd 143b
00000160: e23d c539 6872 90ba 5dc5 18bb e3e6 ce3a
00000170: e5f0 19bb 7917 12bb b312 da3a db2e d5ba
00000180: 8c25 283b 9d44 fa3a 58d3 a339 f295 3a3b
00000190: f991 213b 0779 863b c2a2 32bb 5b71 6939
000001a0: 3a2d 9db9 85f4 7cba d343 473b 798b f8b8
000001b0: b060 6f3b 1e05 e93a 62e7 923a 610c 05ba
000001c0: 5397 d33a aaed 173b c7db f33a e49c f7ba
000001d0: 9358 86bb 941d 7c3a 0575 8f39 95ea 8fbb
000001e0: 2118 373b 8266 10bb ae67 05bb 6430 f8ba
000001f0: b83b 183a d2e4 0c3b e2b7 1c3b 10d1 00bb

action_model._continuous_distribution.log_sigma f4 [1, 4]
0.0 0.0 0.0 0.0
00000000: 0000 0000 0000 0000 0000 0000 0000 0000

action_model._continuous_distribution.mu.weight f4 [4, 128]
0.011759668 0.018415427 0.003834096 0.011036967 -0.02639784 0.012810542 0.010060466 -0.020344064
-0.01436429 0.009396649 0.009046595 0.02035701 0.005607243 0.00055970275 0.009587723 -0.044218313
0.025059417 0.022674112 0.014147582 0.007765957 0.022145623 -0.00059072324 -0.0023187038 -0.0037359216
-0.0057245875 -0.025752831 0.028655875 0.00054713606 0.03524707 0.0005175769 0.030918354 -0.004035517
0.0012188184 -0.0015703564 -0.017882342 0.010558074 0.017285902 0.014254304 -0.008535596 0.016086744
-0.025025515 -0.009151866 0.012565269 -0.019746087 0.0026593579 -0.004596338 -0.015629774 0.02290534
-0.016144846 -0.003477589 -0.008176937 -0.03289571 0.0076561347 -0.008262935 -0.0134327635 -0.010986651
0.016372524 0.017665371 0.007797729 -0.036113124 -0.0041748784 0.024618236 -0.011518773 -0.022914125
-0.023170443 -0.0028764622 0.010407637 0.0026763424 0.0074961083 0.026561106 -0.018893627 0.014904906
0.035263833 0.008270193 -0.01685045 -0.00019638224 -0.003418494 0.014428417 0.015998555 -0.02054815
-0.006013114 -0.011166117 0.006263049 0.005319595 0.0071632336 0.0047185845 -0.026209412 -0.019699458
0.021085331 0.00861815 -0.03577313 0.03477309 0.0056773266 0.010267156 0.015024235 0.0077426927
0.02564015 0.025808895 -0.011867308 -0.017598668 0.0083947405 -0.004368733 0.005679011 -0.021930771
0.007942971 0.01699927 -0.003432187 -0.001571903 0.0054667494 0.014239009 0.027273936 0.0062533715
-0.0002560606 -0.0023878713 0.0035629664 0.02340098 -0.01935662 -0.01440879 -0.0061747567 -0.004602657
0.017359287 -0.0067691132 -0.0058574583 0.01401279 -0.0018956017 -0.031117512 -0.0005511727 -0.010260611
-0.0012939702 0.0017193089 -0.0025004577 0.010609026 -0.014559063 -0.002896263 -0.032653436 0.008371002
-0.022218138 -0.0051298854 -0.00013867617 -0.027150825 -0.032182034 -0.0074376883 -0.033726428 0.007038481
-0.020209512 -0.016435264 -0.014336439 -0.005072345 0.025401205 0.010111987 0.0077611804 -0.000940142
-0.01650007 -0.008492268 0.0039819507 0.0034918438 -0.009715386 -0.014850767 -0.022134556 -0.027264103
-0.0037154679 0.0064544417 -0.007072112 0.003250528 -0.0067292913 0.009020866 -0.020876171 0.016612355
0.013655406 -0.030891625 -0.003389351 0.04243425 -0.013175956 -0.011467686 0.016653834 -0.0141971735
-0.011167461 -0.013014923 -0.033226114 -0.019073337 -0.023377677 -0.009225778 0.0115209455 -0.003737087
0.024390036 0.0053332676 -0.023029655 0.0009028881 -0.024431009 0.02164984 0.009842257 -0.0076383213
-0.030479034 0.016029445 0.0006291132 0.022428352 -0.026342738 -0.00953884 0.009346365 -0.014668959
-0.020156931 0.031010512 0.014782757 0.007229512 0.0050005126 0.05324747 -0.026622418 0.02489299
-0.016370712 0.025107548 0.020219116 0.01159865 0.0062084617 -0.008399886 0.007858872 0.009064955
0.0014754517 -0.002237439 0.0057849153 0.032052595 0.0046046353 -0.023444066 -0.026617 0.0063964636
0.0025895278 0.014098703 -0.034912173 -0.0251251 -0.012271709 -0.0038582669 -0.036652133 -0.0517825
0.0049865213 -0.0007644673 -0.02259902 0.0100554405 -0.0003063729 -0.023734406 0.013706015 -0.011117077
-0.03053769 0.021852855 0.028246025 -0.041438658 -0.0088824 -0.02916643 -0.04248586 -0.010166634
-0.0007871535 -0.02051191 0.022018423 -0.0025342184 -0.007034539 -0.020481182 -0.01462199 -0.009346621
00000000: 9fab 403c f3db 963c 7545 7b3b 65d4 343c
00000010: 4840 d8bc 4fe3 513c a7d4 243c 98a8 a6bc
00000020: 3358 6bbc 67f4 193c 2b38 143c bfc3 a63c
00000030: f7bc b73b 04b9 123a d315 1d3c 431e 35bd
00000040: 6849 cd3c 0fbf b93c 43cb 673c 9279 fe3b
00000050: bd6a b53c c4da 1aba 65f5 17bb 5dd6 74bb
00000060: 5295 bbbb 9af7 d2bc babf ea3c ae6d 0f3a
00000070: 3b5f 103d ffad 073a 7d48 fd3c 5f3c 84bb
00000080: c2c0 9f3a 6bd4 cdba fd7d 92bc c6fb 2c3c
00000090: 2a9b 8d3c e28a 693c e2d8 0bbc 59c8 833c
000000a0: 4f02 cdbc b5f1 15bc 8fde 4d3c 8cc2 a1bc
000000b0: 9f48 2e3b e19c 96bb 030a 80bc fba3 bb3c
000000c0: 3242 84bc 43e8 63bb 8ff8 05bc a7bd 06bd
000000d0: 50e0 fa3b 4361 07bc 1815 5cbc 5b01 34bc
000000e0: ac1f 863c f8b6 903c 1884 ff3b 5beb 13bd
000000f0: 6bcd 88bb 2fac c93c 3cb9 3cbc 67b6 bbbc
00000100: f1cf bdbc 0783 3cbb cb84 2a3c 9365 2f3b
00000110: eaa1 f53b ad96 d93c cfc6 9abc b533 743c
00000120: cf70 103d b47f 073c f409 8abc f5eb 4db9
00000130: d008 60bb 2b65 6c3c 670f 833c 9854 a8bc
00000140: a809 c5bb 17f2 36bc 433a cd3b ff4f ae3b
00000150: 8fb9 ea3b 5b9e 9a3b 1fb5 d6bc c260 a1bc
00000160: 25bb ac3c 2433 0d3c d886 12bd 3a6e 0e3d
00000170: de08 ba3b 9337 283c 3528 763c 6ab6 fd3b
00000180: 4b0b d23c 2d6d d33c 196f 42bc 152b 90bc
00000190: 188a 093c 9727 8fbb ff16 ba3b 29a8 b3bc
000001a0: 3c23 023c 0e42 8b3c 8bee 60bb 5008 ceba
000001b0: 6b22 b33b bb4a 693c 976d df3c 15e9 cc3b
000001c0: df3f 86b9 d57d 1cbb a880 693b 69b3 bf3c
000001d0: c691 9ebc d812 6cbc 9d55 cabb e3d1 96bb
000001e0: 1035 8e3c 70cf ddbb ecef bfbb e795 653c
000001f0: d775 f8ba 27ea febc 937c 10ba 1f1c 28bc
00000200: 6f9a a9ba 6f5a e13a b8de 23bb 7bd1 2d3c
00000210: 2389 6ebc 3bcf 3dbb 9cbf 05bd 8726 093c
00000220: d002 b6bc 9918 a8bb 9a69 11b9 686b debc
00000230: 4fd1 03bd dab7 f3bb b924 0abd 0fa3 e63b
00000240: 6b8e a5bc 3fa3 86bc 62e3 6abc ea35 a6bb
00000250: 3016 d03c bfac 253c 8051 fe3b dd73 76ba
00000260: 282b 87bc 2723 0bbc 067b 823b 6bd7 643b
00000270: 482d 1fbc a250 73bc 8753 b5bc f858 dfbc
00000280: 357f 73bb c87f d33b 2dbd e7bb cf06 553b
00000290: 6381 dcbb 41cc 133c 8104 abbc a216 883c
000002a0: edba 5f3c 6f10 fdbc e01f 5ebb 89cf 2d3d
000002b0: f7df 57bc f6e2 3bbc 9f6d 883c 439b 68bc
000002c0: baf7 36bc 8b3c 55bc 1b18 08bd b03f 9cbc
000002d0: 8b82 bfbc b827 17bc 59c2 3c3c eae9 74bb
000002e0: 9dcd c73c b1c2 ae3b b0a8 bcbc cbaf 6c3a
000002f0: 8a23 c8bc 015b b13c 6b41 213c e24a fabb
00000300: 2baf f9bc 2f50 833c 12eb 243a aabb b73c
00000310: bacc d7bc cb48 1cbc 7f21 193c 1356 70bc
00000320: 2620 a5bc c209 fe3c 6033 723c 8be5 ec3b
00000330: 57db a33b 051a 5a3d 4217 dabc 62ec cb3c
00000340: df1b 86bc 58ae cd3c 8fa2 a53c 4408 3e3c
00000350: 5a70 cb3b ad9f 09bc 80c2 003c 2d85 143c
00000360: f263 c13a ffa1 12bb 638f bd3b 9549 033d
00000370: 7be2 963b c50d c0bc e50b dabc 6d99 d13b
00000380: 11b5 293b 3ffe 663c 1100 0fbd 27d3 cdbc
00000390: 470f 49bc fada 7cbb 8c20 16bd e319 54bd
000003a0: f965 a33b 8866 48ba 9421 b9bc 93bf 243c
000003b0: ada0 a0b9 a86e c2bc 328f 603c 6724 36bc
000003c0: 2d2a fabc c204 b33c 3564 e73c 95bb 29bd
000003d0: 7c87 11bc 70ee eebc a705 2ebd f491 26bc
000003e0: fa58 4eba 9808 a8bc fb5f b43c 2115 26bb
000003f0: fd81 e6bb 27c8 a7bc 1291 6fbc 9222 19bc

action_model._continuous_distribution.mu.bias f4 [4]
0.0 0.0 0.0 0.0
00000000: 0000 0000 0000 0000 0000 0000 0000 0000

53 f4 [7]
0.014789587 0.01706603 0.0036670405 0.21621369 0.0051860074 0.67088926 0.7006291
00000000: 0650 723c 0fce 8b3c bb52 703b 1f67 5d3e
00000010: 62ef a93b 66bf 2b3f 6e5c 333f
