results/Shoot_v1/Shooter/checkpoint.pt (torch, 154327 bytes, 20 tensors)

network_body.observation_encoder.processors.0.normalizer.running_mean f4 [8]
0	0x00000000	0.0
1	0x00000000	0.0
2	0x00000000	0.0
3	0x00000000	0.0
4	0x00000000	0.0
5	0x00000000	0.0
6	0x00000000	0.0
7	0x00000000	0.0

network_body.observation_encoder.processors.0.normalizer.running_variance f4 [8]
0	0x3f800000	1.0
1	0x3f800000	1.0
2	0x3f800000	1.0
3	0x3f800000	1.0
4	0x3f800000	1.0
5	0x3f800000	1.0
6	0x3f800000	1.0
7	0x3f800000	1.0

network_body.processors.0.normalizer.running_mean f4 [8]
0	0x00000000	0.0
1	0x00000000	0.0
2	0x00000000	0.0
3	0x00000000	0.0
4	0x00000000	0.0
5	0x00000000	0.0
6	0x00000000	0.0
7	0x00000000	0.0

network_body.processors.0.normalizer.running_variance f4 [8]
0	0x3f800000	1.0
1	0x3f800000	1.0
2	0x3f800000	1.0
3	0x3f800000	1.0
4	0x3f800000	1.0
5	0x3f800000	1.0
6	0x3f800000	1.0
7	0x3f800000	1.0

network_body._body_endoder.seq_layers.0.weight f4 [128, 8]
0	0x3ea3dddb	0.320052
1	0x3f60f822	0.8787862
2	0xbe92a761	-0.28643325
3	0x3dc95252	0.098301545
4	0x3e11f6bf	0.14254282
5	0xbca6b795	-0.02035121
6	0xbdbc83a4	-0.09204796
7	0x3eda0883	0.4258462
8	0x3e9f8468	0.31155705
9	0xbecc8ed2	-0.39952713
10	0x3eceed1e	0.4041528
11	0x3ee020f1	0.43775132
12	0x3e71e016	0.23620638
13	0xbe86b534	-0.26310122
14	0xbf108103	-0.56446856
15	0xbe489186	-0.19586763
16	0xbe28e24e	-0.16492578
17	0xbe8a97ed	-0.27069035
18	0x3bbec7ba	0.005822149
19	0xbf0ba79a	-0.54552615
20	0x3e691da2	0.2276521
21	0x3e9e50e5	0.30921093
22	0xbec1be3d	-0.37840453
23	0x3e842b09	0.25814083
24	0x3ea2c33e	0.31789583
25	0x3ca7ec4b	0.020498415
26	0x3d9dfa81	0.077137955
27	0x3ca37822	0.019954745
28	0xbdd6716f	-0.104708545
29	0x3da31821	0.079635866
30	0x3ec5acbf	0.38608357
31	0x3e7d6016	0.24743685
32	0xbe8d0846	-0.27545375
33	0xbdf5f5cf	-0.12009775
34	0xbf22c3dc	-0.6358011
35	0xbeb3f410	-0.35147142
36	0xbe563165	-0.2091728
37	0x3dec72b3	0.11545315
38	0x3de98411	0.11402143
39	0x3d3424e3	0.04398049
40	0xbe61e4f8	-0.22060001
41	0xbe80a2d1	-0.2512422
42	0x3e5e4179	0.21704663
43	0xbdd56505	-0.104196586
44	0x3e0b33f9	0.13594045
45	0xbd6b9590	-0.05751568
46	0xbf4ac547	-0.7920727
47	0xbe1178cf	-0.14206241
48	0xbf06ec97	-0.5270476
49	0xbf0124aa	-0.5044657
50	0xbdf340c4	-0.118775874
51	0x3d9b0caa	0.07570775
52	0x3d8ae9e1	0.0678289
53	0xbed349a0	-0.4126711
54	0x3ee45e94	0.44603407
55	0x3d5d070e	0.053961806
56	0x3d952734	0.07282868
57	0xbeb84016	-0.35986394
58	0x3e1f6afe	0.15568158
59	0x3e17357d	0.14766498
60	0x3ee54264	0.44777215
61	0xbf2ab9d8	-0.66689825
62	0x3e3a6a40	0.18204594
63	0x3d36ec40	0.0446589
64	0x3e79ce09	0.24395002
65	0xbe16eb5b	-0.14738218
66	0xbe44c797	-0.19216762
67	0x3ee26c09	0.4422305
68	0x3eed18f2	0.46308094
69	0x3e118dd9	0.14214267
70	0x3f803518	1.0016203
71	0xbd890986	-0.066912696
72	0xbf1a2d4d	-0.60225374
73	0x3e837df8	0.25682044
74	0xbf22a300	-0.6352997
75	0x3e879536	0.26481026
76	0x3f17ab49	0.59245735
77	0xbd487864	-0.04894294
78	0xbb8b3466	-0.0042481897
79	0x3e7880d5	0.24267896
80	0x3ee93134	0.45545352
81	0x3e72eb19	0.23722495
82	0x3f1c01d3	0.60940284
83	0x3e3e52d4	0.18586284
84	0x3d493aa4	0.04912819
85	0x3ecf256f	0.40458247
86	0x395fb309	0.00021333633
87	0xbc067a44	-0.008207861
88	0xbe226f1a	-0.15862694
89	0xbee515fc	-0.44743335
90	0x3e39f935	0.18161471
91	0x3ed32ea5	0.41246524
92	0x3c51de4c	0.012809347
93	0xbeeb106c	-0.45910966
94	0x3d3dbac0	0.046320677
95	0x3dbea24e	0.09308301
96	0x3f09820e	0.5371407
97	0xbf0b3ee9	-0.5439287
98	0xbe3b0cec	-0.18266648
99	0x3ec9895e	0.39362615
100	0xbf5d7998	-0.8651366
101	0x3eada1e8	0.33912587
102	0x3ea30c98	0.31845546
103	0x3bc728a1	0.0060778414
104	0xbf4548e3	-0.7706434
105	0xbe8c653b	-0.27420983
106	0xbe41a1a5	-0.18909319
107	0xbcf07c91	-0.029356273
108	0xbf00a310	-0.50248814
109	0xbe91a50f	-0.28446242
110	0xbe7a23fe	-0.24427792
111	0xbdf1cd8a	-0.118067816
112	0xbed317c6	-0.41229075
113	0x3e1c674c	0.1527378
114	0xbd541592	-0.051778384
115	0xbe8418ec	-0.25800264
116	0x3e389185	0.18024261
117	0xbe551232	-0.20807722
118	0xbdd842ad	-0.105595924
119	0xbe9445c4	-0.28959477
120	0xbd91743a	-0.071022466
121	0xbf1642ab	-0.5869548
122	0x3e91c896	0.28473347
123	0xbeccd46e	-0.4000582
124	0x3d9efeae	0.0776342
125	0xbec338b1	-0.3812919
126	0x3f127124	0.5720389
127	0xbe6f0faa	-0.23345819
128	0x3eab378d	0.3344082
129	0xbe0f6bfa	-0.14006034
130	0xbe8d1270	-0.2755313
131	0x3bfeb26a	0.0077727335
132	0xbe86eb70	-0.263515
133	0xbf1a1f4f	-0.60204023
134	0xbeb077dd	-0.34466448
135	0x3f33c6e0	0.70225334
136	0xbeb272fc	-0.3485335
137	0x3e570d51	0.21001174
138	0x3ead48f3	0.33844718
139	0xbe447eef	-0.19189046
140	0x3db1c5fa	0.08680339
141	0x3f2149d6	0.6300329
142	0xbd3ca248	-0.0460532
143	0x3df572f3	0.119848154
144	0xbe7575db	-0.2397074
145	0xbf538119	-0.8261886
146	0xbf1c233b	-0.6099126
147	0x3c9ded2b	0.01927813
148	0xbeb81cb7	-0.35959408
149	0x3f1992f8	0.5998988
150	0xbe88c4ac	-0.2671255
151	0xbcca49d2	-0.024693403
152	0x3eca5b87	0.39522955
153	0x3e87dd47	0.2653601
154	0x3e585503	0.2112618
155	0x3d2f8f25	0.042861123
156	0x3d71d69b	0.059042554
157	0xbf103aee	-0.5633992
158	0xbf04cefc	-0.51878333
159	0xbe72fcf9	-0.23729314
160	0xbdb7689a	-0.08955498
161	0xbe78dd93	-0.24303274
162	0xbb9ab46e	-0.004721216
163	0x3f1b1b8a	0.60588896
164	0xbd34a19a	-0.044099428
165	0x3e33acde	0.17546412
166	0xbdcac74c	-0.09901294
167	0xbed08a54	-0.40730536
168	0x3f4ec1e7	0.8076462
169	0x3f17eb94	0.5934384
170	0x3f3bbc8e	0.73334587
171	0x3ed80bce	0.42196506
172	0x3f2118c4	0.62928414
173	0x3fcdae31	1.6068784
174	0xbf38655c	-0.7202966
175	0xbe92798f	-0.28608367
176	0xbe484261	-0.19556572
177	0xbe7b6b7e	-0.24552724
178	0xbe89e55a	-0.26932794
179	0xbf59ae2f	-0.8503141
180	0x3ee58fc7	0.44836256
181	0x3ec3f160	0.38270092
182	0x3d2b0763	0.04175509
183	0x3e9b979a	0.303891
184	0x3dcdc0e3	0.10046556
185	0x3d14d4b3	0.03633566
186	0xbe89f619	-0.2694557
187	0x3f2fe1eb	0.687041
188	0xbec92d42	-0.3929234
189	0xbf1269cf	-0.571927
190	0x3e76d61e	0.24105117
191	0xbe456a2e	-0.19278786
192	0x3cd772ac	0.026299797
193	0x3e871944	0.26386464
194	0xbf1bbf86	-0.60839117
195	0xbbbdaece	-0.0057886606
196	0x3db1aafa	0.08675189
197	0xbe23844d	-0.15968437
198	0x3cc8fe1f	0.024535237
199	0x3c8effcc	0.017455958
200	0x3ee490b6	0.44641656
201	0xbf0ab579	-0.54183155
202	0x3cf092b9	0.029366838
203	0xbeb84e70	-0.35997343
204	0x3e1d7aa3	0.15378813
205	0xbcbb200f	-0.022842435
206	0xbd92e716	-0.071729824
207	0xbd24106a	-0.040054716
208	0xbf36613d	-0.71242124
209	0xbf61e36b	-0.8823764
210	0xbe7495a4	-0.23885208
211	0x3eeae899	0.45880583
212	0xbcf21b0f	-0.029553918
213	0x3f017a4d	0.5057724
214	0xbf3d67ed	-0.73986703
215	0x3e0c90d1	0.13727118
216	0x3edb0a4c	0.42781293
217	0x3f06ef46	0.5270885
218	0x3d660014	0.05615242
219	0xbc2b07b7	-0.010438851
220	0x3eba045d	0.36331454
221	0xbd6be4a9	-0.057591114
222	0xbea68fe4	-0.32531655
223	0xbecad8f4	-0.39618647
224	0xbe0f7171	-0.14008118
225	0xbf3eeb12	-0.7457744
226	0xbe8cd98d	-0.27509728
227	0x3d06bab3	0.032892894
228	0xbd978d2e	-0.07399975
229	0x3efa39a7	0.4887211
230	0x3f4a9323	0.7913076
231	0xbec418c8	-0.38300157
232	0x3e7613af	0.24030946
233	0x3ea0f08e	0.3143353
234	0xbd2da805	-0.042396564
235	0x3d621c08	0.055202514
236	0xbdb1ff63	-0.08691289
237	0x3e812ce0	0.2522955
238	0xbddb5867	-0.10710221
239	0xbe0407c4	-0.12893587
240	0x3f021d74	0.5082619
241	0xbe871140	-0.26380348
242	0xbe10aeb9	-0.14129151
243	0x3deda386	0.11603455
244	0x3ededc83	0.43527612
245	0x3d3052a6	0.04304757
246	0xbea229c7	-0.316725
247	0xbe885514	-0.2662741
248	0xbec1c23e	-0.37843508
249	0x3e80d7c8	0.25164628
250	0xbf40c621	-0.7530232
251	0x3ea51924	0.32245743
252	0xbf07621f	-0.52884096
253	0x3e70dbfd	0.23521419
254	0x3db12c5c	0.08651039
255	0x3e66a248	0.22522843

network_body._body_endoder.seq_layers.0.bias f4 [128]
0	0x00000000	0.0
1	0x00000000	0.0
2	0x00000000	0.0
3	0x00000000	0.0
4	0x00000000	0.0
5	0x00000000	0.0
6	0x00000000	0.0
7	0x00000000	0.0
8	0x00000000	0.0
9	0x00000000	0.0
10	0x00000000	0.0
11	0x00000000	0.0
12	0x00000000	0.0
13	0x00000000	0.0
14	0x00000000	0.0
15	0x00000000	0.0
16	0x00000000	0.0
17	0x00000000	0.0
18	0x00000000	0.0
19	0x00000000	0.0
20	0x00000000	0.0
21	0x00000000	0.0
22	0x00000000	0.0
23	0x00000000	0.0
24	0x00000000	0.0
25	0x00000000	0.0
26	0x00000000	0.0
27	0x00000000	0.0
28	0x00000000	0.0
29	0x00000000	0.0
30	0x00000000	0.0
31	0x00000000	0.0
32	0x00000000	0.0
33	0x00000000	0.0
34	0x00000000	0.0
35	0x00000000	0.0
36	0x00000000	0.0
37	0x00000000	0.0
38	0x00000000	0.0
39	0x00000000	0.0
40	0x00000000	0.0
41	0x00000000	0.0
42	0x00000000	0.0
43	0x00000000	0.0
44	0x00000000	0.0
45	0x00000000	0.0
46	0x00000000	0.0
47	0x00000000	0.0
48	0x00000000	0.0
49	0x00000000	0.0
50	0x00000000	0.0
51	0x00000000	0.0
52	0x00000000	0.0
53	0x00000000	0.0
54	0x00000000	0.0
55	0x00000000	0.0
56	0x00000000	0.0
57	0x00000000	0.0
58	0x00000000	0.0
59	0x00000000	0.0
60	0x00000000	0.0
61	0x00000000	0.0
62	0x00000000	0.0
63	0x00000000	0.0
64	0x00000000	0.0
65	0x00000000	0.0
66	0x00000000	0.0
67	0x00000000	0.0
68	0x00000000	0.0
69	0x00000000	0.0
70	0x00000000	0.0
71	0x00000000	0.0
72	0x00000000	0.0
73	0x00000000	0.0
74	0x00000000	0.0
75	0x00000000	0.0
76	0x00000000	0.0
77	0x00000000	0.0
78	0x00000000	0.0
79	0x00000000	0.0
80	0x00000000	0.0
81	0x00000000	0.0
82	0x00000000	0.0
83	0x00000000	0.0
84	0x00000000	0.0
85	0x00000000	0.0
86	0x00000000	0.0
87	0x00000000	0.0
88	0x00000000	0.0
89	0x00000000	0.0
90	0x00000000	0.0
91	0x00000000	0.0
92	0x00000000	0.0
93	0x00000000	0.0
94	0x00000000	0.0
95	0x00000000	0.0
96	0x00000000	0.0
97	0x00000000	0.0
98	0x00000000	0.0
99	0x00000000	0.0
100	0x00000000	0.0
101	0x00000000	0.0
102	0x00000000	0.0
103	0x00000000	0.0
104	0x00000000	0.0
105	0x00000000	0.0
106	0x00000000	0.0
107	0x00000000	0.0
108	0x00000000	0.0
109	0x00000000	0.0
110	0x00000000	0.0
111	0x00000000	0.0
112	0x00000000	0.0
113	0x00000000	0.0
114	0x00000000	0.0
115	0x00000000	0.0
116	0x00000000	0.0
117	0x00000000	0.0
118	0x00000000	0.0
119	0x00000000	0.0
120	0x00000000	0.0
121	0x00000000	0.0
122	0x00000000	0.0
123	0x00000000	0.0
124	0x00000000	0.0
125	0x00000000	0.0
126	0x00000000	0.0
127	0x00000000	0.0

network_body._body_endoder.seq_layers.2.weight f4 [128, 128]
0	0xbd1dee97	-0.038557615
1	0x3e527517	0.20552479
2	0xbd760397	-0.060062017
3	0x3ddf495d	0.10902665
4	0x3d239944	0.039941087
5	0xbc9c862d	-0.019106949
6	0xbdc1de36	-0.094662115
7	0xbda306b7	-0.07960265
8	0x3d2b78df	0.04186332
9	0xbde2f502	-0.11081888
10	0xbd99cecf	-0.07510149
11	0x3dbb0c4f	0.09133207
12	0xbd198a55	-0.03748544
13	0xbd1d9e4a	-0.038481034
14	0xbdbd5c92	-0.09246172
15	0x3dff288a	0.12458904
16	0x3d5e79ea	0.054315485
17	0x3de36532	0.11103286
18	0x3dad60f6	0.084657595
19	0xbcdf28dd	-0.027241165
20	0x3e290fac	0.16509885
21	0x3d85fa4d	0.06541882
22	0x3c874490	0.016512185
23	0x3d39a727	0.045325425
24	0x3e02900f	0.12750266
25	0x3c84e94c	0.016224526
26	0x3c11f5ed	0.008908731
27	0x3a05cf5e	0.00051044475
28	0x3d0bafb7	0.03410312
29	0x3d1ed967	0.03878155
30	0x3b949162	0.0045339325
31	0xbc7d72c9	-0.015469261
32	0x3c4fc225	0.012680565
33	0xbd974482	-0.07386114
34	0x3c388916	0.011263153
35	0x3df4cbfc	0.119529694
36	0xbd2ba64b	-0.041906636
37	0xbb9752be	-0.004618018
38	0x3b3f5edd	0.002920083
39	0x3d211aad	0.03933208
40	0xbd4c45ed	-0.049871374
41	0x3d6da938	0.058022708
42	0x3df107b5	0.11769048
43	0xbe61c47d	-0.2204761
44	0xbd47ba8f	-0.0487619
45	0x3d05688b	0.032570403
46	0xbcf8e348	-0.030381814
47	0xbd198284	-0.037477985
48	0xbcfddddd	-0.030989582
49	0x3c22e458	0.009942137
50	0x3c9186d8	0.017764494
51	0x3cade3b4	0.021226741
52	0x3d2da603	0.04239465
53	0x3dda4c61	0.10659099
54	0x3dd2b68f	0.102887265
55	0xbd6199d6	-0.05507835
56	0xbcb10717	-0.021609826
57	0xbdf5154d	-0.119669534
58	0xbe06ffa0	-0.1318345
59	0xbd5c482b	-0.053779762
60	0x3d91fc51	0.07128204
61	0xbd2e455f	-0.042546626
62	0xbd3573c4	-0.044299856
63	0x3af8d395	0.0018983955
64	0xbd4fa9d7	-0.05069908
65	0xb9305d06	-0.00016819322
66	0xbce5474b	-0.027988097
67	0x3d398fd0	0.045303166
68	0xbd019822	-0.031639226
69	0x3dffb928	0.124864876
70	0x3d884f34	0.06655732
71	0xbd6a5052	-0.057205506
72	0xbd123956	-0.03569921
73	0x3dfe37d5	0.12412993
74	0xbde5e671	-0.11225594
75	0x3a8c2699	0.0010692655
76	0xbcc09330	-0.023507684
77	0xbdb6414b	-0.088991724
78	0xbd9c1e21	-0.07622934
79	0x3c7e25ec	0.015511971
80	0x3d29d798	0.04146537
81	0x3b9b17ba	0.004733053
82	0x3e21df34	0.15807801
83	0x3d38312f	0.04496878
84	0x3df93b0d	0.12169466
85	0xbd99522c	-0.07486376
86	0x3ccb0193	0.024781024
87	0x3c12321d	0.008923081
88	0x3ca93e11	0.020659478
89	0xbdebb5f6	-0.11509316
90	0xbe20a765	-0.15688856
91	0xbd86c0c9	-0.065797396
92	0xbd039f32	-0.032134242
93	0x3d444451	0.047916714
94	0xbdb62990	-0.08894646
95	0x3bf12d67	0.0073601487
96	0x3cf3ac8e	0.029745366
97	0xbe3d6127	-0.18494092
98	0x3dc179e5	0.09447078
99	0xbdb49547	-0.08817535
100	0x3dec6872	0.11543359
101	0xbdbc9c76	-0.0920953
102	0x3d823d93	0.063594006
103	0x3de33643	0.11094334
104	0x3a0e8b55	0.0005437632
105	0xbd0bcc5c	-0.03413044
106	0x3dc598d2	0.09648289
107	0xbd576bf4	-0.052593186
108	0x3d893de4	0.06701258
109	0xbc4993b8	-0.012303285
110	0xbb8fe540	-0.0043913424
111	0x3e230793	0.15920858
112	0xbd83030a	-0.06397064
113	0xbd8750e7	-0.06607228
114	0xbdecb82d	-0.11558566
115	0x3d90c2fb	0.070684396
116	0xbcc87754	-0.024470963
117	0x3d46755e	0.048451774
118	0xbd8b379b	-0.06797715
119	0x3c86d420	0.016458571
120	0xbe0e7c06	-0.13914499
121	0xbde50f2a	-0.11184533
122	0x3e52f70e	0.20602056
123	0xbe43c624	-0.19118553
124	0xbcd49c5f	-0.02595347
125	0xbd0cc556	-0.03436788
126	0xbd830319	-0.06397075
127	0xbe06b993	-0.13156728
128	0x3dc75259	0.097325034
129	0x3ccb94d3	0.024851238
130	0x3db57f19	0.088621326
131	0xbdeb0b94	-0.11476818
132	0x3c576a8e	0.013147963
133	0x3da18f98	0.078887165
134	0x3e604f12	0.21905163
135	0xbda2a33c	-0.07941291
136	0xbd55d562	-0.05220545
137	0xbdf58bc7	-0.11989551
138	0x3cee395e	0.02908009
139	0x3d269679	0.040670846
140	0x3c999758	0.018748924
141	0x3d8baa19	0.06819553
142	0x3deddd0c	0.11614427
143	0x3dc710b3	0.09719982
144	0xbdb10429	-0.086433716
145	0xbd2fb82b	-0.042900246
146	0xbcf9d8da	-0.03049891
147	0xbc5505d2	-0.013001876
148	0x3d880485	0.06641487
149	0x3d165216	0.036699377
150	0xbd98fdd4	-0.07470289
151	0x3d2874b1	0.04112691
152	0x3d9fc247	0.07800727
153	0x3dd55957	0.10417431
154	0x3d368876	0.044563733
155	0xbdcdf387	-0.10056215
156	0x3cae36a3	0.021266287
157	0xbd157914	-0.036492422
158	0xbc0d11dc	-0.008610215
159	0xbdc1cf5a	-0.09463377
160	0x3daedff0	0.085388064
161	0x3d73f00a	0.05955509
162	0x3d4dcd29	0.050244484
163	0xbdb27935	-0.08714525
164	0xbdab741f	-0.08371758
165	0x3d622203	0.055208217
166	0xbdec71da	-0.11545153
167	0x3e119229	0.14215912
168	0x3d092150	0.033479035
169	0xbd4953f6	-0.049152337
170	0xbd8c8240	-0.06860781
171	0x3d8ed8ea	0.06974967
172	0x3d73bbcc	0.05950527
173	0x3dbcefd8	0.09225434
174	0x3d8938e5	0.06700305
175	0xbd868e92	-0.06570162
176	0x3d2ce927	0.04221454
177	0x3d30bc55	0.043148357
178	0xbe0723b7	-0.13197218
179	0xbd80c66d	-0.06287847
180	0xbdf52e15	-0.1197168
181	0xbc3c13c2	-0.01147932
182	0x3df24690	0.11829865
183	0x3d56cb80	0.052440166
184	0xbd0349e9	-0.032052908
185	0x3e1c9c3c	0.15293974
186	0x3e082394	0.13294822
187	0x3d445395	0.047931273
188	0xbd01a4de	-0.03165137
189	0xbcec2d12	-0.028830085
190	0x3adf763f	0.001704879
191	0x3e066d94	0.13127738
192	0xbdff734d	-0.12473164
193	0x3dd9080d	0.10597239
194	0xbdb45872	-0.08805932
195	0xbcc7d024	-0.024391241
196	0xbe1ad922	-0.15121892
197	0xbd367bd8	-0.0445517
198	0xbcb10254	-0.021607555
199	0xbce691ee	-0.028145757
200	0x3d2e1280	0.04249811
201	0x3bd590a9	0.006517489
202	0xbd5409fb	-0.05176733
203	0xbd3ead53	-0.046552014
204	0x3ccc4e79	0.024939762
205	0x3d0819d4	0.033227757
206	0xbcd9615a	-0.026535679
207	0xbd9932eb	-0.07480415
208	0x3c8c3152	0.017113362
209	0xbdd2a5ee	-0.10285555
210	0x3d87fa45	0.06639532
211	0x3bc9f092	0.0061627114
212	0x3dfeac1d	0.12435172
213	0xbe0e2635	-0.13881762
214	0xbb811c20	-0.0039401203
215	0x3d411818	0.04714212
216	0x3d68ac37	0.056804862
217	0x3d25e46e	0.04050105
218	0xbd9fad68	-0.077967465
219	0xbdb714bd	-0.089395024
220	0xbcca6055	-0.024704138
221	0x3d5adbeb	0.053432386
222	0xbd7be75f	-0.06149995
223	0x3d26c0e1	0.040711287
224	0xbe523a35	-0.20530017
225	0xbd576b61	-0.05259264
226	0x3d75aa7e	0.059977047
227	0x3d0420f7	0.032258
228	0x3d39f2c2	0.045397528
229	0x3c0cde1b	0.008597876
230	0x3b5a83c6	0.0033342703
231	0xbd9440da	-0.07238932
232	0x3a8bb15d	0.0010657717
233	0x3b05c321	0.0020410495
234	0xbca0fecb	-0.019652745
235	0x3cb23379	0.02175306
236	0xbd9096ce	-0.07060014
237	0xbd974032	-0.07385291
238	0xbc827f02	-0.015929703
239	0xbd34a06d	-0.044098306
240	0x3c2d93af	0.010594293
241	0xbd635b33	-0.055506896
242	0x3d8481bd	0.06470058
243	0xbb135e55	-0.0022486646
244	0xbe3de04b	-0.18542592
245	0xbe02a868	-0.12759554
246	0xbd6b78f6	-0.057488404
247	0xbbd872be	-0.006605475
248	0x3cbac9e8	0.022801355
249	0x3b56b745	0.0032763046
250	0x3d53d539	0.051717017
251	0xbd6cd6c1	-0.057821993
252	0xbdfdb77c	-0.123885125
253	0x3e0ac6ce	0.135524
254	0x3d753bc6	0.059871458
255	0x3da4c36a	0.08045085

network_body._body_endoder.seq_layers.2.bias f4 [128]
0	0x00000000	0.0
1	0x00000000	0.0
2	0x00000000	0.0
3	0x00000000	0.0
4	0x00000000	0.0
5	0x00000000	0.0
6	0x00000000	0.0
7	0x00000000	0.0
8	0x00000000	0.0
9	0x00000000	0.0
10	0x00000000	0.0
11	0x00000000	0.0
12	0x00000000	0.0
13	0x00000000	0.0
14	0x00000000	0.0
15	0x00000000	0.0
16	0x00000000	0.0
17	0x00000000	0.0
18	0x00000000	0.0
19	0x00000000	0.0
20	0x00000000	0.0
21	0x00000000	0.0
22	0x00000000	0.0
23	0x00000000	0.0
24	0x00000000	0.0
25	0x00000000	0.0
26	0x00000000	0.0
27	0x00000000	0.0
28	0x00000000	0.0
29	0x00000000	0.0
30	0x00000000	0.0
31	0x00000000	0.0
32	0x00000000	0.0
33	0x00000000	0.0
34	0x00000000	0.0
35	0x00000000	0.0
36	0x00000000	0.0
37	0x00000000	0.0
38	0x00000000	0.0
39	0x00000000	0.0
40	0x00000000	0.0
41	0x00000000	0.0
42	0x00000000	0.0
43	0x00000000	0.0
44	0x00000000	0.0
45	0x00000000	0.0
46	0x00000000	0.0
47	0x00000000	0.0
48	0x00000000	0.0
49	0x00000000	0.0
50	0x00000000	0.0
51	0x00000000	0.0
52	0x00000000	0.0
53	0x00000000	0.0
54	0x00000000	0.0
55	0x00000000	0.0
56	0x00000000	0.0
57	0x00000000	0.0
58	0x00000000	0.0
59	0x00000000	0.0
60	0x00000000	0.0
61	0x00000000	0.0
62	0x00000000	0.0
63	0x00000000	0.0
64	0x00000000	0.0
65	0x00000000	0.0
66	0x00000000	0.0
67	0x00000000	0.0
68	0x00000000	0.0
69	0x00000000	0.0
70	0x00000000	0.0
71	0x00000000	0.0
72	0x00000000	0.0
73	0x00000000	0.0
74	0x00000000	0.0
75	0x00000000	0.0
76	0x00000000	0.0
77	0x00000000	0.0
78	0x00000000	0.0
79	0x00000000	0.0
80	0x00000000	0.0
81	0x00000000	0.0
82	0x00000000	0.0
83	0x00000000	0.0
84	0x00000000	0.0
85	0x00000000	0.0
86	0x00000000	0.0
87	0x00000000	0.0
88	0x00000000	0.0
89	0x00000000	0.0
90	0x00000000	0.0
91	0x00000000	0.0
92	0x00000000	0.0
93	0x00000000	0.0
94	0x00000000	0.0
95	0x00000000	0.0
96	0x00000000	0.0
97	0x00000000	0.0
98	0x00000000	0.0
99	0x00000000	0.0
100	0x00000000	0.0
101	0x00000000	0.0
102	0x00000000	0.0
103	0x00000000	0.0
104	0x00000000	0.0
105	0x00000000	0.0
106	0x00000000	0.0
107	0x00000000	0.0
108	0x00000000	0.0
109	0x00000000	0.0
110	0x00000000	0.0
111	0x00000000	0.0
112	0x00000000	0.0
113	0x00000000	0.0
114	0x00000000	0.0
115	0x00000000	0.0
116	0x00000000	0.0
117	0x00000000	0.0
118	0x00000000	0.0
119	0x00000000	0.0
120	0x00000000	0.0
121	0x00000000	0.0
122	0x00000000	0.0
123	0x00000000	0.0
124	0x00000000	0.0
125	0x00000000	0.0
126	0x00000000	0.0
127	0x00000000	0.0

action_model._continuous_distribution.log_sigma f4 [1, 3]
0	0x00000000	0.0
1	0x00000000	0.0
2	0x00000000	0.0

action_model._continuous_distribution.mu.weight f4 [3, 128]
0	0xbc74e19d	-0.0149463685
1	0xbcd31963	-0.025768941
2	0xbcbf54b4	-0.02335582
3	0x3cac691c	0.021046214
4	0x3b738edf	0.0037164015
5	0xbcb4eb3f	-0.02208483
6	0x3c8987c5	0.016788373
7	0x3ae743b5	0.001764408
8	0x3afd534b	0.0019327191
9	0xbcbdda77	-0.023175461
10	0x3cfad4ca	0.030619044
11	0xbbeb46bb	-0.0071800626
12	0xbcd9daff	-0.026593683
13	0x3c91a263	0.017777627
14	0xb7eb8ccf	-2.8079752e-05
15	0xbb95bc39	-0.004569557
16	0x3ba7f7aa	0.0051259594
17	0x3bf6c04f	0.007530249
18	0x3caafb4a	0.020871777
19	0x3a6a0cff	0.0008928328
20	0x3ccfe4bd	0.025377626
21	0x3b9fc661	0.0048759435
22	0x3cb8e73b	0.022571197
23	0x3cde5035	0.027137855
24	0x3bfd0a9a	0.007722211
25	0xbc286df0	-0.010280117
26	0x3cd0bf75	0.025481919
27	0xbbba3525	-0.005682605
28	0xbb0fcff3	-0.0021944016
29	0x3b66c6ff	0.0035213826
30	0xbc5e5113	-0.013569134
31	0xbc336723	-0.010949883
32	0x3d2f3e21	0.04278386
33	0x3cac0a9b	0.02100115
34	0xbbf8186d	-0.007571271
35	0x3ccce47a	0.02501129
36	0xbc9d0955	-0.019169489
37	0x3cd04b15	0.025426427
38	0xbbae0ea3	-0.0053118034
39	0xbc0cfd5d	-0.008605328
40	0xbc17b6df	-0.009259908
41	0x3bd3abbb	0.006459681
42	0x3baba672	0.0052383477
43	0xbce621f3	-0.02809236
44	0xbc5f844f	-0.013642385
45	0x3cb9b1ea	0.022667844
46	0x3beab362	0.0071624974
47	0xbcbc859b	-0.023012927
48	0x3d1a3425	0.037647385
49	0x3c32c050	0.010910109
50	0xba9a97c0	-0.0011794493
51	0x3980143f	0.00024429147
52	0x3b2534bd	0.0025208436
53	0xbcd14662	-0.025546256
54	0xbcbb78d0	-0.022884756
55	0xb9b8ca5d	-0.00035245987
56	0x3b299133	0.00258739
57	0x3be186f8	0.0068825446
58	0x3c03ae4d	0.008037162
59	0x3cdc3c2f	0.026884167
60	0xbbecdcfa	-0.007228491
61	0x3cabd097	0.020973487
62	0x3c9df0d3	0.019279873
63	0xbc95be94	-0.018279351
64	0xbd28d40d	-0.041217852
65	0xbc34cce8	-0.011035182
66	0x3c8c26c4	0.017108329
67	0x3c9baf0e	0.019004371
68	0xbbe555d8	-0.0069987588
69	0xba08d2d8	-0.00052194064
70	0x3c01cd2f	0.007922455
71	0x3c34554f	0.011006667
72	0x3c34505f	0.01100549
73	0x3c9bff4b	0.019042632
74	0xbbd6cc02	-0.0065550813
75	0x3c382368	0.01123891
76	0x3bd8c54d	0.006615317
77	0xbb37b3f7	-0.0028030851
78	0xbc231034	-0.009952594
79	0xbc494cb9	-0.0122863585
80	0x3cafdc53	0.021467363
81	0xbbbd20ec	-0.005771747
82	0xbd0fd9b6	-0.035119735
83	0xba0fab16	-0.0005480511
84	0xbc2cf31c	-0.010556009
85	0x3cbe4e60	0.023230731
86	0x3cc76338	0.024339303
87	0xbc0537fa	-0.008131022
88	0x3bf120cb	0.0073586456
89	0x3c3decf5	0.0115921395
90	0x3c18fefd	0.009338138
91	0x3d0fbf4b	0.03509454
92	0xbc935ca3	-0.017988509
93	0x3af13002	0.0018401148
94	0xbc9522f5	-0.018205145
95	0xbc0c7438	-0.008572631
96	0xbcdfa832	-0.027301881
97	0xbb28c3bf	-0.002575144
98	0xbc58a6a8	-0.013223328
99	0x3a36b235	0.0006969304
100	0xbc595b57	-0.013266406
101	0xbcb7b09d	-0.022423083
102	0xbc44807b	-0.011993523
103	0x3c55563d	0.013021049
104	0x3a9c4163	0.0011921342
105	0xbc66316f	-0.014049872
106	0x3a5de675	0.0008464822
107	0x3bb612a4	0.0055564214
108	0x3c8807a1	0.0166052
109	0x3ce90b4b	0.028447768
110	0xbc33915b	-0.010959948
111	0xbb4b13fd	-0.0030987256
112	0xbb91b3b9	-0.0044464734
113	0xbd139567	-0.036031153
114	0x3c4fba33	0.012678671
115	0xbcecc5e5	-0.028902957
116	0x3c5f4bad	0.013628882
117	0xbc9fb18a	-0.019493837
118	0x3cb57443	0.022150164
119	0xbc0a1b5b	-0.008429374
120	0xbc0d8ef7	-0.0086400425
121	0xbcea6bb2	-0.028615806
122	0xbc7a5da7	-0.0152811175
123	0xbaa89c40	-0.0012863949
124	0x3b26fed0	0.002548147
125	0x3b51ed52	0.0032032323
126	0xbc703ccd	-0.014662934
127	0x3b0f8aa1	0.0021902698
128	0xbd0513f3	-0.03248973
129	0x3c971a93	0.018445289
130	0x3c2cfb5b	0.010557975
131	0x3c544b42	0.012957396
132	0x3b850b7c	0.004060207
133	0x3c3cf0bb	0.011532004
134	0xbc9a071e	-0.018802222
135	0x3c72f01b	0.014827753
136	0xbc762bd5	-0.015025099
137	0x3d2a14ff	0.04152393
138	0x3bb75c1d	0.0055956976
139	0xbba88f60	-0.0051440448
140	0x3ba6089b	0.005066944
141	0xbab0b45b	-0.0013481484
142	0x3add4947	0.00168828
143	0xbcb1b7b5	-0.021694044
144	0xbb117a93	-0.0022198304
145	0x38c18ff8	9.2297734e-05
146	0x3cb75dd6	0.022383612
147	0xbb64cb63	-0.0034911267
148	0x3c491879	0.012273901
149	0xbcd4f79f	-0.025996981
150	0x3bab44f3	0.0052267252
151	0xbce32b08	-0.02773048
152	0x3c97e341	0.01854098
153	0xbb2654a2	-0.0025380035
154	0xbac3849e	-0.0014916842
155	0x3bad419b	0.005287362
156	0xbca4ad8a	-0.020102281
157	0x3bdfc6d7	0.0068291235
158	0x3c004acb	0.007830332
159	0x3cfe7a6a	0.031064231
160	0x3cfe0805	0.031009683
161	0xbc717e83	-0.014739635
162	0x3c58aee7	0.013225294
163	0x3c7d41cd	0.015457583
164	0x3d1c4fe0	0.038162112
165	0xbcae383f	-0.021267055
166	0xbcb869b5	-0.022511343
167	0x3ba3e8c9	0.0050021154
168	0x3c49eac6	0.012324041
169	0xbc1532a0	-0.009106308
170	0x3ad8f34a	0.0016551998
171	0x3c8aa86b	0.016926011
172	0x3cc53380	0.024072409
173	0xbadd6255	-0.0016890267
174	0xbc9f90cb	-0.019478222
175	0x3c23abbc	0.009989675
176	0x3c972bd6	0.01845352
177	0x3badaeb7	0.0053003686
178	0xbc20efff	-0.0098228445
179	0x3bd6100b	0.006532674
180	0xbbeffe87	-0.007324043
181	0xbc1478f2	-0.009062039
182	0x3b34e205	0.0027600538
183	0x3bc6e42e	0.0060696816
184	0xbb60aadf	-0.0034281535
185	0x3c25d5dc	0.010121789
186	0x3caffbe0	0.021482408
187	0xbd0ea04a	-0.034820832
188	0xbb963dfc	-0.004585026
189	0x3d287136	0.04112359
190	0xbc84cc1f	-0.016210614
191	0xbca0c837	-0.01962672
192	0x3b38fc23	0.0028226457
193	0xbccbe23f	-0.024888156
194	0xbba9394c	-0.005164301
195	0x3c01c34e	0.007920099
196	0x3ce1195b	0.02747791
197	0x3ca63cd4	0.020292677
198	0xbb11ee98	-0.0022267457
199	0x3cd1e15b	0.025620153
200	0x3cb46c09	0.022024171
201	0x38fead8f	0.000121439916
202	0x3b212edf	0.0024594588
203	0x3b9c1757	0.0047635245
204	0x3cb43feb	0.022003135
205	0xb962af27	-0.00021618289
206	0x3c6508f8	0.013979189
207	0xba13fd1f	-0.0005645323
208	0xbccd35b8	-0.02505003
209	0xbcc2d803	-0.023784643
210	0xbcad31e3	-0.021141952
211	0xbbcff78a	-0.0063466476
212	0x3c9d4267	0.019196702
213	0x3c5a528d	0.013325346
214	0xbb8f3b2c	-0.0043710675
215	0x3c816f5f	0.015800176
216	0x3c9e6b44	0.019338258
217	0x3d084bbb	0.033275347
218	0xbce74c0d	-0.028234506
219	0xbbab0623	-0.0052192374
220	0xbb138a5a	-0.0022512884
221	0x3c4e3968	0.012586929
222	0xbb4b9973	-0.0031066805
223	0xbbc172ec	-0.0059035923
224	0x385f0473	5.3171487e-05
225	0x3c648110	0.0139467865
226	0x3b8b455a	0.0042502107
227	0x3d304c9b	0.043041807
228	0x39764d03	0.00023489077
229	0x3b99d767	0.0046948674
230	0xbb748340	-0.0037309676
231	0x3cb1bd6e	0.021696772
232	0x3a1cf664	0.0005987643
233	0xbb83cb70	-0.0040220544
234	0x3d0cd4b7	0.03438255
235	0x3b8d3937	0.004309799
236	0xbc91e0fe	-0.01780748
237	0x3c10af02	0.008830788
238	0x3c1c9fba	0.009559566
239	0xbc8c4bbe	-0.01712596
240	0x3c881b2e	0.016614523
241	0x3c1fba6f	0.009749039
242	0xbc5c03a3	-0.013428601
243	0x3c10c5ea	0.008836249
244	0x3bed9a87	0.007251087
245	0xbbb2499b	-0.0054409034
246	0x3cf1643a	0.029466737
247	0xbd34ba70	-0.044123113
248	0x3c84cd0d	0.016211057
249	0xbca18622	-0.01971728
250	0xbc2595f5	-0.010106553
251	0xbca6ab4a	-0.020345349
252	0x3ce36eeb	0.02776285
253	0x3b845685	0.0040386342
254	0xbb46da47	-0.0030342506
255	0xbb8e516f	-0.0043432037

action_model._continuous_distribution.mu.bias f4 [3]
0	0x00000000	0.0
1	0x00000000	0.0
2	0x00000000	0.0

network_body.observation_encoder.processors.0.normalizer.running_mean f4 [8]
0	0x00000000	0.0
1	0x00000000	0.0
2	0x00000000	0.0
3	0x00000000	0.0
4	0x00000000	0.0
5	0x00000000	0.0
6	0x00000000	0.0
7	0x00000000	0.0

network_body.observation_encoder.processors.0.normalizer.running_variance f4 [8]
0	0x3f800000	1.0
1	0x3f800000	1.0
2	0x3f800000	1.0
3	0x3f800000	1.0
4	0x3f800000	1.0
5	0x3f800000	1.0
6	0x3f800000	1.0
7	0x3f800000	1.0

network_body.processors.0.normalizer.running_mean f4 [8]
0	0x00000000	0.0
1	0x00000000	0.0
2	0x00000000	0.0
3	0x00000000	0.0
4	0x00000000	0.0
5	0x00000000	0.0
6	0x00000000	0.0
7	0x00000000	0.0

network_body.processors.0.normalizer.running_variance f4 [8]
0	0x3f800000	1.0
1	0x3f800000	1.0
2	0x3f800000	1.0
3	0x3f800000	1.0
4	0x3f800000	1.0
5	0x3f800000	1.0
6	0x3f800000	1.0
7	0x3f800000	1.0

network_body._body_endoder.seq_layers.0.weight f4 [128, 8]
0	0xbe83715e	-0.2567243
1	0x3ca1d484	0.019754656
2	0xbe2c0881	-0.16800119
3	0xbe3db91d	-0.18527646
4	0x3eadbdd4	0.3393389
5	0x3da1bcfe	0.078973755
6	0x3f15fd5c	0.5858972
7	0x3dff3b4c	0.12462482
8	0x3e0cab54	0.13737231
9	0xbddeb781	-0.10874844
10	0x3e7c6f9f	0.24651955
11	0x3e423c03	0.18968205
12	0x3ebc2820	0.36749363
13	0xbec00028	-0.3750012
14	0x3db30e22	0.0874293
15	0x3f16083a	0.586063
16	0xbeb43828	-0.35199094
17	0x3f0a7e4e	0.54098976
18	0x3cf78f91	0.030219825
19	0x3e8c82fe	0.2744369
20	0x3f1589f8	0.5841365
21	0xbd8afe85	-0.06786827
22	0xbe7b4065	-0.24536283
23	0x3d910f3f	0.07082986
24	0xbdc7a66f	-0.097485416
25	0x3f2414ca	0.6409422
26	0xbf07b360	-0.5300808
27	0xbe85f2b0	-0.26161718
28	0x3e6817ca	0.22665325
29	0xbf247457	-0.6424002
30	0xbefbb63a	-0.49162465
31	0x3edd82e8	0.43263936
32	0xbe838439	-0.25686815
33	0xbd836d30	-0.0641731
34	0xbea434c0	-0.32071495
35	0x3d4c9f0b	0.049956363
36	0xbf1bbb40	-0.60832596
37	0xbeb61b27	-0.3556759
38	0xbeb40b7e	-0.35165018
39	0xbe4caf5e	-0.19988772
40	0x3eda1da0	0.42600727
41	0xbed85bba	-0.42257482
42	0x3eedd99c	0.46455085
43	0x3eca2574	0.394817
44	0x3ec85e9e	0.39134687
45	0x3e53737b	0.20649521
46	0xbe9e5281	-0.3092232
47	0x3e91d2f0	0.28481245
48	0xbe7438f0	-0.23849845
49	0xbce3351b	-0.027735284
50	0xbe75e2ab	-0.24012248
51	0xbe997d83	-0.2997857
52	0x3de8edd7	0.11373489
53	0x3f02673e	0.50938785
54	0xbea61a5c	-0.32441986
55	0x3e60229d	0.21888204
56	0xbeb01314	-0.34389555
57	0xbf0be5ae	-0.5464734
58	0x3ed14cf3	0.4087902
59	0xbec22c2d	-0.37924328
60	0x3ef1b27c	0.47206485
61	0x3e8a4fc6	0.27013987
62	0x3e5ee549	0.21767153
63	0x3d6f865c	0.058477744
64	0xbe715629	-0.23568024
65	0xbe43b0ad	-0.19110365
66	0xbe726a50	-0.23673368
67	0x3e663e00	0.22484589
68	0x3d3ebaa2	0.046564706
69	0x3e982991	0.29719213
70	0x3f26f94b	0.6522414
71	0x3e0df129	0.13861527
72	0x3daf312d	0.085543014
73	0xbe839f01	-0.25707248
74	0xbf161c64	-0.5863707
75	0x3d48ac06	0.04899218
76	0xbeed73be	-0.46377367
77	0x3e9ee8cf	0.31036994
78	0xbe9e6b89	-0.30941418
79	0xbf2de06f	-0.67920583
80	0x3e2f7c74	0.17137319
81	0xbf498c81	-0.78730017
82	0xbe000bbe	-0.1250448
83	0x3f1d711e	0.6150073
84	0x3e4ac2a9	0.1980082
85	0x3e5925fd	0.21205898
86	0xbeb1b2ce	-0.3470673
87	0xbe0a6c71	-0.1351793
88	0xbe6783e8	-0.22608912
89	0x3da52592	0.080638066
90	0xbe3dbed5	-0.18529828
91	0xbe83a1b5	-0.2570931
92	0x3d84bcff	0.06481361
93	0x3ddc2ec6	0.10751109
94	0x3e180ad3	0.14847879
95	0x3eed310b	0.4632648
96	0xbe5b5df9	-0.21422566
97	0x3d43dca9	0.04781786
98	0xbdb85131	-0.08999861
99	0xbf391307	-0.7229466
100	0x3e524d60	0.20537329
101	0x3f287793	0.65807456
102	0xbf23033c	-0.6367681
103	0x3d7ceb01	0.061747555
104	0x3dacc1cf	0.084354036
105	0x3e1fa7e7	0.15591393
106	0xbf33e1c5	-0.7026637
107	0x3e2ec398	0.170668
108	0xbecc82b4	-0.3994347
109	0xbeb7607f	-0.35815808
110	0x3f1b2db0	0.6061659
111	0x3f526d11	0.8219767
112	0x3e9dc7e1	0.30816558
113	0x3e47656d	0.19472285
114	0x3e6b5615	0.22982056
115	0x3df103fd	0.11768339
116	0xbeea2f31	-0.4573913
117	0xbe032d8b	-0.12810342
118	0xbedde3ee	-0.4333796
119	0x3e5e2402	0.21693423
120	0xbed255fb	-0.41081223
121	0xbec1498c	-0.37751424
122	0x3e3c5d88	0.18395054
123	0xbdcc1940	-0.099657536
124	0x3e43236d	0.19056483
125	0xbdf3c736	-0.11903231
126	0x3c7f077e	0.015565751
127	0x3ced9422	0.0290013
128	0x3ca4dd9d	0.020125205
129	0xbdcb5baa	-0.09929593
130	0xbd4d821d	-0.050172914
131	0x3e5f581a	0.21810952
132	0xbe28d3a2	-0.16486982
133	0xbd073788	-0.033011943
134	0xbec75d71	-0.38938478
135	0x3d876e19	0.06612796
136	0xbf29ab54	-0.6627705
137	0x3e8a48ac	0.2700857
138	0xbeced11f	-0.40393922
139	0x3e5069b1	0.20352818
140	0xbf610b99	-0.8790832
141	0x3ed86ea2	0.42271906
142	0x3e0052f5	0.12531646
143	0x3f0a3c1f	0.5399799
144	0xbd39819b	-0.045289617
145	0xbbb77b94	-0.0055994485
146	0xbefb04ff	-0.4902725
147	0xbee283b2	-0.442411
148	0xbf057f1d	-0.52147084
149	0x3eba0395	0.36330858
150	0x3c96b7eb	0.018398246
151	0x3e15452a	0.14577165
152	0x3f0ff864	0.5623839
153	0xbe9713a2	-0.29507166
154	0x3f214ffe	0.63012683
155	0x3ecd582c	0.40106332
156	0x3e20bf2f	0.15697931
157	0x3e0c4e91	0.13701846
158	0x3e1c0d2a	0.15239397
159	0xbe92acc4	-0.28647435
160	0xbf48bd91	-0.78414255
161	0xbeb08661	-0.34477523
162	0x3f2dae4a	0.6784407
163	0xbeba9743	-0.3644353
164	0x3ed137be	0.4086284
165	0xbf0a3741	-0.5399056
166	0xbea146fb	-0.31499466
167	0x3e37c7db	0.17947333
168	0x3de5cfad	0.11221252
169	0x3e244efa	0.16045752
170	0xbe15373a	-0.14571849
171	0x3e51f008	0.20501721
172	0xbf261d43	-0.648884
173	0x3eadd850	0.33954096
174	0x3eb7046a	0.35745555
175	0x3e56c36b	0.20972984
176	0xbe961e6d	-0.29320088
177	0xbd0570c5	-0.03257825
178	0xbe5c6388	-0.21522343
179	0x3fa49386	1.285752
180	0xbe40b5c7	-0.18819343
181	0x3eec681d	0.46173182
182	0xbd9a7d15	-0.07543389
183	0xbea224cb	-0.31668696
184	0xbefcd042	-0.49377638
185	0xbec0ac43	-0.37631425
186	0x3ed30c28	0.41220212
187	0xbf41d536	-0.7571596
188	0xbe3658c6	-0.17807302
189	0x3d6fa502	0.058506973
190	0xbf163dc3	-0.5868799
191	0xbd57885c	-0.052620277
192	0x3e53bee6	0.2067829
193	0x3e0f1392	0.13972309
194	0x3f1f6d58	0.6227622
195	0xbf57badb	-0.84269494
196	0x3f153549	0.5828443
197	0xbeffd932	-0.49970394
198	0x3d87f47c	0.066384286
199	0xbf067611	-0.52523905
200	0xbc50a57e	-0.012734769
201	0xbedf2f37	-0.4359071
202	0xbdb9e313	-0.09076514
203	0x3d603823	0.054741036
204	0x3e218320	0.15772676
205	0x3ef5abdf	0.4798269
206	0x3d40ed5d	0.047101367
207	0xbf2a2065	-0.6645568
208	0xbe05f1a5	-0.13080461
209	0xbd26dee8	-0.040739924
210	0xbe8aa9c2	-0.2708264
211	0xbe446e81	-0.19182779
212	0xbf4c6148	-0.7983594
213	0x3e885dc3	0.26634035
214	0xbef56d25	-0.47934833
215	0xbf5c30a2	-0.8601171
216	0xbe2b67a4	-0.16738755
217	0xbe803593	-0.25040874
218	0x3e8a9dc3	0.27073488
219	0x3e89859d	0.2685975
220	0xbd14c11b	-0.036316972
221	0x3e1bd53b	0.1521806
222	0x3ecba4db	0.39774212
223	0xbe4d57e0	-0.20053053
224	0x3e055af5	0.13022979
225	0x3e3eb404	0.18623358
226	0x3e8f74d3	0.28018817
227	0xbf1622e9	-0.5864702
228	0xbd1e8abe	-0.038706534
229	0x3ebbb137	0.36658642
230	0xbd1a5369	-0.037677202
231	0xbeab6776	-0.33477372
232	0xbf105fdf	-0.5639629
233	0xbebca700	-0.3684616
234	0x3edc99b6	0.43086022
235	0x3ee7e5aa	0.45292407
236	0x3dd67962	0.10472371
237	0x3b835cd0	0.004008867
238	0x3e51490f	0.20438026
239	0x3e8b6ce4	0.27231514
240	0xbe71a122	-0.23596624
241	0x3d77b45b	0.060474735
242	0x3e370905	0.17874534
243	0x3e8cd666	0.27507323
244	0xbe8e6c65	-0.27817073
245	0xbe349e44	-0.17638499
246	0x3f27ec7d	0.6559523
247	0x3d04f9a4	0.03246464
248	0xbe1ba10b	-0.15198152
249	0xbea6fe88	-0.32616067
250	0x3d956e84	0.0729647
251	0x3ea2e235	0.31813207
252	0x3e0e0d77	0.13872324
253	0x3e43b6bf	0.19112681
254	0xbecc19b3	-0.39863357
255	0x3e68d173	0.22736149

network_body._body_endoder.seq_layers.0.bias f4 [128]
0	0x00000000	0.0
1	0x00000000	0.0
2	0x00000000	0.0
3	0x00000000	0.0
4	0x00000000	0.0
5	0x00000000	0.0
6	0x00000000	0.0
7	0x00000000	0.0
8	0x00000000	0.0
9	0x00000000	0.0
10	0x00000000	0.0
11	0x00000000	0.0
12	0x00000000	0.0
13	0x00000000	0.0
14	0x00000000	0.0
15	0x00000000	0.0
16	0x00000000	0.0
17	0x00000000	0.0
18	0x00000000	0.0
19	0x00000000	0.0
20	0x00000000	0.0
21	0x00000000	0.0
22	0x00000000	0.0
23	0x00000000	0.0
24	0x00000000	0.0
25	0x00000000	0.0
26	0x00000000	0.0
27	0x00000000	0.0
28	0x00000000	0.0
29	0x00000000	0.0
30	0x00000000	0.0
31	0x00000000	0.0
32	0x00000000	0.0
33	0x00000000	0.0
34	0x00000000	0.0
35	0x00000000	0.0
36	0x00000000	0.0
37	0x00000000	0.0
38	0x00000000	0.0
39	0x00000000	0.0
40	0x00000000	0.0
41	0x00000000	0.0
42	0x00000000	0.0
43	0x00000000	0.0
44	0x00000000	0.0
45	0x00000000	0.0
46	0x00000000	0.0
47	0x00000000	0.0
48	0x00000000	0.0
49	0x00000000	0.0
50	0x00000000	0.0
51	0x00000000	0.0
52	0x00000000	0.0
53	0x00000000	0.0
54	0x00000000	0.0
55	0x00000000	0.0
56	0x00000000	0.0
57	0x00000000	0.0
58	0x00000000	0.0
59	0x00000000	0.0
60	0x00000000	0.0
61	0x00000000	0.0
62	0x00000000	0.0
63	0x00000000	0.0
64	0x00000000	0.0
65	0x00000000	0.0
66	0x00000000	0.0
67	0x00000000	0.0
68	0x00000000	0.0
69	0x00000000	0.0
70	0x00000000	0.0
71	0x00000000	0.0
72	0x00000000	0.0
73	0x00000000	0.0
74	0x00000000	0.0
75	0x00000000	0.0
76	0x00000000	0.0
77	0x00000000	0.0
78	0x00000000	0.0
79	0x00000000	0.0
80	0x00000000	0.0
81	0x00000000	0.0
82	0x00000000	0.0
83	0x00000000	0.0
84	0x00000000	0.0
85	0x00000000	0.0
86	0x00000000	0.0
87	0x00000000	0.0
88	0x00000000	0.0
89	0x00000000	0.0
90	0x00000000	0.0
91	0x00000000	0.0
92	0x00000000	0.0
93	0x00000000	0.0
94	0x00000000	0.0
95	0x00000000	0.0
96	0x00000000	0.0
97	0x00000000	0.0
98	0x00000000	0.0
99	0x00000000	0.0
100	0x00000000	0.0
101	0x00000000	0.0
102	0x00000000	0.0
103	0x00000000	0.0
104	0x00000000	0.0
105	0x00000000	0.0
106	0x00000000	0.0
107	0x00000000	0.0
108	0x00000000	0.0
109	0x00000000	0.0
110	0x00000000	0.0
111	0x00000000	0.0
112	0x00000000	0.0
113	0x00000000	0.0
114	0x00000000	0.0
115	0x00000000	0.0
116	0x00000000	0.0
117	0x00000000	0.0
118	0x00000000	0.0
119	0x00000000	0.0
120	0x00000000	0.0
121	0x00000000	0.0
122	0x00000000	0.0
123	0x00000000	0.0
124	0x00000000	0.0
125	0x00000000	0.0
126	0x00000000	0.0
127	0x00000000	0.0

network_body._body_endoder.seq_layers.2.weight f4 [128, 128]
0	0x3dd17d18	0.10228938
1	0xbc7b6ed6	-0.01534625
2	0xbe60ed61	-0.21965553
3	0xbda01246	-0.078159854
4	0xbc9703f6	-0.018434506
5	0x3e1f3b4b	0.15549962
6	0xbdfdcfc1	-0.123931415
7	0xbdd70dc6	-0.10500674
8	0xbc8402dd	-0.016114647
9	0x3dc54440	0.09632158
10	0x3df9e05d	0.12200997
11	0x3e40631d	0.18787809
12	0x3ca32abb	0.019917836
13	0xbdd31cd0	-0.1030823
14	0xbdc55f55	-0.09637324
15	0x3e20061f	0.15627335
16	0x3e0bf19c	0.13666385
17	0x3e17efe1	0.148376
18	0xbdac3696	-0.08408849
19	0x3d77680a	0.060401954
20	0xbe1595d1	-0.14607932
21	0xbccfb094	-0.025352754
22	0x3cf44856	0.029819649
23	0xbd37d477	-0.044880357
24	0xbe4d5df9	-0.20055379
25	0xbbb37962	-0.0054771164
26	0x3d51166d	0.051046778
27	0x3d27dc8b	0.04098181
28	0xbcb7510c	-0.022377513
29	0xbd99d9f2	-0.07512273
30	0x3c843584	0.0161388
31	0xbd05c5ff	-0.032659527
32	0x3d94e9fb	0.07271191
33	0xbcc234dd	-0.023706848
34	0x3d400ee4	0.0468892
35	0x3d14188a	0.036156215
36	0x3a9d77ee	0.0012013891
37	0xbdf59b2d	-0.11992488
38	0x3cc57dcb	0.024107834
39	0x3e107d5c	0.14110321
40	0xbc62848b	-0.013825546
41	0x3d2f1dac	0.042752907
42	0x3db05abb	0.086110555
43	0xbd7801bb	-0.060548525
44	0xbc0d0483	-0.008607033
45	0xbddbda8d	-0.10735045
46	0x3e8f06a6	0.2793476
47	0x3ca8fe1f	0.020628987
48	0xbc7cfd27	-0.015441216
49	0x3d55b1d6	0.05217155
50	0x3e26055d	0.16212983
51	0x3de415d2	0.111369744
52	0xbdd2bab6	-0.102895185
53	0xbd6aa3fb	-0.05728529
54	0xbac2eb3e	-0.0014871133
55	0x3c7e5720	0.015523702
56	0x3de748b2	0.112931624
57	0xbe0c064a	-0.13674274
58	0x3e3a1104	0.18170553
59	0xbd128f7a	-0.03578136
60	0xbd39b4c7	-0.04533842
61	0xbd9ed413	-0.07755294
62	0x3d501ff7	0.050811734
63	0xbb23f166	-0.002501571
64	0x3e3c71ab	0.18402736
65	0x3e3e766a	0.18599859
66	0xbdc3cffb	-0.095611535
67	0xbdc55a25	-0.09636334
68	0x3d6c255c	0.057652816
69	0xbd2ee83e	-0.042701952
70	0x3e2b8f6c	0.1675393
71	0xbe123387	-0.14277469
72	0xbd9d4951	-0.076799996
73	0x3d8d16ce	0.06889115
74	0x3d5ba3a9	0.053622875
75	0x3d93accb	0.07210692
76	0xbcad7f2f	-0.02117881
77	0xbd560efe	-0.05226039
78	0x3c0d1b2f	0.008612438
79	0x3dbcddb4	0.09221974
80	0x3b7d4e5f	0.003865145
81	0xbe00b722	-0.1256986
82	0x3d99460f	0.07484066
83	0x3ce515f9	0.027964579
84	0x3e07a518	0.13246572
85	0xbc0c9db4	-0.008582521
86	0x3cef4254	0.029206432
87	0x3b97b2b1	0.004629456
88	0xbafa9036	-0.0019116465
89	0xbd0f7ecc	-0.035033032
90	0x3ceda72e	0.029010382
91	0x3a2edb13	0.0006670218
92	0x3cc10dcc	0.02356615
93	0x3d9bfa8c	0.076161474
94	0xbe076f10	-0.1322596
95	0xbac45321	-0.0014978388
96	0xbd472a4e	-0.04862433
97	0xbdbb259c	-0.09138033
98	0x3bf0af73	0.007345134
99	0x3cc0413a	0.023468602
100	0xbcaa5686	-0.02079321
101	0xbdb54ba3	-0.08852317
102	0x3c5836a9	0.013196626
103	0xbdc24df2	-0.09487523
104	0x3d84ec70	0.064904094
105	0xbe82515c	-0.25452697
106	0xbe050b39	-0.12992562
107	0xbe37c811	-0.17947413
108	0x3d37858e	0.044805102
109	0x3dec5fba	0.11541696
110	0xbd80b1e4	-0.0628393
111	0x3dca34eb	0.098733746
112	0x3da34d0c	0.0797368
113	0x3d7fb425	0.06242766
114	0x3d1c6a0c	0.03818707
115	0xbc2e10ad	-0.010624093
116	0xbd556e02	-0.052106865
117	0x3cfdf63f	0.031001208
118	0x3e52fff5	0.20605452
119	0xbd45aa5f	-0.04825818
120	0x3c6fe6b0	0.0146424025
121	0x3e04c9aa	0.12967554
122	0xbcbb3d34	-0.022856332
123	0x3d3ee850	0.04660827
124	0x3cba914b	0.02277436
125	0x3d6c1c44	0.057644144
126	0xb9d49402	-0.00040546065
127	0xbcc7054b	-0.024294516
128	0x3d660450	0.056156456
129	0xbdfbbb5c	-0.12291595
130	0xbdd04db2	-0.10171069
131	0x3d526de4	0.05137433
132	0xbbd55479	-0.006510314
133	0xbdd870bd	-0.10568378
134	0xbbd8d8d5	-0.0066176453
135	0xbe4dfb5b	-0.20115416
136	0x3bd7e840	0.0065889657
137	0x3dfdf959	0.12401075
138	0x3d85e651	0.0653807
139	0x3dc8ed48	0.09810883
140	0x3d810cdb	0.0630128
141	0xbb9b5f09	-0.0047415537
142	0xba8a5e2d	-0.0010556631
143	0x3be8afd1	0.007101037
144	0x3c9ec163	0.019379323
145	0x3d028d38	0.031872958
146	0xbdc13857	-0.09434574
147	0xbe25cc84	-0.16191298
148	0x3e01f04f	0.12689327
149	0x3dcdacab	0.100426994
150	0x3d2bd732	0.041953273
151	0x3de631ea	0.11239989
152	0x3d449b8a	0.047999896
153	0xbc84caea	-0.016210038
154	0xbcd9df28	-0.026595667
155	0xbd086bad	-0.033305813
156	0xbd4f69aa	-0.05063788
157	0x3b8d0487	0.004303518
158	0x3cc77635	0.024348358
159	0x3e07e293	0.13270025
160	0xbd122280	-0.035677433
161	0xbd906cbb	-0.07051989
162	0x3d36aa82	0.044596203
163	0xbdbb55f0	-0.09147251
164	0xbe481f6c	-0.19543236
165	0x3c9530ad	0.018211687
166	0x3e389235	0.18024524
167	0x3dd7daf9	0.105398126
168	0x3c23f492	0.010007041
169	0x3d6da10b	0.05801491
170	0x3dc39e34	0.09551659
171	0x3e09b08b	0.13446252
172	0x3d0b62f1	0.034029905
173	0xbb519c09	-0.0031983873
174	0xbda3f705	-0.080060996
175	0xbd28d45f	-0.041218158
176	0x3d9635d1	0.073344834
177	0x3c721621	0.014775784
178	0x3d716cb6	0.058941565
179	0x3d5c5e47	0.053800847
180	0x3d1b9af4	0.03798957
181	0x3d800472	0.06250848
182	0xbd1c8ed0	-0.038222134
183	0x3d90bebb	0.07067629
184	0x3ba8e853	0.0051546483
185	0x3e38f01a	0.18060341
186	0x3e263a81	0.16233255
187	0xbd267722	-0.040640958
188	0x3d7b298d	0.061318923
189	0xbdf9851a	-0.1218359
190	0x3e0fbf70	0.14037871
191	0x3d35c06c	0.04437296
192	0x3d780289	0.060549293
193	0x3d1ebe3c	0.03875564
194	0xbb7bfb94	-0.0038449513
195	0x3d2d72a0	0.042345643
196	0xbcabc661	-0.020968618
197	0x3e0ea61b	0.13930552
198	0x3d54e978	0.051980466
199	0xbe0da30f	-0.13831733
200	0xbdeb0975	-0.11476413
201	0x3de1b132	0.110201254
202	0xbe01d1ca	-0.12677684
203	0x3d8867d4	0.06660429
204	0xbe01f308	-0.12690365
205	0x3d9a978e	0.07548438
206	0x3dd6aa14	0.104816586
207	0xbcc4a591	-0.02400473
208	0xbd8945b8	-0.06702751
209	0xbd6f395b	-0.058404308
210	0xbadcff8f	-0.001686083
211	0x3d4415d4	0.04787238
212	0xbcc2cade	-0.023778375
213	0x3d81d5ba	0.06339593
214	0x3dbdeac7	0.09273296
215	0xbe2918a3	-0.16513304
216	0xbde816b6	-0.11332457
217	0xbdca6cce	-0.09884034
218	0xbdf75143	-0.12076046
219	0x3d0abed1	0.033873383
220	0xbd00c415	-0.031437
221	0x3d072eb5	0.033003528
222	0xbdd03d8b	-0.101679884
223	0xbce17b7f	-0.027524708
224	0x3d9ea707	0.07746702
225	0x3d01af92	0.031661578
226	0xbdec16c8	-0.11527783
227	0x3e1ca210	0.15296197
228	0xbe371a19	-0.17881049
229	0xbc8eb948	-0.017422333
230	0xbdd29d2c	-0.102838844
231	0x3da0741b	0.07834645
232	0xbcc759f5	-0.024334887
233	0x3d20e4a5	0.039280552
234	0xbcf54391	-0.029939445
235	0x3e213a8f	0.15744995
236	0xbe2d7e0c	-0.16942614
237	0x3d8c9def	0.06866061
238	0xbb8baa8f	-0.0042622755
239	0x3d33c71a	0.04389105
240	0x3e056b3c	0.13029188
241	0xbdffd3ea	-0.12491591
242	0x3d591aad	0.053003956
243	0xbc0def20	-0.008662969
244	0x3cfbd90d	0.030743146
245	0x3e01345c	0.1261763
246	0xbc85f0e3	-0.016350215
247	0xbd4b0260	-0.04956281
248	0x3caeb205	0.02132512
249	0xbc4d2e9c	-0.01252332
250	0xbced4062	-0.028961364
251	0xbe1f71ea	-0.15570799
252	0xbdb64b81	-0.0890112
253	0x3e0abd8e	0.13548872
254	0x3d9d0e27	0.07668715
255	0xbcdce336	-0.026963811

network_body._body_endoder.seq_layers.2.bias f4 [128]
0	0x00000000	0.0
1	0x00000000	0.0
2	0x00000000	0.0
3	0x00000000	0.0
4	0x00000000	0.0
5	0x00000000	0.0
6	0x00000000	0.0
7	0x00000000	0.0
8	0x00000000	0.0
9	0x00000000	0.0
10	0x00000000	0.0
11	0x00000000	0.0
12	0x00000000	0.0
13	0x00000000	0.0
14	0x00000000	0.0
15	0x00000000	0.0
16	0x00000000	0.0
17	0x00000000	0.0
18	0x00000000	0.0
19	0x00000000	0.0
20	0x00000000	0.0
21	0x00000000	0.0
22	0x00000000	0.0
23	0x00000000	0.0
24	0x00000000	0.0
25	0x00000000	0.0
26	0x00000000	0.0
27	0x00000000	0.0
28	0x00000000	0.0
29	0x00000000	0.0
30	0x00000000	0.0
31	0x00000000	0.0
32	0x00000000	0.0
33	0x00000000	0.0
34	0x00000000	0.0
35	0x00000000	0.0
36	0x00000000	0.0
37	0x00000000	0.0
38	0x00000000	0.0
39	0x00000000	0.0
40	0x00000000	0.0
41	0x00000000	0.0
42	0x00000000	0.0
43	0x00000000	0.0
44	0x00000000	0.0
45	0x00000000	0.0
46	0x00000000	0.0
47	0x00000000	0.0
48	0x00000000	0.0
49	0x00000000	0.0
50	0x00000000	0.0
51	0x00000000	0.0
52	0x00000000	0.0
53	0x00000000	0.0
54	0x00000000	0.0
55	0x00000000	0.0
56	0x00000000	0.0
57	0x00000000	0.0
58	0x00000000	0.0
59	0x00000000	0.0
60	0x00000000	0.0
61	0x00000000	0.0
62	0x00000000	0.0
63	0x00000000	0.0
64	0x00000000	0.0
65	0x00000000	0.0
66	0x00000000	0.0
67	0x00000000	0.0
68	0x00000000	0.0
69	0x00000000	0.0
70	0x00000000	0.0
71	0x00000000	0.0
72	0x00000000	0.0
73	0x00000000	0.0
74	0x00000000	0.0
75	0x00000000	0.0
76	0x00000000	0.0
77	0x00000000	0.0
78	0x00000000	0.0
79	0x00000000	0.0
80	0x00000000	0.0
81	0x00000000	0.0
82	0x00000000	0.0
83	0x00000000	0.0
84	0x00000000	0.0
85	0x00000000	0.0
86	0x00000000	0.0
87	0x00000000	0.0
88	0x00000000	0.0
89	0x00000000	0.0
90	0x00000000	0.0
91	0x00000000	0.0
92	0x00000000	0.0
93	0x00000000	0.0
94	0x00000000	0.0
95	0x00000000	0.0
96	0x00000000	0.0
97	0x00000000	0.0
98	0x00000000	0.0
99	0x00000000	0.0
100	0x00000000	0.0
101	0x00000000	0.0
102	0x00000000	0.0
103	0x00000000	0.0
104	0x00000000	0.0
105	0x00000000	0.0
106	0x00000000	0.0
107	0x00000000	0.0
108	0x00000000	0.0
109	0x00000000	0.0
110	0x00000000	0.0
111	0x00000000	0.0
112	0x00000000	0.0
113	0x00000000	0.0
114	0x00000000	0.0
115	0x00000000	0.0
116	0x00000000	0.0
117	0x00000000	0.0
118	0x00000000	0.0
119	0x00000000	0.0
120	0x00000000	0.0
121	0x00000000	0.0
122	0x00000000	0.0
123	0x00000000	0.0
124	0x00000000	0.0
125	0x00000000	0.0
126	0x00000000	0.0
127	0x00000000	0.0

value_heads.value_heads.extrinsic.weight f4 [1, 128]
0	0x3e2f5c43	0.17125039
1	0xbd7af0b4	-0.06126471
2	0x3cfece94	0.031104364
3	0x3dc85cca	0.09783323
4	0xbcdb8812	-0.026798282
5	0xbd08a5d7	-0.033361282
6	0xbe20ce50	-0.15703702
7	0x3daa2255	0.083073296
8	0x3e34201e	0.17590377
9	0x3ca9b809	0.020717638
10	0x3e274cb3	0.16337852
11	0xbe0668bb	-0.13125889
12	0x3ccf0df5	0.02527521
13	0x3cb68237	0.022278888
14	0x3d303ae3	0.04302491
15	0xbbf3aa3e	-0.007436066
16	0x3e134041	0.1437998
17	0xbd9ac3bb	-0.07556864
18	0xbe1cf058	-0.15326059
19	0x3e23f08d	0.16009732
20	0x3da8df55	0.08245722
21	0x3e33c521	0.17555667
22	0xbd935280	-0.0719347
23	0x3db17cd6	0.08666389
24	0xbde660c4	-0.11248925
25	0x3d821c47	0.0635305
26	0xbd1edfcd	-0.03878765
27	0x3c597008	0.013271339
28	0x3d8b8a40	0.068134785
29	0xbdff34bd	-0.12461231
30	0x3c8ad74d	0.016948367
31	0xbcc48814	-0.023990668
32	0x3dad8956	0.084734604
33	0xbe3e7163	-0.18597941
34	0xbd518330	-0.0511505
35	0xbd08f59c	-0.033437356
36	0x3d9d54e4	0.07682207
37	0x3e026d65	0.12737043
38	0x3e28378d	0.16427441
39	0x3dc10f90	0.094267964
40	0x3c2acb7f	0.010424494
41	0x3e075a8c	0.13218135
42	0xbe22166c	-0.15828866
43	0xbde9356a	-0.11387141
44	0x3d001f6a	0.03127996
45	0xbe36f0d7	-0.1786531
46	0xbd7c1dcc	-0.061551854
47	0x3c476aa0	0.0121714175
48	0xbdc3d83e	-0.09562729
49	0x3d5627bf	0.052284
50	0x3d92f2a3	0.071751855
51	0xbc8cfb17	-0.017209573
52	0xbe46d559	-0.19417323
53	0x3d4f34cd	0.050587464
54	0x3cd26893	0.02568463
55	0x3dbc5c8d	0.0919734
56	0xbd995ffd	-0.074890114
57	0x3e04894e	0.12943003
58	0x3d8b8c87	0.06813913
59	0xbd84b9c5	-0.06480745
60	0xbe0ca115	-0.13733323
61	0x3e0f957e	0.1402187
62	0xbe083460	-0.1330123
63	0xbdea0f24	-0.11428669
64	0x3ddc13a9	0.107459374
65	0xbcc89da0	-0.024489224
66	0xbe280008	-0.16406262
67	0x3c9251ed	0.01786133
68	0xbe0c0387	-0.1367322
69	0x3c274d90	0.010211363
70	0x3df65304	0.12027553
71	0xbde0dbe6	-0.10979442
72	0x3e0fd83d	0.14047332
73	0xbd3d8449	-0.046268735
74	0xbdd5893b	-0.10426565
75	0xbd7da443	-0.06192423
76	0xbd746149	-0.05966309
77	0x3e3d647b	0.18495362
78	0x3da61280	0.08108997
79	0x3e4887f8	0.19583118
80	0x3d18ca51	0.03730232
81	0xbdf2df42	-0.11858989
82	0xbdf2e4a0	-0.11860013
83	0xbe2e0eb5	-0.16997798
84	0xbcf97986	-0.030453455
85	0xbdfa77ea	-0.12229903
86	0xbdc43306	-0.095800444
87	0x3e4b124c	0.19831198
88	0xbe42d8ec	-0.19028062
89	0x3d8dce11	0.0692407
90	0xbd056bfa	-0.032573678
91	0xbdd84ce9	-0.105615444
92	0xbe0e9b87	-0.13926516
93	0xbe1313a5	-0.14362963
94	0x3e35c9be	0.1775274
95	0x3cb14c37	0.021642787
96	0x3d471f01	0.048613552
97	0x3ddb25ea	0.10700591
98	0x3e43c219	0.19117011
99	0xbe402de5	-0.18767507
100	0xbe0ca7f5	-0.13735946
101	0x3dc92665	0.09821776
102	0xbe574f35	-0.21026309
103	0x3e07f0da	0.13275471
104	0xbdf2bd1e	-0.118524775
105	0x3db98c34	0.09059945
106	0x3de150e2	0.11001755
107	0x3d11c75c	0.035590515
108	0xbe40f20d	-0.18842335
109	0xbe32c407	-0.17457591
110	0xbe0b1053	-0.13580446
111	0xbe12cf52	-0.14336899
112	0xbdf13a5c	-0.11778709
113	0xbdef86c9	-0.1169563
114	0xbcb821ce	-0.022477057
115	0x3e09c64a	0.13454548
116	0xbe00c803	-0.12576298
117	0x3d952403	0.07282259
118	0x3e46bdde	0.19408366
119	0xbd78127f	-0.060564514
120	0x3e356ee1	0.17718078
121	0xbccb0d70	-0.024786681
122	0xbdb24e73	-0.08706369
123	0x3cf133b0	0.029443592
124	0xbe2bfef2	-0.16796473
125	0x3e4be652	0.19912079
126	0x3ce08ebb	0.02741181
127	0xbe274bdb	-0.1633753
