results/Shoot_v1/Shooter/Shooter-40765.pt (torch, 444937 bytes, 44 tensors)

network_body.observation_encoder.processors.0.normalizer.running_mean f4 [7]
00000000: b6bb cc3a 6f91 fa3b 0000 0000 2219 443f
00000010: 63fe 7f3f 7212 85bd 15e1 2abe
0.0015619907 0.0076467316 0.0 0.7660085 0.9999754 -0.06497659 -0.16687424

network_body.observation_encoder.processors.0.normalizer.running_variance f4 [7]
00000000: 68b9 1441 f75a 4641 0000 803f ce3f 1a45
00000010: 3200 0040 88e8 9046 d45e a346
9.295265 12.397208 1.0 2467.9878 2.000012 18548.266 20911.414

network_body.processors.0.normalizer.running_mean f4 [7]
00000000: b6bb cc3a 6f91 fa3b 0000 0000 2219 443f
00000010: 63fe 7f3f 7212 85bd 15e1 2abe
0.0015619907 0.0076467316 0.0 0.7660085 0.9999754 -0.06497659 -0.16687424

network_body.processors.0.normalizer.running_variance f4 [7]
00000000: 68b9 1441 f75a 4641 0000 803f ce3f 1a45
00000010: 3200 0040 88e8 9046 d45e a346
9.295265 12.397208 1.0 2467.9878 2.000012 18548.266 20911.414

network_body._body_endoder.seq_layers.0.weight f4 [128, 7]
00000000: 15c0 d23d 2f10 62be 117e 8f3e 7598 e5be
00000010: 7736 b6bc efb7 f53d f63d a63e f549 803e
00000020: fe40 6bbf 6685 1a3f f657 5abe 252a 1dbe
00000030: c0c3 6c3e 704d 023e 7b3c c83d f06d 39bf
00000040: 27b4 a23e a002 2abd 5f61 bebe b88a 7a3e
00000050: f7d3 023f 2b9e c2be 16cf 26bf 56e5 323f
00000060: 267e 6c3e 6170 0b3f 6936 4d3d c091 083f
00000070: e46e 363f f179 9dbd 28ca 1b3e cd8d e6be
00000080: 356c 35bd 93ba 1c3e 096a dbbe 48e9 2f3d
00000090: bf28 493f e5d7 ce3e 22db 003d 7eab 933d
000000a0: 6f67 07bd 3269 4c3e 634e d6be 44a8 be3e
000000b0: a8d4 f1be 65f1 8a3d 7fea dcbe d702 b3bd
000000c0: 18e9 83be f37c b7be 604f 313d d793 9cbe
000000d0: 1ac1 c2be e9a9 933d 884e 53bf cb85 4b3e
000000e0: d317 0bbe f84e 0a3e 1275 56bf d643 aabc
000000f0: aab9 e23c d9be b3be 0b60 873f d4c6 25bc
00000100: 780a dbbd d535 ae3e 8ff9 353e 4dab 253f
00000110: d7e5 edbe 6975 cc3e 5901 e23e 9802 c43e
00000120: c986 d2bc b329 e73d 91c3 d9bd d385 ccbd
00000130: 8c93 79be 9beb b33d 5ffa 1fbe 8776 e6be
00000140: a946 edbd dbc9 d9be 88b6 ed3e 6531 2abf
00000150: 97f2 98be 0d91 11bd bb79 143f 9d8d 143e
00000160: 8a92 6c3e aa65 013f 0cbd f3be 2076 2fbe
00000170: bc3c 193e 9bd1 11bf 84ce 2c3e 34ca 593e
00000180: 0d51 a33e f00c 193f 28ad 3cbf 446f 29be
00000190: 8e34 bfbe 5c5a ef3e 05b9 473e 87e8 ff3e
000001a0: a005 bb3e 18b4 c5bc 3829 d43e d9e2 f83e
000001b0: d1f7 083f 664e f9bd c56c 043e c1d8 6dbe
000001c0: a6e5 833e 6b5d c33d 7c62 a63e 9828 08be
000001d0: 9821 623e b711 003f 4b4d 8a3d 04cb 1abe
000001e0: 9521 1f3f bc28 fdbe 2ddb 20bf 3556 e1bd
000001f0: 374f 87be 8fc7 3abe a040 e9be 8415 97be
00000200: efef 0c3f 8cf8 cabe da0b a4be bb06 a53e
00000210: 4212 153e 4c22 dd3e 7c1c 1b3c e8b8 523f
00000220: 84c9 0fbe ab25 41be c703 c43e f315 223e
00000230: 3578 9b3e 994d 17be c377 04bf 58aa cebe
00000240: c133 383f 1f43 793d 5630 b9be c3c1 80be
00000250: 23f4 fdbd 4420 e63e ddcc a23d 8bad 97bd
00000260: 7035 bd3e 6d20 d1bd 4e3e e2be ff54 01bd
00000270: 598d c7be 0b1b 523d b74c b1be 00c6 2a3e
00000280: b608 82be e200 e5be 4316 d5be aa56 c1be
00000290: 4644 60bf 526a ae3e 56c7 16bf d435 c73e
000002a0: 3419 cf3d 1c61 03bf 8edc 463e 55a4 28be
000002b0: 42b7 d13e 67d6 b43e 239c 70bd 41d6 0f3e
000002c0: f171 50be 4d82 24be b692 a83d 05a5 5ebe
000002d0: 4cd8 823f d6cd 9ebe 4c1d f9be a816 253f
000002e0: a495 b63e 89ec d63e 07bd f83e c59b 55be
000002f0: 057e b7be 54b1 393d 2927 e43e e1e2 e3bd
00000300: 3b9c f4bd 5c71 38bd 916b 583e 730e 3f3e
00000310: ce3f ad3e 9120 b83e 322e 7dbf 533a 213e
00000320: a709 1fbe 296b db3d 4226 623e 6363 27bf
00000330: 90fb e73e 4cdf 40be f2b0 a03e 78d0 d3bd
00000340: 64a1 373f 00f1 7abd a408 0c3e 8c1a 35bd
00000350: 810a 8f3e 1593 dbbe ed29 723f d77a 58bd
00000360: e128 21be 71d3 f03d d215 ae3e a0ff dfbc
00000370: 837d a03d 60af 043f 696d 2cbf a2d4 533e
00000380: c65e b53e 88e9 43bd 794a a03e 3778 8f3e
00000390: 9d11 c33e 7654 13be ef4c 163e f460 213f
000003a0: 3cb9 153d 744c c73d d63b 39be 4d3b 69bd
000003b0: ef3a 0ebe f231 ce3e cc98 c3be d2fb 26bd
000003c0: fb9d fbbe d44e cc3d cf86 3a3f 230e 1d3f
000003d0: 1c36 7f3e f452 053e 2e0a fdbe 2285 90bd
000003e0: f3aa 02bf d40e 88bb f177 33be bc9d 3dbe
000003f0: f367 fb3e 045f c2be 7366 82bd a3bd cb3e
0.10290543 -0.22076486 0.2802587 -0.44842878 -0.022242768 0.11997973 0.32469147 0.25056425
-0.91896045 0.603598 -0.21322617 -0.15348108 0.23121548 0.12724853 0.09777161 -0.72433376
0.3177807 -0.04150641 -0.37183663 0.2446698 0.5110468 -0.38011298 -0.6515974 0.6988119
0.23094997 0.5446835 0.050100718 0.53347397 0.71262956 -0.07689274 0.15213835 -0.4503006
-0.044292647 0.15305547 -0.42854336 0.042947084 0.785778 0.4039909 0.03145898 0.07210444
-0.033057626 0.19962004 -0.4185668 0.3723775 -0.47232556 0.067843236 -0.43147656 -0.08740776
-0.25763774 -0.35837516 0.04328859 -0.30581543 -0.3803795 0.07210142 -0.82541704 0.19875257
-0.13583307 0.13506687 -0.83772385 -0.0207843 0.027676422 -0.35106543 1.0576185 -0.010118205
-0.10695356 0.34025446 0.1777098 0.6471451 -0.46464416 0.39933327 0.44141653 0.3828323
-0.025699036 0.1128725 -0.106330045 -0.099864624 -0.24372691 0.087851726 -0.15622853 -0.45012304
-0.11585743 -0.42536816 0.46428323 -0.6648162 -0.2987258 -0.03553872 0.57998246 0.14507146
0.23102775 0.5054575 -0.4760517 -0.17134905 0.14964575 -0.5696046 0.16875654 0.2126854
0.31897774 0.59785366 -0.73701715 -0.1654635 -0.37344784 0.46748626 0.19504173 0.49982092
0.3652773 -0.024133727 0.41437697 0.4861057 0.5350314 -0.121731564 0.12932117 -0.23227216
0.25761145 0.095393024 0.32497013 -0.13296735 0.22083127 0.5002703 0.06753024 -0.15116507
0.6216062 -0.4944514 -0.62834436 -0.11002771 -0.26427624 -0.18240188 -0.45557117 -0.29508603
0.5505361 -0.3964275 -0.32040292 0.32231697 0.14557746 0.4319023 0.00946724 0.82313395
-0.14041716 -0.18862025 0.38284132 0.15828685 0.30365148 -0.14775695 -0.5174524 -0.40364337
0.7195397 0.060855027 -0.3616969 -0.25147828 -0.12400081 0.44946492 0.07949231 -0.074061476
0.36954832 -0.10211263 -0.4418816 -0.0315752 -0.38975027 0.05129532 -0.3462884 0.16677094
-0.2539727 -0.44727236 -0.41618547 -0.37761432 -0.87604177 0.3406549 -0.5889791 0.38908255
0.10112229 -0.5132005 0.19420072 -0.16468938 0.40960127 0.35319826 -0.058742654 0.14046575
-0.20355965 -0.16065331 0.08231108 -0.21742637 1.0222259 -0.31016415 -0.48655164 0.64487696
0.35661042 0.41977337 0.48581716 -0.20860203 -0.35838333 0.04533513 0.44561127 -0.11127258
-0.11943861 -0.045029983 0.21134783 0.18657856 0.33837742 0.35962346 -0.98898613 0.15744905
-0.15531026 0.107137986 0.22084907 -0.6538603 0.45309114 -0.18835181 0.31385 -0.10342497
0.7173064 -0.06126499 0.13675171 -0.04421477 0.279377 -0.42885652 0.94595224 -0.052851524
-0.1573825 0.11759079 0.34001023 -0.027343571 0.078364395 0.518301 -0.67354447 0.20686582
0.3542387 -0.047830135 0.31306818 0.28021404 0.38099375 -0.14387688 0.14677785 0.63038564
0.036553606 0.09731379 -0.18089232 -0.05694132 -0.13889669 0.4027248 -0.38202512 -0.0407675
-0.49143967 0.09975973 0.7286195 0.61349696 0.24922985 0.13019925 -0.4942183 -0.07056643
-0.510421 -0.0041521583 -0.17526223 -0.18517202 0.49102744 -0.37963116 -0.06367197 0.3979312

network_body._body_endoder.seq_layers.0.bias f4 [128]
00000000: f269 d0ba 9dbc c93a 8798 fbba 27a9 8c3b
00000010: c29a f6ba 273e 82ba 3f4b 3ebb 25df 0d3a
00000020: 4a91 88bb ef31 d93a c2e9 f13a 2dbf 1f3a
00000030: 45d0 283b 1fbb 203b 90b5 15bb 9842 46ba
00000040: b0d8 73ba 3124 b23a cb4e 27bb 0997 d83a
00000050: 3cee 083b 5c08 81bb 7294 cb38 619a 03ba
00000060: 7d1e 15bb 7d18 29bb c722 0e3a 2391 903a
00000070: 0cfe 293b f0b6 b2b9 d011 a73a 95f9 883a
00000080: ac59 53bb ebf6 10bb 24df 17ba 4f4d 9b3a
00000090: 54be da3a 8f72 913b 4e72 1dbb dd90 123b
000000a0: cd92 d7ba 4441 d1b9 78dc d9ba eab4 25bb
000000b0: 50ee d63a e4ed d039 0759 913b 15ac 4bbb
000000c0: 00f9 33bb e99b cfba 9c97 8239 8e5e 353a
000000d0: 8879 63bb 6e49 863b c01d 8839 8fd4 c83a
000000e0: 8a49 b4b9 69c9 8bba f924 3b3a d67c 243b
000000f0: b9fe b93a d94e fa3a 3e3f 0d3b 3a3c 7f3a
00000100: 036b 41ba 2bbd ae3b ff62 aeba d411 0cbb
00000110: c5a7 e83a 4011 653a 27cf 8dbb 6741 343b
00000120: 509f 893a 0139 31ba 077e 8dbb 18a7 863b
00000130: bf7d af3a 1034 873b e942 f43a e788 47bb
00000140: 6ceb 9e3a d719 45ba 9c0e 10b9 84c0 bdb9
00000150: 24cb 7c3b d49d a4ba 8fa3 1bbb 1811 4939
00000160: 24de c2b8 85ab 62bb 0215 163b 4627 4b3b
00000170: f37d 0339 0fd2 a73b 2491 3eba 09c1 b2ba
00000180: b0e6 53bb 0947 9e3b 6aa1 d13a 2932 74bb
00000190: 66f4 733a 9fea 6ebb 9902 1ebb 64dc 013a
000001a0: 8141 0abb 312b 703a 19e1 00bb c966 0dbb
000001b0: 3bc1 523b 2208 9fbb 024a c4ba 46a7 70bb
000001c0: 217b 983b ba89 a63a 62fd 673a 1c5f 423b
000001d0: db39 82bb e646 783b 5df3 caba 6d3c 033b
000001e0: b0f8 793b 99a7 753b 8ca7 3a3b 2cf3 30bb
000001f0: f0f2 923a 742f 8ebb a42a 2bba c5c4 803b
-0.0015900715 0.0015391294 -0.0019195237 0.0042926255 -0.0018814432 -0.0009936736 -0.002903655 0.0005411974
-0.0041677104 0.0016570668 0.0018456506 0.0006093856 0.0025758904 0.0024525595 -0.0022843815 -0.0007563024
-0.00093020033 0.0013591108 -0.0025529142 0.0016524504 0.0020893952 -0.003937764 9.7074444e-05 -0.00050202577
-0.0022753768 -0.002580195 0.00054220523 0.0011029582 0.0025938777 -0.00034087105 0.0012746397 0.0010450358
-0.0032249494 -0.002211983 -0.00057934434 0.0011848601 0.0016688802 0.0044387053 -0.002402443 0.0022364177
-0.0016446948 -0.00039912213 -0.0016621491 -0.0025284835 0.0016397927 0.00039850094 0.0044356617 -0.003107791
-0.0027461648 -0.0015839312 0.0002490849 0.0006918692 -0.003470989 0.004098109 0.00025962107 0.0015322136
-0.00034387066 -0.0010664883 0.0007138993 0.0025098822 0.0014190293 0.0019096985 0.0021552588 0.00097364525
-0.0007378312 0.005332609 -0.001330465 -0.002137293 0.0017750195 0.0008738227 -0.004327673 0.0027504803
0.0010499749 -0.00067605084 -0.004318002 0.0041092746 0.0013388916 0.0041260794 0.0018635663 -0.003044659
0.0012124605 -0.0007518804 -0.00013738353 -0.00036192324 0.003857323 -0.0012559243 -0.0023748612 0.00019175222
-9.292018e-05 -0.0034587097 0.0022900705 0.003099875 0.00012540053 0.0051214765 -0.00072695524 -0.0013637851
-0.0032333545 0.0048302454 0.001599354 -0.0037261343 0.00093061326 -0.0036455763 -0.0024110435 0.00049538
-0.0021096172 0.00091617095 -0.0019665419 -0.0021576157 0.0032158631 -0.0048532644 -0.0014975669 -0.0036720796
0.00465335 0.0012705841 0.00088497077 0.002965874 -0.003974182 0.0037884056 -0.0015483905 0.002002503
0.0038142614 0.003748393 0.0028481213 -0.002700041 0.0011211317 -0.004339153 -0.0006529486 0.0039297068

network_body._body_endoder.seq_layers.2.weight f4 [128, 128]
00000000: 2aaf 14be fbd0 4dbc 0b34 913d ca3d 54bd
00000010: b052 133d aca5 7fbd 888e 6a3c abfb e43c
00000020: 695b 35bd 3754 c9bd 9bb4 843d 584c f0bd
00000030: 4b47 fe3c 11c2 233b c66e 34be 7e60 85bb
00000040: 43e0 1abd 30c5 053e f18b 673d b8ec d9bd
00000050: 373f cf3b c1c0 9cbc cc8b cebc 3555 99bd
00000060: 2b65 86bb c3a6 e03d 2493 073e 56e7 dfbd
00000070: 3589 4f3d 47c9 063e fbdc 6bbd 05e6 febc
00000080: b966 2dbe 4746 d63d 9916 2fbe 4662 4b3d
00000090: fdb3 cb3c 8d5b 5139 62f9 363d bebf 31be
000000a0: ad02 0a3e a80c b5bd 5fbe 03bd 435a 3d3e
000000b0: 6074 a93c 9c7c 5ebd fb8b c83c 5633 80bc
000000c0: a107 973a c624 cdbd 9f73 0b3e 1169 03bd
000000d0: 47bc e5bd d877 bbbd 04bd 33bd 86b1 3d3d
000000e0: bc93 cdbc 94e6 bf3d fb25 2cbe 317e 71be
000000f0: f684 ed3d e252 db3c 9a1f 8dbd 0d7f e53c
00000100: f3b9 7c3c fbf3 f3bd fb9e 8abc 1513 153e
00000110: 918d c8bb aa4d 703d 254a db3c b9a4 b43d
00000120: 6599 25bd fcc5 6a3d ade1 513d 3722 1a3d
00000130: a494 9a3c c9cf 71bb 4ab8 253e 41eb 6dbd
00000140: 60b5 44bd 2bb4 03be 77ee 133b f5fb cfbd
00000150: 928a 2fbe 42fc f13d 3ab2 a53c c6cb cb3d
00000160: e3b7 6d3d 6fe8 d83a 6a72 d5bd c15a a9bd
00000170: a9e4 2d3e 96ae 8fbb b969 04be 64a9 463d
00000180: d9a8 2ebc 82e1 66bb d299 243d 35f4 a3ba
00000190: 969c d0bd a524 043e 9ee6 973c 381c 083e
000001a0: e55b f83c 9e37 a9bd fad8 283d 566f 683d
000001b0: edd2 6fbd 567e aebc 5031 2c3e 798c fb3c
000001c0: ed56 a3bd bc57 bebd 451c e6bc 1549 fe3d
000001d0: 5d40 b8bd 3682 40be e59b c23d 52bb e6bc
000001e0: 2de8 2cbe 30d7 8d3d 4789 d23c f470 983e
000001f0: c406 0cbd 2f98 b9bb 525e 583c 6609 a53c
00000200: 010d f53b ab8c 5abd ca4c b6bd 28ca 8d3d
00000210: 6896 bd3c 7f54 c73c 2bbf b9bd d2ce 99bd
00000220: b1a5 94bc d904 0abd ee08 debd ed58 be3c
00000230: 557a ed3d 938b eabb 8c47 f0bd 39f2 ebbc
00000240: 5aae 343e eba8 4ebe 7bf4 d4bc d2c5 5bbd
00000250: c212 98bc aa1c abbc 5025 89bd c32e 183a
00000260: 692d 8cbd 45d4 1d3c 8d18 3c3c 4699 25bc
00000270: 54ee 16be cfb1 9c3d a035 253e 25b9 e73d
00000280: 77fa dc3c 6945 c33d d5a8 ec3c 74a5 37be
00000290: 0e9e f5bd 2a4c bdbd fdfd 08be 3ccb c73c
000002a0: 2652 95bc 1fe3 213d 4dd3 b4bd 42a1 4fbd
000002b0: 388a 62bc 417b 91bd 68e7 e0bc 1d5c 66bc
000002c0: c6b8 393c 0291 4c3d e849 413d 7841 c33d
000002d0: e55c 6e3d a353 c83c f01c a4bd aa96 72bb
000002e0: 2d41 f83d e4d7 1abe ee79 ad3c 7b93 d43d
000002f0: a405 7fbd f76c 8c3d 00db dabd 8463 0a3c
00000300: 6fdb 1ebd 4efd 9bbb df77 8abd 0100 8b3d
00000310: 8211 5b3c d70a b9bd d336 2f3e 78c8 0f3e
00000320: 5270 4bbd ae71 ee3d d921 f5bc 4731 273e
00000330: 088f 723d 95ce d1bc a5e8 5d3d 1542 92bd
00000340: 8f05 7dbd 6fc8 9cbd d036 62be 6c7e 4d3d
00000350: e127 afbd a02d 85bd 4d69 cbbd 9f60 db3c
00000360: f356 65bd fb74 9e3d c08a ce3d 2ce6 2a3d
00000370: a932 c63d f127 f4bd 8cf8 4e3c 0ef4 423d
00000380: e34b 633d 0a2e 3bbe d47a 1a3d 67f3 a3bd
00000390: 08d8 84bc 6613 6f3d 9ac6 2ebd bff8 023e
000003a0: 926f 6f3c baf9 d03c d6ae 10be a4fc 293c
000003b0: 0932 b93c bc37 f83c a18b b9bd f47b 30bb
000003c0: d890 98bd 9419 0b3d 6137 cfbd 4374 69be
000003d0: 6f87 0e3e 6561 ce3d e486 06bd 593c 8e3c
000003e0: f094 d23b b0a1 66be ae35 6dbc d20a 5ebd
000003f0: 8b81 283e 3ee7 94bd 1c4e 393e 4f37 8b3d
-0.14519945 -0.012562032 0.070900045 -0.05181674 0.03596753 -0.062413856 0.014316209 0.027952036
-0.04427663 -0.09830516 0.0647976 -0.117333114 0.031039855 0.0024987499 -0.17620382 -0.0040703407
-0.03781153 0.13063502 0.056529943 -0.10640854 0.0063246745 -0.019134881 -0.025213145 -0.07486955
-0.0041014156 0.10969307 0.13239723 -0.10932796 0.05066796 0.13162719 -0.05758379 -0.031115541
-0.16933717 0.10462623 -0.17098464 0.049654268 0.024866099 0.00019965899 0.044671424 -0.173583
0.13477583 -0.088403046 -0.032163974 0.18491463 0.020685375 -0.054318056 0.02448081 -0.015649479
0.0011522659 -0.100167796 0.13618325 -0.03208262 -0.11217552 -0.09153718 -0.04388143 0.046311878
-0.02509486 0.09370151 -0.16811363 -0.23583294 0.11597626 0.02677292 -0.06890793 0.028014684
0.015425193 -0.1191177 -0.01692151 0.1455806 -0.0061203917 0.058667816 0.026768753 0.08820481
-0.04042949 0.05731772 0.05124061 0.037630286 0.018869705 -0.0036897531 0.16183582 -0.058085684
-0.048024535 -0.12861697 0.0022572556 -0.10155479 -0.17142704 0.118156925 0.020226587 0.09950976
0.058036696 0.0016548763 -0.104222134 -0.08269263 0.16981758 -0.004384826 -0.12930955 0.048501387
-0.010660374 -0.0035229628 0.040185757 -0.0012508692 -0.101861164 0.12904604 0.018542584 0.13292015
0.030317256 -0.08262561 0.04122255 0.056746803 -0.058550764 -0.021300476 0.16815686 0.030706631
-0.07975564 -0.09294078 -0.028089652 0.12416283 -0.08996651 -0.18799672 0.09502391 -0.028165493
-0.16885443 0.069258094 0.025700225 0.29773676 -0.03418614 -0.0056638937 0.013206081 0.020146083
0.007478357 -0.053356808 -0.08901365 0.06923324 0.023143008 0.024332283 -0.090696655 -0.07510151
-0.018145414 -0.03369603 -0.10841547 0.023235762 0.115955986 -0.007157752 -0.117323965 -0.028802024
0.17644635 -0.20181625 -0.025995484 -0.053655453 -0.018563632 -0.020887692 -0.0669657 0.0005805308
-0.06844599 0.0096331285 0.011480463 -0.010107344 -0.14739352 0.07651102 0.16133738 0.113146104
0.0269749 0.09534723 0.0288891 -0.17934209 -0.11993037 -0.09243043 -0.13378139 0.024388902
-0.018227648 0.03952324 -0.08829365 -0.050690897 -0.013826899 -0.07103587 -0.027454093 -0.014060047
0.011335557 0.049942978 0.047189623 0.095339715 0.05819406 0.024453944 -0.08013332 -0.0037016072
0.12121806 -0.15121418 0.021176305 0.10379692 -0.06226124 0.06856721 -0.10686302 0.008446578
-0.038783487 -0.004760421 -0.06761145 0.0678711 0.013370873 -0.09035271 0.17110758 0.14041317
-0.049667664 0.116427764 -0.029923366 0.16327392 0.059218436 -0.025611201 0.054176945 -0.071415104
-0.06177288 -0.07655417 -0.22091222 0.050169393 -0.08552528 -0.06502843 -0.09932194 0.026779471
-0.055991124 0.07737156 0.10085058 0.041723415 0.096776314 -0.11921681 0.0126325 0.04759603
0.055492293 -0.18279281 0.037714794 -0.0800541 -0.016216293 0.05836811 -0.04266987 0.12790202
0.014614003 0.025509704 -0.14129195 0.010375176 0.022606866 0.030300014 -0.09059835 -0.002692935
-0.07449502 0.03395994 -0.101179846 -0.22798257 0.13918851 0.1007717 -0.032843485 0.01736276
0.006426446 -0.22522616 -0.01447813 -0.054209538 0.16455667 -0.072706684 0.18096203 0.06797659

network_body._body_endoder.seq_layers.2.bias f4 [128]
00000000: 9091 40bb 6683 85bb f667 413b a462 8f3b
00000010: 434e 9eba 265c 0fbb 96c6 1b3b 3d25 1dba
00000020: 7381 533b f11c d03a af9f 473b 2d53 793b
00000030: d0da 3f3b a6b7 fdba 6746 64bb 09c3 4f3b
00000040: be1c 363a e695 403b 55eb 2bba f695 b6bb
00000050: 78fd 24ba c809 4bb9 df34 bd3b f6fc 73bb
00000060: 9740 f23a 06e8 96bb 3d51 fb38 3a9d 5bbb
00000070: a73b 52bb 5d97 713b ceed 503b 9e1a 813a
00000080: a88b 26bb 638f 793b c21f 7c3b dba4 2cbb
00000090: b724 ffba ebe7 60bb 6cee c33a 66c6 7cbb
000000a0: 683a c1ba ef16 5cb9 3aef 95ba 743c 4abb
000000b0: dc1a 3dbb e5ed 693b 3b73 423b 3c7d 7c3b
000000c0: 70ff 1c3b 4f09 2b3a af92 af3a 44e9 e8ba
000000d0: 15fc 2bbb 727b 4b3b d551 1fbb 82fd 20bb
000000e0: 5c88 96ba 8ebe 73bb dff2 48bb 119e 09ba
000000f0: 6885 5c3b e224 44ba ab16 c2ba c85e bfb9
00000100: b82e 63bb 3750 823b ddcd 83bb 0def 073a
00000110: 04b4 443b 2bc5 a5bb 079f 5d3b 6d50 c1bb
00000120: 95e9 0b3b 47df 993a 407c 4dbb afbd 1fba
00000130: 2400 4bbb 00f4 93bb 1a2c 5a3b 7f6f 8e3a
00000140: 9e0f 2d3b 6c95 3f3a 938c f0ba 78af 683b
00000150: a958 70bb c87f 16bb 9f12 833b 9564 813b
00000160: 4b00 d839 b6f0 18ba 197e b4bb 5474 efb9
00000170: 3a7e 39ba fa13 59bb c1d9 943a d2d7 30bb
00000180: 89ac c7b8 ffa3 0c3b 936b 3a3b db69 5b3b
00000190: 74ee 933b 9eb0 a63b eb01 4ebb 9b54 aaba
000001a0: 8296 0cbb b41e 8fba 55af 873b f3f8 71ba
000001b0: a1c0 8e39 f700 8c3b 8a43 c9b9 2b42 4ebb
000001c0: f4a9 4a3b 057a 883b 21b9 303b f27f e9b9
000001d0: a2f2 aebb eb69 a83a 77a8 1d3a 7187 81bb
000001e0: bb56 513b 06d3 71bb 3195 35bb 3107 47bb
000001f0: e237 b03a 0178 f63a 8f9b 533b 8a93 00bb
-0.0029383637 -0.004074502 0.0029511428 0.0043757726 -0.0012077767 -0.0021874993 0.002376949 -0.00059946236
0.0032273203 0.0015877766 0.003046017 0.0038043961 0.002927471 -0.00193571 -0.0034832002 0.0031701943
0.0006947032 0.0029386221 -0.00065581995 -0.005572076 -0.00062938733 -0.00019363232 0.005774125 -0.0037229634
0.0018482384 -0.004605296 0.000119837445 -0.0033510462 -0.0032079013 0.0036863901 0.0031880024 0.0009849851
-0.0025412831 0.003807985 0.0038471078 -0.0026343379 -0.0019465898 -0.0034317921 0.0014948375 -0.0038570403
-0.0014742138 -0.00020989378 -0.0011439093 -0.0030858787 -0.002885512 0.0035694775 0.0029670733 0.0038526794
0.0023955964 0.00065245194 0.0013395156 -0.0017769714 -0.0026242782 0.003104892 -0.002431025 -0.0024565165
-0.001148473 -0.0037192437 -0.003066234 -0.0005249689 0.0033648852 -0.00074823026 -0.0014807781 -0.00036500976
-0.0034665298 0.0039768475 -0.0040223435 0.00051854627 0.0030014524 -0.0050589046 0.0033816712 -0.00589948
0.0021348943 0.0011739515 -0.0031354576 -0.0006093634 -0.0030975426 -0.004515171 0.0033290447 0.0010866969
0.0026407014 0.00073083374 -0.0018352441 0.0035504978 -0.003667394 -0.0022964347 0.0040000225 0.003948758
0.0004119895 -0.00058342086 -0.005508196 -0.00045672304 -0.0007075999 -0.003312348 0.00113564 -0.0026984108
-9.5211966e-05 0.0021460054 0.0028445467 0.0033479843 0.00451451 0.0050869724 -0.0031434249 -0.0012995185
-0.0021452014 -0.0010919184 0.0041407743 -0.0009230517 0.0002722787 0.004272576 -0.00038388028 -0.0031472545
0.0030924054 0.0041649365 0.0026965814 -0.0004453655 -0.0053389827 0.0012848949 0.0006014178 -0.0039529135
0.0031942565 -0.0036899461 -0.0027707333 -0.0030369277 0.0013444389 0.0018804074 0.0032288765 -0.001961919

action_model._continuous_distribution.log_sigma f4 [1, 3]
00000000: d063 03bb 30b9 0a3b bc6c 813a
-0.0020048507 0.002116751 0.0009874324

action_model._continuous_distribution.mu.weight f4 [3, 128]
00000000: 8e1e 20bc 5e1e 6fbb 6407 c23c cf50 2b3c
00000010: 61ca ef3b 55cd 89bc e100 f83c 8cb5 87bb
00000020: 5653 033d 2737 be3c 9503 8f3c 2f39 823c
00000030: 2be3 c93c 4565 17bd aa26 03bb 8b35 303c
00000040: 48b7 9d3a 4fdc 713c 573b fbbc e6f6 24bc
00000050: 3586 b5bc 17fb cabc 7933 de3b a221 97bb
00000060: d0fe 393c 7725 99bc a54a cf3b 1abc e6bc
00000070: 863d 3cbb ade0 903c 7f3d a93c d17b 8e3b
00000080: d338 9fbc 4bdd 1b3c 21ad b43b 519a 8cbc
00000090: c66e a2bb a0c2 6dbb 85cf 103c 342f 9136
000000a0: 4a8e 1c3c 7764 2dbc 0e7f 2dbc 09b5 b5b9
000000b0: 0874 bc3b 26ed 263c 826a a33b 6869 fa3c
000000c0: a1f1 8d3c c029 af3b 9559 08bc cdd8 acbb
000000d0: 31ef 9cbc 4f51 9f3c bffe 8fbc 9bb7 8abc
000000e0: 5c40 c73a 1e33 88bc 6d4e cabb c682 94bb
000000f0: 9807 923b 40c5 57bc dbc8 d6bb 581b d23b
00000100: fd0a 2e3a fa4b 973c a41e ddbc 8cf2 24bc
00000110: ff3a a03c 9911 8fbc cc88 2a3d e38a ffbc
00000120: b84b 873b 0b48 42bc 3d19 c8bc 04f0 b0bb
00000130: 9cc8 26bd 5dbf 96bc 0971 263d f9ff 93ba
00000140: 386c 233d 610c 46bc 3eff ba3b d327 273b
00000150: 9986 8ebc 2f0c 88bc d84c 273d 79f9 6c3c
00000160: 4b10 113c 9200 71bc 142b b7bc 1839 4f3b
00000170: 625d bd3b b66d 703b 316b aa3c 692e 34bd
00000180: 4e43 8ebb 2d48 ce3c f9d0 e13b 5ecd 683c
00000190: 7dd5 e23a 3287 cb3b 0b73 d0bb 99c1 93bc
000001a0: a6f4 caba 8977 a6bc a1ce 583d cbe4 3ebc
000001b0: 0f1c 43bc 05b0 b43c 71da 18bc e3f4 6fbc
000001c0: 429b 8f3b 3282 cb3c 7711 30bb aae1 2c3b
000001d0: 08f6 e7bb a979 9e3c 11c6 e4bb f254 b6bc
000001e0: 2873 45bc abfb 8fbc c644 8abc b1e6 81bc
000001f0: bea9 dd3b 6fbb 293c 7231 433c 25f7 6fbc
00000200: ee4f 5f3c 9dc3 ce3c b369 33bc d00c e0bb
00000210: da60 6eba 1deb 92bc 6150 a2bb afb0 663c
00000220: 4861 fbbb 5cf1 bbbb f137 063d 2cbe ec3a
00000230: ae3d 993c 00bf 17bd 8bca 8f3a e361 06bb
00000240: dbdb c4bb fcf8 8cbc 3ed1 e5bc 4886 c439
00000250: 12ce 1ebd 8b7a acbc 5c37 18bc e0e5 383c
00000260: b08d 70bb a285 523c 574e d13c 6199 a93b
00000270: 042f 7239 ad1a 0cbd 59c1 0bbc 7846 c3bc
00000280: 30b5 5fbc 038b edbb 6b65 07bd b91c aabb
00000290: 722e 773c 60cc edba 2717 63bb f760 723c
000002a0: 508c 313c f829 003d 52c3 37bd 1bb2 e13b
000002b0: 0ac5 863c d095 86bc f7ef 68bc 8d7c ff3b
000002c0: d8ac d9bc 21eb 2b3d e606 d8bc 56c0 313c
000002d0: adc8 443d e6e8 a3bb 2799 abbc a29c e4bb
000002e0: 75fb f03c 9de4 1fbb d660 d3b9 51be 943c
000002f0: 0109 083c 52be 6cbc 4a76 113d a03c 063d
00000300: e87a a03b 3dce d63b 54cd cabb cc92 d3bc
00000310: 4620 3ebc d659 db3b cdfe 8c3c 1377 0a3c
00000320: 3f70 8dbc 35c8 a4bc 7488 673b 0145 e5ba
00000330: fbdc a3bc 27e6 183c e880 27bc 9595 b2bb
00000340: 3e7a 4dbb 1588 dcbb 3889 713c b568 f6bb
00000350: 468c 183c 1703 cfbc d889 7bbc d12c 2f3b
00000360: 6494 473c 6d49 68bc 3166 eb3b a23c c53c
00000370: 4560 1bbb f3c0 993c 874e e23c 741d 623c
00000380: 6b3c aa3c c63c bc3c 37ec 0cbc d197 8c3b
00000390: 2be4 00bc 2aad 7cbb 1df5 053a d6e0 cfba
000003a0: d92e 703c 8c0c 12bd 9f67 083c 0b76 ccbb
000003b0: 927b c53c c497 7cbc c66b 3bbc 980e 353d
000003c0: 5613 e4bc c4de 9bbc ff5c 7bbc b055 dbbc
000003d0: a57d 653b f24e 73bc b35b a7bc 042c f8bc
000003e0: 7970 26bd ff61 41bc 12ba 45bc 9251 dfbb
000003f0: c311 a6bc 953e a03c 9741 073a 92d0 6bbc
-0.00977291 -0.0036486606 0.023685165 0.010456278 0.0073178266 -0.016821543 0.030273857 -0.004141515
0.032061897 0.023219658 0.017457763 0.015896408 0.024644455 -0.036961813 -0.002001206 0.010754953
0.0012032771 0.014761998 -0.030667944 -0.010068631 -0.022158721 -0.024777932 0.0067810384 -0.0046121636
0.011352256 -0.018694622 0.006326037 -0.028165866 -0.0028723194 0.017685259 0.020659206 0.004348256
-0.019436276 0.00951321 0.0055138026 -0.017163428 -0.004957053 -0.0036279336 0.008838539 4.326832e-06
0.009555409 -0.010583035 -0.010589374 -0.00034657892 0.0057511367 0.0101883765 0.004987062 0.03056784
0.017327132 0.005345553 -0.008322139 -0.005274868 -0.019157024 0.01944795 -0.017577527 -0.016933253
0.0015201676 -0.016625937 -0.0061739 -0.004532191 0.0044564717 -0.013169587 -0.0065547056 0.006411951
0.00066392106 0.018468846 -0.02699215 -0.010067593 0.019559382 -0.017464446 0.041634366 -0.031194156
0.0041288994 -0.011857997 -0.024426097 -0.005399706 -0.04071866 -0.018401796 0.040635142 -0.0011291496
0.039898127 -0.012087912 0.005706697 0.0025505915 -0.017398166 -0.016607372 0.04084477 0.014463776
0.008853982 -0.014709609 -0.022359408 0.0031619724 0.0057789544 0.0036686487 0.020803066 -0.043989573
-0.0043415194 0.0251809 0.0068913666 0.01420912 0.0017306056 0.006211185 -0.0063613704 -0.01803665
-0.0015484288 -0.02032067 0.05293143 -0.011651228 -0.011908545 0.022056589 -0.009329424 -0.014645788
0.004382522 0.024842355 -0.0026865879 0.0026379623 -0.0070788898 0.019345121 -0.006981619 -0.022257302
-0.012051381 -0.01757606 -0.016878497 -0.015857073 0.0067646196 0.010359629 0.011913644 -0.014646326
0.013629897 0.02523976 -0.010950494 -0.006837465 -0.00090934115 -0.017934376 -0.0049534296 0.014080211
-0.007671509 -0.0057355594 0.032768194 0.0018062047 0.018706169 -0.037047386 0.0010970397 -0.0020505122
-0.006007654 -0.017208569 -0.028053876 0.0003748408 -0.038770743 -0.021054527 -0.009290542 0.011285275
-0.0036705546 0.012849243 0.02555005 0.005175755 0.00023096433 -0.034205128 -0.008529984 -0.023837313
-0.013654038 -0.0072492375 -0.033055704 -0.0051914123 0.015086757 -0.0018142574 -0.003465125 0.014793626
0.010836676 0.031290025 -0.044864006 0.006887687 0.016451377 -0.016428858 -0.014217368 0.00779683
-0.026571676 0.041972283 -0.026370477 0.010849079 0.04804294 -0.005002129 -0.020947052 -0.00697668
0.029416779 -0.0024397739 -0.00040317205 0.018157156 0.008302928 -0.014449673 0.0355132 0.03277266
0.004897464 0.0065553472 -0.006189028 -0.025826834 -0.011604374 0.006694059 0.017211342 0.008451241
-0.017265437 -0.020114997 0.0035329135 -0.0017491878 -0.020002833 0.009332216 -0.010223605 -0.0054499605
-0.003135338 -0.0067300894 0.014742188 -0.0075198063 0.009310788 -0.025270028 -0.015352689 0.0026729594
0.012181375 -0.014177662 0.007183813 0.024076764 -0.0023708504 0.018768763 0.027625335 0.0138009675
0.020780763 0.022978198 -0.00860124 0.004290559 -0.0078668995 -0.0038555362 0.0005110072 -0.0015859853
0.014659607 -0.035656497 0.008325486 -0.0062396578 0.024106774 -0.015417043 -0.011439269 0.04420337
-0.027841251 -0.019027121 -0.015341996 -0.026774257 0.0035017517 -0.014850365 -0.020429468 -0.030294426
-0.040634606 -0.011803149 -0.012068288 -0.006815144 -0.020272141 0.019561091 0.0005159615 -0.014392989

action_model._continuous_distribution.mu.bias f4 [3]
00000000: a1d4 853b 434d ccba c863 22bb
0.004084185 -0.0015586991 -0.0024778713

exp_avg f4 [128, 7]
00000000: 3d36 1536 debf cd36 0000 0000 9526 17b8
00000010: 4ff4 9233 af0d 3337 5c1c 79b6 a8d4 c0b7
00000020: a6c8 c937 0000 0000 b78a 13b8 8110 7cb3
00000030: c6c9 c037 477e 0db8 4ac1 13b8 6327 39b8
00000040: 0000 0000 533f 4a38 51a5 a634 e2e6 dc37
00000050: b8e5 f137 3e31 b5b7 6bd6 30b6 0000 0000
00000060: 095d 9eb8 17c6 3cb4 a440 39b7 8a43 35b8
00000070: 3c83 0839 3c2e 9838 0000 0000 df58 3138
00000080: b5f8 a834 d437 95b8 facd 3fb8 ff4e c537
00000090: 9323 0b38 0000 0000 76c4 84b7 6268 bcaf
000000a0: e907 4f37 603e 91b6 e862 75b7 4759 8cb7
000000b0: 0000 0000 182f d8b6 eb86 9533 7060 0035
000000c0: ad6b 23b7 f8d1 8437 b42e 40b8 0000 0000
000000d0: 5ef2 b737 f5f8 05b4 53ef 8b37 7b52 0a38
000000e0: 30cd cd37 e27d 5eb7 0000 0000 c29a 2937
000000f0: 7944 a433 c52d 39b7 2867 b837 db3f d9b7
00000100: 34b9 0f37 0000 0000 8f70 02b7 8715 5bb3
00000110: d5aa 9e37 1a75 4b36 fdef 44b8 d1d5 b3b8
00000120: 0000 0000 282a 9db7 4fcc 55b4 6b45 5737
00000130: bd5c beb6 65ed ffb7 ed7a fbb7 0000 0000
00000140: 6c3f c6b7 ec51 f5b3 ebcb 9536 bd43 9f37
00000150: 55ab 8837 3c68 81b6 0000 0000 f768 60b6
00000160: 0694 66b3 d1da 3437 4639 ab37 2819 a937
00000170: 0412 c737 0000 0000 cbfb 05b7 754f 0e33
00000180: cb44 0fb6 9e79 d2b2 9123 0538 2ee4 b0b7
00000190: 0000 0000 2b9a 2ab8 31d4 b533 550c 5137
000001a0: 03e5 8737 e78d e637 787e 1138 0000 0000
000001b0: 22b8 5eb7 4a69 fc33 103c 2cb7 887b 1eb7
000001c0: de28 b838 819f 5f38 0000 0000 0bc1 86b7
000001d0: 61b3 0734 7815 9337 9e04 9037 cb93 26b8
000001e0: dd1b 32b8 0000 0000 f275 4638 d09c 31b4
000001f0: 9773 05b8 9ef5 4cb7 de43 56b7 19a8 0eb7
00000200: 0000 0000 25ad db37 593b 9733 fcb3 13b8
00000210: 93c2 a6b7 9c98 84b8 1a4d 82b8 0000 0000
00000220: 3edc 5e37 3e69 5ab4 31f6 c137 5713 10b7
00000230: f072 0138 8319 fab7 0000 0000 e080 adb7
00000240: 75d6 3ab3 9508 f9b6 76e2 f636 6fcb bd37
00000250: 9698 83b7 0000 0000 0912 1e38 7aee 1a34
00000260: 7508 b836 8ac1 45b6 51c9 c836 b4a0 3b37
00000270: 0000 0000 f7fa fd37 b949 0fb3 ecf4 17b7
00000280: 20ba b3b6 1acc 9437 3984 15b7 0000 0000
00000290: 1e41 e237 3dd3 25b3 3adb 01b8 f0b8 12b8
000002a0: e679 1db8 0a89 c5b7 0000 0000 4967 2bb7
000002b0: b1dd b333 794c 9b36 598d a934 04ff a0b4
000002c0: 2ed5 55b7 0000 0000 7bd8 9a37 03b2 c333
000002d0: 9a9e ffb5 0dc3 24b7 85ed 3b38 6e14 1db7
000002e0: 0000 0000 3aad 1735 f38f 31b4 bf80 85b7
000002f0: cfeb 2938 a1c0 0fb8 9e04 9837 0000 0000
00000300: b028 af37 7d50 3932 b08d 28b7 37c9 d5b7
00000310: 765f c5b7 1d10 91b8 0000 0000 f18b 1837
00000320: 2342 fab3 0981 5c37 4700 1bb8 067f 04b8
00000330: 8bc6 3838 0000 0000 92fa f037 1a12 7c33
00000340: 29cb 8fb6 b0d4 8936 17d5 0db7 031a b6b7
00000350: 0000 0000 f2e5 2bb8 3536 2cb4 fcc5 4238
00000360: 7367 7db6 c156 82b8 f074 03b9 0000 0000
00000370: ab88 0e38 5182 32b4 9b01 56b7 ebbe 9d37
00000380: 55e6 5837 2774 11b7 0000 0000 c0d0 8c38
00000390: f9ef c334 6069 bcb8 23a0 cd38 ad82 b0b7
000003a0: 9506 a537 0000 0000 3d63 4538 5a1e ec33
000003b0: 6e26 08b8 c38a 4338 699a 2fb7 39d7 8937
000003c0: 0000 0000 0831 6037 973c 6832 000b cfb6
000003d0: e5d5 06b7 0d9b 8fb6 35b8 2ab7 0000 0000
000003e0: f165 5eb8 02a8 eb32 d2ec a537 6119 92b6
000003f0: ee6e f637 6412 5b37 0000 0000 6128 7fb8
2.22343e-06 6.1318124e-06 0.0 -3.6037138e-05 6.843094e-08 1.0672417e-05 -3.7120399e-06 -2.298721e-05
2.4054501e-05 0.0 -3.517672e-05 -5.8688332e-08 2.2982142e-05 -3.3734625e-05 -3.5227546e-05 -4.414412e-05
0.0 4.821953e-05 3.1040193e-07 2.6333557e-05 2.883641e-05 -2.1599812e-05 -2.6350851e-06 0.0
-7.551356e-05 -1.7580929e-07 -1.104191e-05 -4.3216663e-05 0.0001301886 7.2565366e-05 0.0 4.2282856e-05
3.1473397e-07 -7.1152725e-05 -4.572978e-05 2.3521015e-05 3.3173314e-05 0.0 -1.582711e-05 -3.427117e-10
1.2340003e-05 -4.328598e-06 -1.4626166e-05 -1.6730874e-05 0.0 -6.442784e-06 6.9628946e-08 4.782405e-07
-9.740627e-06 1.58334e-05 -4.5819863e-05 0.0 2.1928161e-05 -1.247716e-07 1.6681535e-05 3.297858e-05
2.4533452e-05 -1.32615405e-05 0.0 1.0109217e-05 7.6493e-08 -1.1037516e-05 2.1982545e-05 -2.589815e-05
8.566585e-06 0.0 -7.774811e-06 -5.100949e-08 1.8914618e-05 3.031752e-06 -4.6953548e-05 -8.5752115e-05
0.0 -1.8735489e-05 -1.9911498e-07 1.2831161e-05 -5.6732374e-06 -3.0508914e-05 -2.9978773e-05 0.0
-2.3632972e-05 -1.1423603e-07 4.464285e-06 1.898582e-05 1.6292246e-05 -3.856634e-06 0.0 -3.3439699e-06
-5.3685675e-08 1.0779783e-05 2.0411459e-05 2.0158084e-05 2.3731038e-05 0.0 -7.986043e-06 3.3134217e-08
-2.1348703e-06 -2.4502523e-08 3.1742795e-05 -2.108709e-05 0.0 -4.067474e-05 8.467067e-08 1.2460242e-05
1.6199896e-05 2.7484215e-05 3.4688477e-05 0.0 -1.3275103e-05 1.17538164e-07 -1.0265983e-05 -9.446296e-06
8.781416e-05 5.3315893e-05 0.0 -1.6063937e-05 1.2638112e-07 1.7533763e-05 1.7168288e-05 -3.9715127e-05
-4.2464457e-05 0.0 4.7316724e-05 -1.6541458e-07 -3.1817322e-05 -1.2216535e-05 -1.27711955e-05 -8.502998e-06
0.0 2.6187461e-05 7.042281e-08 -3.5215155e-05 -1.9879348e-05 -6.322676e-05 -6.213244e-05 0.0
1.328351e-05 -2.0341119e-07 2.3122035e-05 -8.587572e-06 3.086304e-05 -2.9814202e-05 0.0 -2.068322e-05
-4.3501547e-08 -7.4217774e-06 7.357735e-06 2.2625287e-05 -1.568747e-05 0.0 3.7686932e-05 1.4429125e-07
5.484612e-06 -2.9467942e-06 5.983901e-06 1.1183485e-05 0.0 3.0276815e-05 -3.3361832e-08 -9.057327e-06
-5.3562835e-06 1.7738017e-05 -8.911878e-06 0.0 2.6971622e-05 -3.8609176e-08 -3.0960167e-05 -3.498135e-05
-3.7545244e-05 -2.3548044e-05 0.0 -1.0216442e-05 8.3756625e-08 4.6282626e-06 3.1581547e-07 -2.998787e-07
-1.2745424e-05 0.0 1.8459037e-05 9.112775e-08 -1.904514e-06 -9.8205755e-06 4.480548e-05 -9.362686e-06
0.0 5.650396e-07 -1.6536778e-07 -1.5914788e-05 4.0512354e-05 -3.4273256e-05 1.8121962e-05 0.0
2.0880572e-05 1.0786718e-08 -1.00465695e-05 -2.5485277e-05 -2.3528683e-05 -6.91714e-05 0.0 9.092489e-06
-1.16535624e-07 1.3143065e-05 -3.6955138e-05 -3.1589552e-05 4.4053926e-05 0.0 2.872691e-05 5.8689785e-08
-4.285383e-06 4.1076783e-06 -8.453869e-06 -2.1708203e-05 0.0 -4.098373e-05 -1.6038469e-07 4.643759e-05
-3.7760153e-06 -6.215042e-05 -0.00012536696 0.0 3.398272e-05 -1.662495e-07 -1.2755768e-05 1.8804762e-05
1.2928232e-05 -8.669717e-06 0.0 6.714603e-05 3.6496183e-07 -8.984166e-05 9.8049895e-05 -2.1041686e-05
1.9672598e-05 0.0 4.7060883e-05 1.0995127e-07 -3.2460717e-05 4.6620855e-05 -1.0466764e-05 1.6431894e-05
0.0 1.3362856e-05 1.3517954e-08 -6.1703613e-06 -8.036824e-06 -4.2797824e-06 -1.0175679e-05 0.0
-5.3023865e-05 2.7434002e-08 1.977981e-05 -4.3540936e-06 2.937714e-05 1.3057699e-05 0.0 -6.0834343e-05

exp_avg_sq f4 [128, 7]
00000000: a0ee d230 965b a130 0000 0000 c9fe 8d30
00000010: 60da 3428 1786 0530 d5e7 1030 c990 5f30
00000020: 7705 4930 0000 0000 30f5 e030 b097 4c28
00000030: 1cf0 0530 f2c5 1230 790c 7a32 966a 0932
00000040: 0000 0000 1b09 1b32 e15d 022a 3ec4 8231
00000050: 54a9 2a31 7464 ca30 c6cb 9b30 0000 0000
00000060: aba8 9f30 f0b0 9c28 1de6 1330 83b1 8230
00000070: fcde d732 aafd 7232 0000 0000 e72a 9232
00000080: 5cfb 232a 13f5 c031 40e1 6b31 76c3 1131
00000090: 7b6e b130 0000 0000 dc7e cd2f f129 b727
000000a0: c5cc a32f b9bb 9c2f 4061 ea30 dd58 9630
000000b0: 0000 0000 1060 5b30 a3c7 3d28 e770 bd2f
000000c0: 0af5 fc2f 00f3 0431 0df2 4c31 0000 0000
000000d0: 16e6 0e31 cb92 c428 3229 5530 4135 3730
000000e0: 3232 a330 a7de fe30 0000 0000 ebb0 fa2f
000000f0: 73d2 6228 50db f22f 093c 3430 bfee 0c31
00000100: 9f6c b730 0000 0000 09a3 d82f ce20 2928
00000110: f25d be2f 9b5a 2530 cfbd 8331 f012 c331
00000120: 0000 0000 9bbf c330 e2c0 d028 5ced 2630
00000130: 4440 4d30 e713 2431 3acb 0831 0000 0000
00000140: a281 6431 2a2c d728 a25c 1530 2d99 6b30
00000150: 4c88 6230 ad5a 1930 0000 0000 c436 3c30
00000160: a8d0 2428 6506 a12f 7480 b22f b54f cd30
00000170: 3360 9630 0000 0000 d860 0d30 f967 1828
00000180: 6d21 a12f 71b3 0930 e580 5631 c735 2231
00000190: 0000 0000 5101 e030 efad cc28 f6d7 9d30
000001a0: afed 8b30 638b 6f31 7649 1031 0000 0000
000001b0: 14d9 2230 51bd 6628 ba97 0b30 ea2c 2530
000001c0: cfbb bb31 1a30 0232 0000 0000 0fdd f730
000001d0: 310c 0629 9d22 aa30 293c 7d30 d367 f131
000001e0: 7f7f 0932 0000 0000 339d d431 3311 4d29
000001f0: dab6 fd30 a262 e630 3203 8a31 aea3 5d31
00000200: 0000 0000 6881 ae31 39ca 2629 5209 b230
00000210: a6ce be30 431f b131 9c74 c631 0000 0000
00000220: cbaa 5c31 a9e1 1f29 3389 ae30 11ea c130
00000230: 5167 ad30 ebab bd30 0000 0000 8d58 1931
00000240: c63d 5728 93e5 c52f bf2f d02f cb41 f731
00000250: 7277 8231 0000 0000 b5ce 3831 c148 2d29
00000260: b803 cf30 7b9f ae30 79ce 5830 82e9 4530
00000270: 0000 0000 664d 8530 8973 0328 1a29 8d2f
00000280: 0520 982f 5ae7 be31 ee89 8631 0000 0000
00000290: 579a 1132 2bfb 8729 ebf2 1931 62a6 1e31
000002a0: 32cd 8f30 4004 3530 0000 0000 d146 bd30
000002b0: 5be9 4a28 4ae0 9b2f d2f7 6e2f bb93 0131
000002c0: ab9d ba30 0000 0000 2de8 3e30 d9f9 3c28
000002d0: 2293 0a30 8836 ac2f 97fe c631 7892 0832
000002e0: 0000 0000 2621 1931 d679 7129 ddc9 a230
000002f0: 49b1 b830 391d cb31 c169 0832 0000 0000
00000300: d3fd 1431 55de 1b29 cbf1 9330 7360 b330
00000310: e7bb b531 d4c2 2032 0000 0000 4bb4 0731
00000320: d7ba 3729 677a bd30 7312 f530 caa0 8331
00000330: e57e f431 0000 0000 16a8 b330 6f07 1629
00000340: 9ba8 a130 58c8 9130 3aa8 1e32 c89f 5d31
00000350: 0000 0000 9b6d 2d31 ad83 0629 ff6c 9a30
00000360: 42dd 3630 7652 6032 1565 0032 0000 0000
00000370: d2f3 7c31 a80e a129 10f1 1931 ed98 1f31
00000380: 33d1 b132 485d 2f32 0000 0000 4e7d 3531
00000390: 8770 a329 211a 5431 8434 3931 58c8 b731
000003a0: b70e 2531 0000 0000 778e 0031 6653 af28
000003b0: 764e 1830 42e5 3630 4e9d 2b30 0bc0 3d30
000003c0: 0000 0000 fa39 832f 9196 8627 8678 302f
000003d0: 833e 2f2f f7a3 c731 ca24 9031 0000 0000
000003e0: d0f2 d031 476f 3c29 5864 eb30 3eca c630
000003f0: 8115 2e32 52a9 5d31 0000 0000 521b 8530
1.5347332e-09 1.1740322e-09 0.0 1.0331515e-09 1.003936e-14 4.857567e-10 5.271635e-10 8.133268e-10
7.313114e-10 0.0 1.6367832e-09 1.1357167e-14 4.8726334e-10 5.339579e-10 1.4554751e-08 7.998684e-09
0.0 9.024258e-09 1.157889e-13 3.805808e-09 2.4834508e-09 1.4725985e-09 1.133565e-09 0.0
1.1616711e-09 1.7396214e-14 5.38053e-10 9.509197e-10 2.5130696e-08 1.41439305e-08 0.0 1.7016147e-08
1.4564516e-13 5.615797e-09 3.432504e-09 2.1211384e-09 1.2909845e-09 0.0 3.7379422e-10 5.0838176e-15
2.9795025e-10 2.850962e-10 1.7053381e-09 1.0939193e-09 0.0 7.980825e-10 1.0534897e-14 3.4459122e-10
4.6012644e-10 1.9346658e-09 2.9823497e-09 0.0 2.0794508e-09 2.1824033e-14 7.754749e-10 6.665069e-10
1.1874077e-09 1.8544214e-09 0.0 4.5600443e-10 1.2591154e-14 4.4175374e-10 6.5568934e-10 2.0508393e-09
1.3345874e-09 0.0 3.9406015e-10 9.388498e-15 3.462755e-10 6.015541e-10 3.8341805e-09 5.6774e-09
0.0 1.4242575e-09 2.3176288e-14 6.0727756e-10 7.466989e-10 2.3876454e-09 1.9906126e-09 0.0
3.3252054e-09 2.3888948e-14 5.4337523e-10 8.571018e-10 8.241201e-10 5.5789934e-10 0.0 6.847183e-10
9.149074e-15 2.9290273e-10 3.2469283e-10 1.4938367e-09 1.0941278e-09 0.0 5.1433124e-10 8.4602405e-15
2.930948e-10 5.009531e-10 3.1214367e-09 2.3604672e-09 0.0 1.6298519e-09 2.2723981e-14 1.1484633e-09
1.0181135e-09 3.485831e-09 2.0996516e-09 0.0 5.9243743e-10 1.2808616e-14 5.078352e-10 6.0090477e-10
5.4637677e-09 7.577933e-09 0.0 1.8034444e-09 2.976455e-14 1.2378966e-09 9.2126357e-10 7.0258266e-09
8.003439e-09 0.0 6.1878835e-09 4.5534062e-14 1.8460142e-09 1.6762736e-09 4.016692e-09 3.2252774e-09
0.0 5.0787783e-09 3.7034805e-14 1.2953854e-09 1.3883052e-09 5.154932e-09 5.7758154e-09 0.0
3.2111298e-09 3.550082e-14 1.2699161e-09 1.4109124e-09 1.2616771e-09 1.3800422e-09 0.0 2.2314766e-09
1.19482925e-14 3.5997214e-10 3.7868905e-10 7.196126e-09 3.7970773e-09 0.0 2.6893023e-09 3.847682e-14
1.5062289e-09 1.2705493e-09 7.887376e-10 7.2000017e-10 0.0 9.699022e-10 7.2970135e-15 2.5676955e-10
2.767139e-10 5.5560294e-09 3.915594e-09 0.0 8.475204e-09 6.038775e-14 2.2402513e-09 2.3086604e-09
1.0462939e-09 6.5853456e-10 0.0 1.3771687e-09 1.12638534e-14 2.8353703e-10 2.1734017e-10 1.8855946e-09
1.3578093e-09 0.0 6.945154e-10 1.04902735e-14 5.0413196e-10 3.1325365e-10 5.791502e-09 7.949545e-09
0.0 2.2283273e-09 5.3618426e-14 1.1844424e-09 1.343815e-09 5.9114e-09 7.9402875e-09 0.0
2.1681117e-09 3.4609756e-14 1.0764379e-09 1.3051377e-09 5.2891553e-09 9.3575245e-09 0.0 1.974757e-09
4.079622e-14 1.3786349e-09 1.783134e-09 3.8308814e-09 7.115761e-09 0.0 1.3071737e-09 3.331314e-14
1.1762212e-09 1.060708e-09 9.235061e-09 3.2250558e-09 0.0 2.5237117e-09 2.9868188e-14 1.1235953e-09
6.652564e-10 1.30572655e-08 7.473564e-09 0.0 3.6809422e-09 7.152379e-14 2.2401458e-09 2.3224473e-09
2.0700645e-08 1.020755e-08 0.0 2.6410194e-09 7.2581745e-14 3.0864913e-09 2.6950895e-09 5.3487774e-09
2.4019025e-09 0.0 1.8707433e-09 1.9465071e-14 5.540878e-10 6.653701e-10 6.243298e-10 6.903071e-10
0.0 2.3869956e-10 3.7355716e-15 1.6049925e-10 1.5938366e-10 5.810303e-09 4.195134e-09 0.0
6.0812013e-09 4.1840903e-14 1.712702e-09 1.4463877e-09 1.0133022e-08 3.225598e-09 0.0 9.684789e-10

exp_avg f4 [128]
00000000: 3f42 6937 a40c 48b7 e141 8438 afd1 15b8
00000010: 691a 8638 9186 95b3 9b57 6d37 17a7 d4b7
00000020: ad5e 8237 e3df 2db7 f3ad 29b8 4bb2 c2b7
00000030: 35ff 36b7 23e3 e136 af4e 9037 1953 c837
00000040: 5765 d737 07f6 0cb8 640c 7037 2e57 2db8
00000050: 4748 14b7 c3eb f537 6870 e3b6 239b 03b7
00000060: debf 8e37 f64f 9b37 d5eb 0cb8 e812 1336
00000070: aa9d c6b7 e40d 4837 baac 08b8 2aac 0db8
00000080: 2481 9b38 dc64 bb37 2a50 3836 0107 bb36
00000090: f9da 99b7 1076 aab8 38c8 3937 9f82 d4b7
000000a0: 1940 5c37 6e8a 3ab7 f5a6 5d38 e0bc bc37
000000b0: 8f04 a3b7 245f 7cb7 db5b e6b7 21f7 0138
000000c0: a77b 6738 a810 4238 8d22 a8b6 79ad b536
000000d0: 3ac3 f337 ba6a 07b8 fec3 a0b6 9af6 b2b7
000000e0: 5e26 d1b3 e3b8 a537 a25e f1b7 781e 6bb8
000000f0: ad5b 8eb7 3fef 2fb8 1611 e0b7 7b4b 9333
00000100: 3d9b 2135 7b86 4fb8 2657 9b37 4b59 2837
00000110: 3e05 2637 39cd cab7 8941 4238 b328 1fb8
00000120: 6ccb 1fb6 c7fa 3a38 17c7 1238 846a 07b8
00000130: daca 71b7 5710 31b8 1301 aab6 dfaf 0438
00000140: 9791 73b6 4b73 0937 3f95 8637 c906 f237
00000150: 0e9f 6fb8 c990 1eb7 3491 2c36 a720 1cb6
00000160: 6052 1838 1b20 3537 b019 01b8 0ca0 a9b7
00000170: 1719 b3b6 6d4f 07b8 54f7 c537 2f66 53b6
00000180: 6c61 6937 242e 03b8 8c06 3db8 14cd 6438
00000190: c3d5 20b7 c282 2438 5517 3e38 94c0 8ab7
000001a0: aeef 2537 a3ec 34b7 7783 2838 650d 8d37
000001b0: 14c1 d4b8 caca 4d38 4f03 02b6 0ba9 9637
000001c0: 5f19 f0b7 a14b a8b7 b63f 2d37 fd35 89b7
000001d0: f8f9 0f38 372a 65b8 0559 1338 6a06 c4b7
000001e0: 3765 85b8 ee99 1bb8 87c0 03b6 edcd 0f38
000001f0: 1bbe 0fb8 3674 a037 0d57 8b37 ccbd 26b8
1.3903306e-05 -1.1923872e-05 6.3065214e-05 -3.571965e-05 6.394537e-05 -6.962831e-08 1.4146698e-05 -2.5350177e-05
1.5541294e-05 -1.0363731e-05 -4.0454743e-05 -2.3209626e-05 -1.0907465e-05 6.7319647e-06 1.7202778e-05 2.3880553e-05
2.5677187e-05 -3.3607732e-05 1.4308e-05 -4.1327607e-05 -8.838316e-06 2.9316061e-05 -6.778213e-06 -7.844329e-06
1.7017064e-05 1.8514675e-05 -3.3598237e-05 2.1915712e-06 -2.3676857e-05 1.1924163e-05 -3.258579e-05 -3.377736e-05
7.41503e-05 2.2339103e-05 2.7464798e-06 5.5738496e-06 -1.8340988e-05 -8.1282225e-05 1.1073476e-05 -2.5333195e-05
1.3127946e-05 -1.1118695e-05 5.2845997e-05 2.2499298e-05 -1.9433237e-05 -1.5042522e-05 -2.746091e-05 3.0986153e-05
5.5189852e-05 4.6268717e-05 -5.0108124e-06 5.414415e-06 2.9058767e-05 -3.2285905e-05 -4.791188e-06 -2.1334086e-05
-9.7393e-08 1.9755627e-05 -2.8773506e-05 -5.6056742e-05 -1.6970409e-05 -4.1946067e-05 -2.6710837e-05 6.858951e-08
6.0203075e-07 -4.947789e-05 1.8518022e-05 1.00343705e-05 9.895592e-06 -2.417584e-05 4.631424e-05 -3.7946458e-05
-2.3811253e-06 4.457941e-05 3.499453e-05 -3.228571e-05 -1.4411949e-05 -4.2215306e-05 -5.06652e-06 3.1635045e-05
-3.6294566e-06 8.19268e-06 1.6043543e-05 2.8851808e-05 -5.713017e-05 -9.451244e-06 2.5714517e-06 -2.3264818e-06
3.631634e-05 1.0795916e-05 -3.077992e-05 -2.0220898e-05 -5.3375365e-06 -3.226048e-05 2.3599401e-05 -3.1500929e-06
1.3910565e-05 -3.1275806e-05 -4.506721e-05 5.455043e-05 -9.586513e-06 3.9222425e-05 4.532126e-05 -1.6540558e-05
9.890571e-06 -1.0783932e-05 4.0176757e-05 1.6814747e-05 -0.00010144911 4.906467e-05 -1.9373435e-06 1.796011e-05
-2.8622044e-05 -2.0062378e-05 1.0326437e-05 -1.6356813e-05 3.432666e-05 -5.463717e-05 3.5130437e-05 -2.3368008e-05
-6.360787e-05 -3.7098238e-05 -1.9632587e-06 3.428564e-05 -3.4270906e-05 1.9127601e-05 1.6610627e-05 -3.9754246e-05

exp_avg_sq f4 [128]
00000000: e7d3 e32f dfdd 0030 683a a431 dc63 4530
00000010: 0f93 ce31 22bd 662f be12 ef2f a9a1 7730
00000020: 4ede 0e30 bd0e d52f d17c 8330 dd87 8730
00000030: ce9f cf2f fcfd bf2f e5eb 8030 f955 1130
00000040: 79dd a830 652a 0131 a91c d230 bd68 c930
00000050: f192 0730 044b da30 3098 a52f 054d 2b31
00000060: a19d ff2f 810f ee2f 3219 1831 985a c430
00000070: ae73 e730 65ff bc30 0174 a930 e6e3 4a31
00000080: 34e4 4d31 62dd 5c30 cb8b 292f fc60 ed30
00000090: bf63 6b30 b8e7 1531 e6ea 0530 6411 3c2f
000000a0: b42c 5630 2f48 7930 94e0 4e31 3112 2830
000000b0: fad7 6630 67c3 2430 24c2 1530 e56c 8a30
000000c0: f627 af31 b568 f631 cb24 1b30 437b ba30
000000d0: b19b a730 1958 f430 ff07 1c30 0039 6531
000000e0: b2c8 1d30 84af b530 83a0 4030 3fec 3131
000000f0: 9a9d 0e30 7f0a 1931 082e 3430 89c4 a82f
00000100: d59e af2f 5cc8 c830 fff8 ef2f 9546 ab30
00000110: bc20 9830 3f57 9d30 d293 3131 8344 0a31
00000120: 4551 2b30 ee1a 5231 1b77 5731 14d4 ff2f
00000130: 16fb 0630 e7d3 5a31 7978 c130 c71a 6330
00000140: aab3 0a31 4f55 1831 8f0c 0d31 136b 3531
00000150: e056 a630 447c a52f d417 1030 82c2 b82f
00000160: 55fc 9331 9597 8d30 3b7d 4a30 8670 5430
00000170: e687 7230 1eb0 ad30 07f9 a130 d3fb 1d30
00000180: 5615 1d30 4ec8 ab30 8667 bd31 4a6e 0931
00000190: 2532 db30 df3c 7f30 be18 3631 9905 4630
000001a0: 0f75 0430 f3ea 2831 4dd5 8130 29dd 0731
000001b0: 346c bb31 e7a1 3d31 3255 e72f aa04 1c30
000001c0: d6ba ff2f b8a9 ca30 e3e5 c42f d94c 2d31
000001d0: 4ad7 8530 75bd a530 a094 1f31 6d3b ec2f
000001e0: 293c d130 14c5 cb30 1945 1b30 1d78 7e31
000001f0: d16f 9331 80fe e12f 9a31 c930 764f fc30
4.1441625e-10 4.6881427e-10 4.779668e-09 7.181009e-10 6.0121077e-09 2.0985572e-10 4.3487164e-10 9.008781e-10
5.1975213e-10 3.8754946e-10 9.566979e-10 9.861157e-10 3.776663e-10 3.4923164e-10 9.380271e-10 5.2872867e-10
1.2286555e-09 1.879607e-09 1.5287657e-09 1.4654443e-09 4.932153e-10 1.5882908e-09 3.012146e-10 2.4927556e-09
4.6496232e-10 4.3302964e-10 2.2133233e-09 1.4286625e-09 1.684034e-09 1.3751388e-09 1.2329339e-09 2.9524414e-09
2.9961145e-09 8.035014e-10 1.5420125e-10 1.7271584e-09 8.563425e-10 2.181407e-09 4.871893e-10 1.7104679e-10
7.7916273e-10 9.068825e-10 3.0104603e-09 6.1143896e-10 8.3980434e-10 5.9940536e-10 5.4481775e-10 1.0071771e-09
5.0977134e-09 7.171446e-09 5.644096e-10 1.3568314e-09 1.2195099e-09 1.7778375e-09 5.676383e-10 3.3356287e-09
5.740147e-10 1.3219368e-09 7.0077294e-10 2.589118e-09 5.1883264e-10 2.2270397e-09 6.5549033e-10 3.0698669e-10
3.1945172e-10 1.4608861e-09 4.365077e-10 1.2461948e-09 1.1068759e-09 1.144805e-09 2.5840916e-09 2.0120587e-09
6.232493e-10 3.057433e-09 3.1354321e-09 4.653492e-10 4.910573e-10 3.1843628e-09 1.4076839e-09 8.262017e-10
2.018377e-09 2.2167403e-09 2.052534e-09 2.6399831e-09 1.2102781e-09 3.010162e-10 5.2420757e-10 3.360761e-10
4.30695e-09 1.0302182e-09 7.3665135e-10 7.7285056e-10 8.823221e-10 1.2637462e-09 1.178507e-09 5.747413e-10
5.714659e-10 1.2498818e-09 5.512393e-09 1.9998816e-09 1.5948599e-09 9.285496e-10 2.649855e-09 7.2039935e-10
4.818767e-10 2.458077e-09 9.446609e-10 1.97708e-09 5.4547176e-09 2.759515e-09 4.207919e-10 5.67591e-10
4.6516985e-10 1.4745671e-09 3.5815537e-10 2.5218496e-09 9.738212e-10 1.2059177e-09 2.3222029e-09 4.2970374e-10
1.522385e-09 1.4826207e-09 5.6486865e-10 3.7030141e-09 4.290975e-09 4.1108095e-10 1.4638772e-09 1.8357997e-09
