results/Shoot_v1/Shooter/Shooter-3003.pt (torch, 153303 bytes, 20 tensors)

network_body.observation_encoder.processors.0.normalizer.running_mean f4 [7]
-0.0011611388 0.0050558085 0.0 0.9653462 0.36551264 -0.07940283 0.005017927
00000000: 5a31 98ba 32ab a53b 0000 0000 ee20 773f
00000010: 7924 bb3e f39d a2bd 6c6d a43b

network_body.observation_encoder.processors.0.normalizer.running_variance f4 [7]
1.4710435 1.763457 1.0 40.58257 697.6672 742.2927 338.69202
00000000: 274b bc3f f5b8 e13f 0000 803f 8d54 2242
00000010: b36a 2e44 bc92 3944 9458 a943

network_body.processors.0.normalizer.running_mean f4 [7]
-0.0011611388 0.0050558085 0.0 0.9653462 0.36551264 -0.07940283 0.005017927
00000000: 5a31 98ba 32ab a53b 0000 0000 ee20 773f
00000010: 7924 bb3e f39d a2bd 6c6d a43b

network_body.processors.0.normalizer.running_variance f4 [7]
1.4710435 1.763457 1.0 40.58257 697.6672 742.2927 338.69202
00000000: 274b bc3f f5b8 e13f 0000 803f 8d54 2242
00000010: b36a 2e44 bc92 3944 9458 a943

network_body._body_endoder.seq_layers.0.weight f4 [128, 7]
0.39499646 0.10718446 0.009938397 0.38524285 -0.0075543155 0.29516944 -0.82666904 0.25359356
-0.53082746 0.15099855 0.330951 0.22870289 -0.6265046 -0.6574603 -0.1459842 -0.24903046
0.4145748 0.19108966 -0.24983023 0.14523847 -0.07922528 -0.11221896 -0.5452269 -0.39969927
0.09283155 -0.004347896 0.36794478 0.18237337 -0.21764259 0.48335794 -1.0339969 -0.14757551
0.21596925 -0.49664053 -0.6183329 -0.26057312 0.17378935 -0.17463782 0.25329795 -0.31931403
0.30830416 0.46465352 0.2743871 -0.13691089 0.6492509 -0.5409065 -0.50904423 -0.32900992
0.3560705 -0.32766527 0.5446584 0.23814593 -0.17588158 0.077111624 0.07030106 0.5198787
0.07782432 0.08679769 -0.050217334 0.053169418 -0.09878087 -0.3231172 -0.39581597 0.19162543
0.3011413 -0.8297112 -0.053578235 0.33579847 0.0879169 -0.14255494 -0.55831414 -0.054942254
0.83844167 -0.29363546 0.053712763 -0.029422546 -0.1729339 -0.5398893 -0.50533295 -0.30541602
-0.13434556 -0.3225678 0.29932013 0.1565746 0.36749685 0.005013595 -0.45834658 -0.04178311
-0.123930715 -0.6060334 0.09997484 0.021330899 -0.1367342 -0.051059972 0.3000966 -0.024542965
-0.5923877 -0.054808922 0.516739 -0.19515312 -0.059235346 -0.08762941 0.16367272 -0.04855256
-0.11165157 0.26020098 0.30575106 0.23168756 0.34863 -0.35767475 0.13948873 -0.16213374
-0.8923121 0.25839844 0.1674999 0.15144075 -0.12170317 0.05316691 0.30298603 -0.7422185
0.13415137 -0.2840462 0.0584031 0.32112318 -0.10296374 0.1908993 -0.49646145 0.22549914
0.23672074 0.75562763 0.196062 0.7302957 -0.1768377 0.14145839 0.06830213 0.08106291
-0.3021147 0.025591033 -0.35922858 0.4672124 -0.056965847 0.46791637 -0.42471513 0.26622945
-0.504534 0.77345455 -1.0045716 0.10493269 -0.09220805 -0.8699286 -0.10469751 0.53857154
0.40732235 0.33467168 -0.43296978 -0.30040997 0.45213935 0.60001427 -0.14999042 0.31445035
0.2513176 -0.53924537 -0.5574485 -0.14381889 -0.2931488 -0.106524274 -0.023014551 0.103235856
-0.3514765 -0.072532535 -0.17330152 0.29382733 0.17600726 0.32875428 0.13604024 0.5455375
-0.14028376 -0.112080194 -0.0657488 0.16614723 -0.15372638 -0.22007729 0.20497805 0.32982585
-1.1709365 0.2607707 0.08868132 -0.48459285 0.18276547 0.22234611 0.101433076 -0.14426437
0.5940356 -0.23537599 -0.2909135 0.06661454 0.42516688 -0.082132526 -0.18139465 -0.53103685
-0.2967633 -0.1166149 -0.34415132 0.013812158 0.20759253 -0.13825408 0.14631885 -0.07710371
-0.42169806 -0.60200435 -0.026669674 -0.78123575 -0.17412421 -0.036459465 0.62146926 -0.1908619
-0.44400117 0.037491154 -0.89434916 -0.59296 0.3180811 0.113107346 -0.24150826 0.28702307
0.32450238 0.1799732 0.21636932 -0.0007273735 0.080249086 0.11342877 -0.23519641 -0.19123285
0.36316526 0.008936851 0.5234493 0.86901176 -0.055806167 -0.56384706 0.114755355 0.025414987
0.40847167 0.21383013 -0.14169112 -0.012250654 -0.41008848 -0.73297787 0.65114594 0.07840099
0.47163364 -0.15942492 -0.45967612 -0.36350194 -0.19042419 0.1387556 -0.3779782 -0.6042459
00000000: fa3c ca3e 8783 db3d a9d4 223c 8d3e c53e
00000010: 318a f7bb 7320 973e 95a0 53bf 04d7 813e
00000020: 4fe4 07bf 5d9f 1a3e 6972 a93e 1731 6a3e
00000030: 9b62 20bf 514f 28bf e27c 15be d701 7fbe
00000040: 2643 d43e 02ad 433e 7fd3 7fbe 65b9 143e
00000050: dd40 a2bd 0ed3 e5bd fd93 0bbf 62a5 ccbe
00000060: 781e be3d cc78 8ebb 4263 bc3e 16c0 3a3e
00000070: b3dd 5ebe b17a f73e 035a 84bf 091e 17be
00000080: 0b27 5d3e ab47 febe 114b 1ebf d769 85be
00000090: d6f5 313e 42d4 32be 45b0 813e 217d a3be
000000a0: 0bda 9d3e 11e7 ed3e 777c 8c3e 5e32 0cbe
000000b0: 4f35 263f d978 0abf b950 02bf fd73 a8be
000000c0: df4e b63e bec3 a7be bc6e 0b3f 87dc 733e
000000d0: 4d1a 34be b3ec 9d3d 01fa 8f3d c516 053f
000000e0: 5b62 9f3d fdc2 b13d b1b0 4dbd 2dc8 593d
000000f0: a04d cabd 9e6f a5be 64a8 cabe 7539 443e
00000100: 312f 9a3e f467 54bf da74 5bbd c7ed ab3e
00000110: c70d b43d ecf9 11be aded 0ebf 210b 61bd
00000120: 1da4 563f 6357 96be ea01 5c3d 8d07 f1bc
00000130: 9615 31be 2f36 0abf 805d 01bf 7d5f 9cbe
00000140: e291 09be 9b27 a5be 7d40 993e 1855 203e
00000150: 8c28 bc3e 1549 a43b 67ac eabe c424 2bbd
00000160: 63cf fdbd 0125 1bbf 9cbf cc3d 23be ae3c
00000170: 0d04 0cbe 4324 51bd 43a6 993e 540e c9bc
00000180: b8a6 17bf 527f 60bd 0249 043f 38d6 47be
00000190: c3a0 72bd 0c77 b3bd d299 273e 0ddf 46bd
000001a0: 94a9 e4bd 1039 853e 678b 9c3e 813f 6d3e
000001b0: a27f b23e 2521 b7be 22d6 0e3e 6306 26be
000001c0: 916e 64bf cd4c 843e 1885 2b3e 4913 1b3e
000001d0: 833f f9bd 8cc5 593d fc20 9b3e 0802 3ebf
000001e0: fa5e 093e 816e 91be 1738 6f3d 426a a43e
000001f0: a7de d2bd 1b7b 433e 3230 febe 3fe9 663e
00000200: ec66 723e d070 413f 7ac4 483e a9f4 3a3f
00000210: f114 35be 78da 103e fde1 8b3d 5004 a63d
00000220: c7ae 9abe 49a4 d13c cfec b7be 7736 ef3e
00000230: 0555 69bd bc92 ef3e 4374 d9be 3a4f 883e
00000240: 2429 01bf 1e01 463f cd95 80bf f3e6 d63d
00000250: 93d7 bcbd a4b3 5ebf a66b d6bd d3df 093f
00000260: 8e8c d03e 165a ab3e 37ae ddbe 56cf 99be
00000270: cf7e e73e 899a 193f 1797 19be a3ff a03e
00000280: b3ac 803e fc0b 0abf f2b4 0ebf 4245 13be
00000290: 9917 96be 6629 dabd 0389 bcbc 526d d33d
000002a0: baf4 b3be f08b 94bd f475 31be 8970 963e
000002b0: 3f3b 343e 7b52 a83e 224e 0b3e 58a8 0b3f
000002c0: 8ca6 0fbe 4d8a e5bd 4fa7 86bd 8022 2a3e
000002d0: 736a 1dbe f15b 61be c4e5 513e efde a83e
000002e0: 3fe1 95bf bd83 853e 8d9e b53d 8e1c f8be
000002f0: df26 3b3e b3ae 633e 25bc cf3d 0aba 13be
00000300: b812 183f 6706 71be 9df2 94be 346d 883d
00000310: 79af d93e 1935 a8bd 85bf 39be 08f2 07bf
00000320: 5cf1 97be cbd3 eebd 9a34 b0be 644c 623c
00000330: 2393 543e 7a92 0dbe 9cd4 153e 8de8 9dbd
00000340: cfe8 d7be f51c 1abf 5c7a dabc 11ff 47bf
00000350: 9e4d 32be 8556 15bd 9c18 1f3f 4d71 43be
00000360: 1f54 e3be 5390 193d 11f4 64bf 3acc 17bf
00000370: 87db a23e d3a4 e73d f14d 77be b0f4 923e
00000380: 2d25 a63e e54a 383e eb8f 5d3e 36ad 3eba
00000390: a259 a43d 584d e83d 54d7 70be 8bd2 43be
000003a0: ccf0 b93e df6b 123c c600 063f 8e77 5e3f
000003b0: 0295 64bd 4858 10bf db04 eb3d 1733 d03c
000003c0: 3323 d13e 49f6 5a3e 7a17 11be f8b6 48bc
000003d0: 1ef7 d1be 70a4 3bbf 80b1 263f b390 a03d
000003e0: f779 f13e 4940 23be ab5a ebbe ed1c babe
000003f0: 8ffe 42be f315 0e3e 5c86 c1be dcaf 1abf

network_body._body_endoder.seq_layers.0.bias f4 [128]
0.0 0.0 0.0 0.0 0.0 0.0 0.0 0.0
0.0 0.0 0.0 0.0 0.0 0.0 0.0 0.0
0.0 0.0 0.0 0.0 0.0 0.0 0.0 0.0
0.0 0.0 0.0 0.0 0.0 0.0 0.0 0.0
0.0 0.0 0.0 0.0 0.0 0.0 0.0 0.0
0.0 0.0 0.0 0.0 0.0 0.0 0.0 0.0
0.0 0.0 0.0 0.0 0.0 0.0 0.0 0.0
0.0 0.0 0.0 0.0 0.0 0.0 0.0 0.0
0.0 0.0 0.0 0.0 0.0 0.0 0.0 0.0
0.0 0.0 0.0 0.0 0.0 0.0 0.0 0.0
0.0 0.0 0.0 0.0 0.0 0.0 0.0 0.0
0.0 0.0 0.0 0.0 0.0 0.0 0.0 0.0
0.0 0.0 0.0 0.0 0.0 0.0 0.0 0.0
0.0 0.0 0.0 0.0 0.0 0.0 0.0 0.0
0.0 0.0 0.0 0.0 0.0 0.0 0.0 0.0
0.0 0.0 0.0 0.0 0.0 0.0 0.0 0.0
00000000: 0000 0000 0000 0000 0000 0000 0000 0000
00000010: 0000 0000 0000 0000 0000 0000 0000 0000
00000020: 0000 0000 0000 0000 0000 0000 0000 0000
00000030: 0000 0000 0000 0000 0000 0000 0000 0000
00000040: 0000 0000 0000 0000 0000 0000 0000 0000
00000050: 0000 0000 0000 0000 0000 0000 0000 0000
00000060: 0000 0000 0000 0000 0000 0000 0000 0000
00000070: 0000 0000 0000 0000 0000 0000 0000 0000
00000080: 0000 0000 0000 0000 0000 0000 0000 0000
00000090: 0000 0000 0000 0000 0000 0000 0000 0000
000000a0: 0000 0000 0000 0000 0000 0000 0000 0000
000000b0: 0000 0000 0000 0000 0000 0000 0000 0000
000000c0: 0000 0000 0000 0000 0000 0000 0000 0000
000000d0: 0000 0000 0000 0000 0000 0000 0000 0000
000000e0: 0000 0000 0000 0000 0000 0000 0000 0000
000000f0: 0000 0000 0000 0000 0000 0000 0000 0000
00000100: 0000 0000 0000 0000 0000 0000 0000 0000
00000110: 0000 0000 0000 0000 0000 0000 0000 0000
00000120: 0000 0000 0000 0000 0000 0000 0000 0000
00000130: 0000 0000 0000 0000 0000 0000 0000 0000
00000140: 0000 0000 0000 0000 0000 0000 0000 0000
00000150: 0000 0000 0000 0000 0000 0000 0000 0000
00000160: 0000 0000 0000 0000 0000 0000 0000 0000
00000170: 0000 0000 0000 0000 0000 0000 0000 0000
00000180: 0000 0000 0000 0000 0000 0000 0000 0000
00000190: 0000 0000 0000 0000 0000 0000 0000 0000
000001a0: 0000 0000 0000 0000 0000 0000 0000 0000
000001b0: 0000 0000 0000 0000 0000 0000 0000 0000
000001c0: 0000 0000 0000 0000 0000 0000 0000 0000
000001d0: 0000 0000 0000 0000 0000 0000 0000 0000
000001e0: 0000 0000 0000 0000 0000 0000 0000 0000
000001f0: 0000 0000 0000 0000 0000 0000 0000 0000

network_body._body_endoder.seq_layers.2.weight f4 [128, 128]
-0.038557615 0.20552479 -0.060062017 0.10902665 0.039941087 -0.019106949 -0.094662115 -0.07960265
0.04186332 -0.11081888 -0.07510149 0.09133207 -0.03748544 -0.038481034 -0.09246172 0.12458904
0.054315485 0.11103286 0.084657595 -0.027241165 0.16509885 0.06541882 0.016512185 0.045325425
0.12750266 0.016224526 0.008908731 0.00051044475 0.03410312 0.03878155 0.0045339325 -0.015469261
0.012680565 -0.07386114 0.011263153 0.119529694 -0.041906636 -0.004618018 0.002920083 0.03933208
-0.049871374 0.058022708 0.11769048 -0.2204761 -0.0487619 0.032570403 -0.030381814 -0.037477985
-0.030989582 0.009942137 0.017764494 0.021226741 0.04239465 0.10659099 0.102887265 -0.05507835
-0.021609826 -0.119669534 -0.1318345 -0.053779762 0.07128204 -0.042546626 -0.044299856 0.0018983955
-0.05069908 -0.00016819322 -0.027988097 0.045303166 -0.031639226 0.124864876 0.06655732 -0.057205506
-0.03569921 0.12412993 -0.11225594 0.0010692655 -0.023507684 -0.088991724 -0.07622934 0.015511971
0.04146537 0.004733053 0.15807801 0.04496878 0.12169466 -0.07486376 0.024781024 0.008923081
0.020659478 -0.11509316 -0.15688856 -0.065797396 -0.032134242 0.047916714 -0.08894646 0.0073601487
0.029745366 -0.18494092 0.09447078 -0.08817535 0.11543359 -0.0920953 0.063594006 0.11094334
0.0005437632 -0.03413044 0.09648289 -0.052593186 0.06701258 -0.012303285 -0.0043913424 0.15920858
-0.06397064 -0.06607228 -0.11558566 0.070684396 -0.024470963 0.048451774 -0.06797715 0.016458571
-0.13914499 -0.11184533 0.20602056 -0.19118553 -0.02595347 -0.03436788 -0.06397075 -0.13156728
0.097325034 0.024851238 0.088621326 -0.11476818 0.013147963 0.078887165 0.21905163 -0.07941291
-0.05220545 -0.11989551 0.02908009 0.040670846 0.018748924 0.06819553 0.11614427 0.09719982
-0.086433716 -0.042900246 -0.03049891 -0.013001876 0.06641487 0.036699377 -0.07470289 0.04112691
0.07800727 0.10417431 0.044563733 -0.10056215 0.021266287 -0.036492422 -0.008610215 -0.09463377
0.085388064 0.05955509 0.050244484 -0.08714525 -0.08371758 0.055208217 -0.11545153 0.14215912
0.033479035 -0.049152337 -0.06860781 0.06974967 0.05950527 0.09225434 0.06700305 -0.06570162
0.04221454 0.043148357 -0.13197218 -0.06287847 -0.1197168 -0.01147932 0.11829865 0.052440166
-0.032052908 0.15293974 0.13294822 0.047931273 -0.03165137 -0.028830085 0.001704879 0.13127738
-0.12473164 0.10597239 -0.08805932 -0.024391241 -0.15121892 -0.0445517 -0.021607555 -0.028145757
0.04249811 0.006517489 -0.05176733 -0.046552014 0.024939762 0.033227757 -0.026535679 -0.07480415
0.017113362 -0.10285555 0.06639532 0.0061627114 0.12435172 -0.13881762 -0.0039401203 0.04714212
0.056804862 0.04050105 -0.077967465 -0.089395024 -0.024704138 0.053432386 -0.06149995 0.040711287
-0.20530017 -0.05259264 0.059977047 0.032258 0.045397528 0.008597876 0.0033342703 -0.07238932
0.0010657717 0.0020410495 -0.019652745 0.02175306 -0.07060014 -0.07385291 -0.015929703 -0.044098306
0.010594293 -0.055506896 0.06470058 -0.0022486646 -0.18542592 -0.12759554 -0.057488404 -0.006605475
0.022801355 0.0032763046 0.051717017 -0.057821993 -0.123885125 0.135524 0.059871458 0.08045085
00000000: 97ee 1dbd 1775 523e 9703 76bd 5d49 df3d
00000010: 4499 233d 2d86 9cbc 36de c1bd b706 a3bd
00000020: df78 2b3d 02f5 e2bd cfce 99bd 4f0c bb3d
00000030: 558a 19bd 4a9e 1dbd 925c bdbd 8a28 ff3d
00000040: ea79 5e3d 3265 e33d f660 ad3d dd28 dfbc
00000050: ac0f 293e 4dfa 853d 9044 873c 27a7 393d
00000060: 0f90 023e 4ce9 843c edf5 113c 5ecf 053a
00000070: b7af 0b3d 67d9 1e3d 6291 943b c972 7dbc
00000080: 25c2 4f3c 8244 97bd 1689 383c fccb f43d
00000090: 4ba6 2bbd be52 97bb dd5e 3f3b ad1a 213d
000000a0: ed45 4cbd 38a9 6d3d b507 f13d 7dc4 61be
000000b0: 8fba 47bd 8b68 053d 48e3 f8bc 8482 19bd
000000c0: dddd fdbc 58e4 223c d886 913c b4e3 ad3c
000000d0: 03a6 2d3d 614c da3d 8fb6 d23d d699 61bd
000000e0: 1707 b1bc 4d15 f5bd a0ff 06be 2b48 5cbd
000000f0: 51fc 913d 5f45 2ebd c473 35bd 95d3 f83a
00000100: d7a9 4fbd 065d 30b9 4b47 e5bc d08f 393d
00000110: 2298 01bd 28b9 ff3d 344f 883d 5250 6abd
00000120: 5639 12bd d537 fe3d 71e6 e5bd 9926 8c3a
00000130: 3093 c0bc 4b41 b6bd 211e 9cbd ec25 7e3c
00000140: 98d7 293d ba17 9b3b 34df 213e 2f31 383d
00000150: 0d3b f93d 2c52 99bd 9301 cb3c 1d32 123c
00000160: 113e a93c f6b5 ebbd 65a7 20be c9c0 86bd
00000170: 329f 03bd 5144 443d 9029 b6bd 672d f13b
00000180: 8eac f33c 2761 3dbe e579 c13d 4795 b4bd
00000190: 7268 ec3d 769c bcbd 933d 823d 4336 e33d
000001a0: 558b 0e3a 5ccc 0bbd d298 c53d f46b 57bd
000001b0: e43d 893d b893 49bc 40e5 8fbb 9307 233e
000001c0: 0a03 83bd e750 87bd 2db8 ecbd fbc2 903d
000001d0: 5477 c8bc 5e75 463d 9b37 8bbd 20d4 863c
000001e0: 067c 0ebe 2a0f e5bd 0ef7 523e 24c6 43be
000001f0: 5f9c d4bc 56c5 0cbd 1903 83bd 93b9 06be
00000200: 5952 c73d d394 cb3c 197f b53d 940b ebbd
00000210: 8e6a 573c 988f a13d 124f 603e 3ca3 a2bd
00000220: 62d5 55bd c78b f5bd 5e39 ee3c 7996 263d
00000230: 5897 993c 19aa 8b3d 0cdd ed3d b310 c73d
00000240: 2904 b1bd 2bb8 2fbd dad8 f9bc d205 55bc
00000250: 8504 883d 1652 163d d4fd 98bd b174 283d
00000260: 47c2 9f3d 5759 d53d 7688 363d 87f3 cdbd
00000270: a336 ae3c 1479 15bd dc11 0dbc 5acf c1bd
00000280: f0df ae3d 0af0 733d 29cd 4d3d 3579 b2bd
00000290: 1f74 abbd 0322 623d da71 ecbd 2992 113e
000002a0: 5021 093d f653 49bd 4082 8cbd ead8 8e3d
000002b0: ccbb 733d d8ef bc3d e538 893d 928e 86bd
000002c0: 27e9 2c3d 55bc 303d b723 07be 6dc6 80bd
000002d0: 152e f5bd c213 3cbc 9046 f23d 80cb 563d
000002e0: e949 03bd 3c9c 1c3e 9423 083e 9553 443d
000002f0: dea4 01bd 122d ecbc 3f76 df3a 946d 063e
00000300: 4d73 ffbd 0d08 d93d 7258 b4bd 24d0 c7bc
00000310: 22d9 1abe d87b 36bd 5402 b1bc ee91 e6bc
00000320: 8012 2e3d a990 d53b fb09 54bd 53ad 3ebd
00000330: 794e cc3c d419 083d 5a61 d9bc eb32 99bd
00000340: 5231 8c3c eea5 d2bd 45fa 873d 92f0 c93b
00000350: 1dac fe3d 3526 0ebe 201c 81bb 1818 413d
00000360: 37ac 683d 6ee4 253d 68ad 9fbd bd14 b7bd
00000370: 5560 cabc ebdb 5a3d 5fe7 7bbd e1c0 263d
00000380: 353a 52be 616b 57bd 7eaa 753d f720 043d
00000390: c2f2 393d 1bde 0c3c c683 5a3b da40 94bd
000003a0: 5db1 8b3a 21c3 053b cbfe a0bc 7933 b23c
000003b0: ce96 90bd 3240 97bd 027f 82bc 6da0 34bd
000003c0: af93 2d3c 335b 63bd bd81 843d 555e 13bb
000003d0: 4be0 3dbe 68a8 02be f678 6bbd be72 d8bb
000003e0: e8c9 ba3c 45b7 563b 39d5 533d c1d6 6cbd
000003f0: 7cb7 fdbd cec6 0a3e c63b 753d 6ac3 a43d

network_body._body_endoder.seq_layers.2.bias f4 [128]
0.0 0.0 0.0 0.0 0.0 0.0 0.0 0.0
0.0 0.0 0.0 0.0 0.0 0.0 0.0 0.0
0.0 0.0 0.0 0.0 0.0 0.0 0.0 0.0
0.0 0.0 0.0 0.0 0.0 0.0 0.0 0.0
0.0 0.0 0.0 0.0 0.0 0.0 0.0 0.0
0.0 0.0 0.0 0.0 0.0 0.0 0.0 0.0
0.0 0.0 0.0 0.0 0.0 0.0 0.0 0.0
0.0 0.0 0.0 0.0 0.0 0.0 0.0 0.0
0.0 0.0 0.0 0.0 0.0 0.0 0.0 0.0
0.0 0.0 0.0 0.0 0.0 0.0 0.0 0.0
0.0 0.0 0.0 0.0 0.0 0.0 0.0 0.0
0.0 0.0 0.0 0.0 0.0 0.0 0.0 0.0
0.0 0.0 0.0 0.0 0.0 0.0 0.0 0.0
0.0 0.0 0.0 0.0 0.0 0.0 0.0 0.0
0.0 0.0 0.0 0.0 0.0 0.0 0.0 0.0
0.0 0.0 0.0 0.0 0.0 0.0 0.0 0.0
00000000: 0000 0000 0000 0000 0000 0000 0000 0000
00000010: 0000 0000 0000 0000 0000 0000 0000 0000
00000020: 0000 0000 0000 0000 0000 0000 0000 0000
00000030: 0000 0000 0000 0000 0000 0000 0000 0000
00000040: 0000 0000 0000 0000 0000 0000 0000 0000
00000050: 0000 0000 0000 0000 0000 0000 0000 0000
00000060: 0000 0000 0000 0000 0000 0000 0000 0000
00000070: 0000 0000 0000 0000 0000 0000 0000 0000
00000080: 0000 0000 0000 0000 0000 0000 0000 0000
00000090: 0000 0000 0000 0000 0000 0000 0000 0000
000000a0: 0000 0000 0000 0000 0000 0000 0000 0000
000000b0: 0000 0000 0000 0000 0000 0000 0000 0000
000000c0: 0000 0000 0000 0000 0000 0000 0000 0000
000000d0: 0000 0000 0000 0000 0000 0000 0000 0000
000000e0: 0000 0000 0000 0000 0000 0000 0000 0000
000000f0: 0000 0000 0000 0000 0000 0000 0000 0000
00000100: 0000 0000 0000 0000 0000 0000 0000 0000
00000110: 0000 0000 0000 0000 0000 0000 0000 0000
00000120: 0000 0000 0000 0000 0000 0000 0000 0000
00000130: 0000 0000 0000 0000 0000 0000 0000 0000
00000140: 0000 0000 0000 0000 0000 0000 0000 0000
00000150: 0000 0000 0000 0000 0000 0000 0000 0000
00000160: 0000 0000 0000 0000 0000 0000 0000 0000
00000170: 0000 0000 0000 0000 0000 0000 0000 0000
00000180: 0000 0000 0000 0000 0000 0000 0000 0000
00000190: 0000 0000 0000 0000 0000 0000 0000 0000
000001a0: 0000 0000 0000 0000 0000 0000 0000 0000
000001b0: 0000 0000 0000 0000 0000 0000 0000 0000
000001c0: 0000 0000 0000 0000 0000 0000 0000 0000
000001d0: 0000 0000 0000 0000 0000 0000 0000 0000
000001e0: 0000 0000 0000 0000 0000 0000 0000 0000
000001f0: 0000 0000 0000 0000 0000 0000 0000 0000

action_model._continuous_distribution.log_sigma f4 [1, 3]
0.0 0.0 0.0
00000000: 0000 0000 0000 0000 0000 0000

action_model._continuous_distribution.mu.weight f4 [3, 128]
-0.0149463685 -0.025768941 -0.02335582 0.021046214 0.0037164015 -0.02208483 0.016788373 0.001764408
0.0019327191 -0.023175461 0.030619044 -0.0071800626 -0.026593683 0.017777627 -2.8079752e-05 -0.004569557
0.0051259594 0.007530249 0.020871777 0.0008928328 0.025377626 0.0048759435 0.022571197 0.027137855
0.007722211 -0.010280117 0.025481919 -0.005682605 -0.0021944016 0.0035213826 -0.013569134 -0.010949883
0.04278386 0.02100115 -0.007571271 0.02501129 -0.019169489 0.025426427 -0.0053118034 -0.008605328
-0.009259908 0.006459681 0.0052383477 -0.02809236 -0.013642385 0.022667844 0.0071624974 -0.023012927
0.037647385 0.010910109 -0.0011794493 0.00024429147 0.0025208436 -0.025546256 -0.022884756 -0.00035245987
0.00258739 0.0068825446 0.008037162 0.026884167 -0.007228491 0.020973487 0.019279873 -0.018279351
-0.041217852 -0.011035182 0.017108329 0.019004371 -0.0069987588 -0.00052194064 0.007922455 0.011006667
0.01100549 0.019042632 -0.0065550813 0.01123891 0.006615317 -0.0028030851 -0.009952594 -0.0122863585
0.021467363 -0.005771747 -0.035119735 -0.0005480511 -0.010556009 0.023230731 0.024339303 -0.008131022
0.0073586456 0.0115921395 0.009338138 0.03509454 -0.017988509 0.0018401148 -0.018205145 -0.008572631
-0.027301881 -0.002575144 -0.013223328 0.0006969304 -0.013266406 -0.022423083 -0.011993523 0.013021049
0.0011921342 -0.014049872 0.0008464822 0.0055564214 0.0166052 0.028447768 -0.010959948 -0.0030987256
-0.0044464734 -0.036031153 0.012678671 -0.028902957 0.013628882 -0.019493837 0.022150164 -0.008429374
-0.0086400425 -0.028615806 -0.0152811175 -0.0012863949 0.002548147 0.0032032323 -0.014662934 0.0021902698
-0.03248973 0.018445289 0.010557975 0.012957396 0.004060207 0.011532004 -0.018802222 0.014827753
-0.015025099 0.04152393 0.0055956976 -0.0051440448 0.005066944 -0.0013481484 0.00168828 -0.021694044
-0.0022198304 9.2297734e-05 0.022383612 -0.0034911267 0.012273901 -0.025996981 0.0052267252 -0.02773048
0.01854098 -0.0025380035 -0.0014916842 0.005287362 -0.020102281 0.0068291235 0.007830332 0.031064231
0.031009683 -0.014739635 0.013225294 0.015457583 0.038162112 -0.021267055 -0.022511343 0.0050021154
0.012324041 -0.009106308 0.0016551998 0.016926011 0.024072409 -0.0016890267 -0.019478222 0.009989675
0.01845352 0.0053003686 -0.0098228445 0.006532674 -0.007324043 -0.009062039 0.0027600538 0.0060696816
-0.0034281535 0.010121789 0.021482408 -0.034820832 -0.004585026 0.04112359 -0.016210614 -0.01962672
0.0028226457 -0.024888156 -0.005164301 0.007920099 0.02747791 0.020292677 -0.0022267457 0.025620153
0.022024171 0.000121439916 0.0024594588 0.0047635245 0.022003135 -0.00021618289 0.013979189 -0.0005645323
-0.02505003 -0.023784643 -0.021141952 -0.0063466476 0.019196702 0.013325346 -0.0043710675 0.015800176
0.019338258 0.033275347 -0.028234506 -0.0052192374 -0.0022512884 0.012586929 -0.0031066805 -0.0059035923
5.3171487e-05 0.0139467865 0.0042502107 0.043041807 0.00023489077 0.0046948674 -0.0037309676 0.021696772
0.0005987643 -0.0040220544 0.03438255 0.004309799 -0.01780748 0.008830788 0.009559566 -0.01712596
0.016614523 0.009749039 -0.013428601 0.008836249 0.007251087 -0.0054409034 0.029466737 -0.044123113
0.016211057 -0.01971728 -0.010106553 -0.020345349 0.02776285 0.0040386342 -0.0030342506 -0.0043432037
00000000: 9de1 74bc 6319 d3bc b454 bfbc 1c69 ac3c
00000010: df8e 733b 3feb b4bc c587 893c b543 e73a
00000020: 4b53 fd3a 77da bdbc cad4 fa3c bb46 ebbb
00000030: ffda d9bc 63a2 913c cf8c ebb7 39bc 95bb
00000040: aaf7 a73b 4fc0 f63b 4afb aa3c ff0c 6a3a
00000050: bde4 cf3c 61c6 9f3b 3be7 b83c 3550 de3c
00000060: 9a0a fd3b f06d 28bc 75bf d03c 2535 babb
00000070: f3cf 0fbb ffc6 663b 1351 5ebc 2367 33bc
00000080: 213e 2f3d 9b0a ac3c 6d18 f8bb 7ae4 cc3c
00000090: 5509 9dbc 154b d03c a30e aebb 5dfd 0cbc
000000a0: dfb6 17bc bbab d33b 72a6 ab3b f321 e6bc
000000b0: 4f84 5fbc eab1 b93c 62b3 ea3b 9b85 bcbc
000000c0: 2534 1a3d 50c0 323c c097 9aba 3f14 8039
000000d0: bd34 253b 6246 d1bc d078 bbbc 5dca b8b9
000000e0: 3391 293b f886 e13b 4dae 033c 2f3c dc3c
000000f0: fadc ecbb 97d0 ab3c d3f0 9d3c 94be 95bc
00000100: 0dd4 28bd e8cc 34bc c426 8c3c 0eaf 9b3c
00000110: d855 e5bb d8d2 08ba 2fcd 013c 4f55 343c
00000120: 5f50 343c 4bff 9b3c 02cc d6bb 6823 383c
00000130: 4dc5 d83b f7b3 37bb 3410 23bc b94c 49bc
00000140: 53dc af3c ec20 bdbb b6d9 0fbd 16ab 0fba
00000150: 1cf3 2cbc 604e be3c 3863 c73c fa37 05bc
00000160: cb20 f13b f5ec 3d3c fdfe 183c 4bbf 0f3d
00000170: a35c 93bc 0230 f13a f522 95bc 3874 0cbc
00000180: 32a8 dfbc bfc3 28bb a8a6 58bc 35b2 363a
00000190: 575b 59bc 9db0 b7bc 7b80 44bc 3d56 553c
000001a0: 6341 9c3a 6f31 66bc 75e6 5d3a a412 b63b
000001b0: a107 883c 4b0b e93c 5b91 33bc fd13 4bbb
000001c0: b9b3 91bb 6795 13bd 33ba 4f3c e5c5 ecbc
000001d0: ad4b 5f3c 8ab1 9fbc 4374 b53c 5b1b 0abc
000001e0: f78e 0dbc b26b eabc a75d 7abc 409c a8ba
000001f0: d0fe 263b 52ed 513b cd3c 70bc a18a 0f3b
00000200: f313 05bd 931a 973c 5bfb 2c3c 424b 543c
00000210: 7c0b 853b bbf0 3c3c 1e07 9abc 1bf0 723c
00000220: d52b 76bc ff14 2a3d 1d5c b73b 608f a8bb
00000230: 9b08 a63b 5bb4 b0ba 4749 dd3a b5b7 b1bc
00000240: 937a 11bb f88f c138 d65d b73c 63cb 64bb
00000250: 7918 493c 9ff7 d4bc f344 ab3b 082b e3bc
00000260: 41e3 973c a254 26bb 9e84 c3ba 9b41 ad3b
00000270: 8aad a4bc d7c6 df3b cb4a 003c 6a7a fe3c
00000280: 0508 fe3c 837e 71bc e7ae 583c cd41 7d3c
00000290: e04f 1c3d 3f38 aebc b569 b8bc c9e8 a33b
000002a0: c6ea 493c a032 15bc 4af3 d83a 6ba8 8a3c
000002b0: 8033 c53c 5562 ddba cb90 9fbc bcab 233c
000002c0: d62b 973c b7ae ad3b ffef 20bc 0b10 d63b
000002d0: 87fe efbb f278 14bc 05e2 343b 2ee4 c63b
000002e0: dfaa 60bb dcd5 253c e0fb af3c 4aa0 0ebd
000002f0: fc3d 96bb 3671 283d 1fcc 84bc 37c8 a0bc
00000300: 23fc 383b 3fe2 cbbc 4c39 a9bb 4ec3 013c
00000310: 5b19 e13c d43c a63c 98ee 11bb 5be1 d13c
00000320: 096c b43c 8fad fe38 df2e 213b 5717 9c3b
00000330: eb3f b43c 27af 62b9 f808 653c 1ffd 13ba
00000340: b835 cdbc 03d8 c2bc e331 adbc 8af7 cfbb
00000350: 6742 9d3c 8d52 5a3c 2c3b 8fbb 5f6f 813c
00000360: 446b 9e3c bb4b 083d 0d4c e7bc 2306 abbb
00000370: 5a8a 13bb 6839 4e3c 7399 4bbb ec72 c1bb
00000380: 7304 5f38 1081 643c 5a45 8b3b 9b4c 303d
00000390: 034d 7639 67d7 993b 4083 74bb 6ebd b13c
000003a0: 64f6 1c3a 70cb 83bb b7d4 0c3d 3739 8d3b
000003b0: fee0 91bc 02af 103c ba9f 1c3c be4b 8cbc
000003c0: 2e1b 883c 6fba 1f3c a303 5cbc eac5 103c
000003d0: 879a ed3b 9b49 b2bb 3a64 f13c 70ba 34bd
000003e0: 0dcd 843c 2286 a1bc f595 25bc 4aab a6bc
000003f0: eb6e e33c 8556 843b 47da 46bb 6f51 8ebb

action_model._continuous_distribution.mu.bias f4 [3]
0.0 0.0 0.0
00000000: 0000 0000 0000 0000 0000 0000

network_body.observation_encoder.processors.0.normalizer.running_mean f4 [7]
-0.0011611388 0.0050558085 0.0 0.9653462 0.36551264 -0.07940283 0.005017927
00000000: 5a31 98ba 32ab a53b 0000 0000 ee20 773f
00000010: 7924 bb3e f39d a2bd 6c6d a43b

network_body.observation_encoder.processors.0.normalizer.running_variance f4 [7]
1.4710435 1.763457 1.0 40.58257 697.6672 742.2927 338.69202
00000000: 274b bc3f f5b8 e13f 0000 803f 8d54 2242
00000010: b36a 2e44 bc92 3944 9458 a943

network_body.processors.0.normalizer.running_mean f4 [7]
-0.0011611388 0.0050558085 0.0 0.9653462 0.36551264 -0.07940283 0.005017927
00000000: 5a31 98ba 32ab a53b 0000 0000 ee20 773f
00000010: 7924 bb3e f39d a2bd 6c6d a43b

network_body.processors.0.normalizer.running_variance f4 [7]
1.4710435 1.763457 1.0 40.58257 697.6672 742.2927 338.69202
00000000: 274b bc3f f5b8 e13f 0000 803f 8d54 2242
00000010: b36a 2e44 bc92 3944 9458 a943

network_body._body_endoder.seq_layers.0.weight f4 [128, 7]
0.18289074 -0.078749515 0.44848514 -0.02031041 0.028875075 0.21604003 -0.27872372 -0.1480809
-0.3782034 -0.30707735 0.098157495 0.35885468 -0.029467842 0.45911208 0.08610107 0.21069773
0.22103952 -0.12481446 -0.25090575 -0.037998516 -0.2703396 -0.5776967 0.4390223 0.17870557
0.34668761 -0.6044781 -0.12589416 0.02296516 0.14305507 -0.010979017 -0.029167451 -0.33596945
-0.14746986 -0.04677138 0.08801215 -1.1749009 0.10041547 0.7291029 0.4236383 -0.62416995
0.41245842 0.032605756 0.05182998 -0.21392284 -0.4061019 -0.9836276 0.16629879 -0.030169602
0.43077666 -0.41890296 -0.1382204 -0.5353195 -0.27228668 -0.20354177 -0.36670753 -0.04730517
-0.40156513 -0.33018893 0.71125877 0.4823808 0.5909466 -0.038505968 0.15831572 -0.3561924
-0.010918636 0.49975756 0.3938312 0.046400458 0.36167192 0.22914924 -0.3124623 0.5335404
0.459339 0.34301177 -0.3005711 -0.1465775 -0.092322566 0.07799168 -0.62881964 -0.57158184
0.07715697 -0.269719 0.27852783 -0.4791433 -0.04597391 0.24118312 -0.0047948677 -0.18714198
1.2877241 0.11137429 -0.043354128 -1.0096077 0.46583435 0.6204069 0.01497796 -0.21553263
0.20290771 0.23203464 0.6476778 0.5660962 -0.30706778 -0.07851882 0.017089386 0.109585814
0.17173703 0.0794109 0.52406937 0.18579073 0.009279319 0.31331685 0.53521943 0.4526812
0.52867585 -0.39180928 0.573274 -0.8294392 0.12351877 0.028494857 0.33831367 -0.03509697
-0.48856983 -0.47112587 -0.23628943 0.18485978 -0.37730837 -0.1970995 -0.43641016 -0.5206548
-0.036369476 -0.1958325 0.23083246 -0.33050102 0.32833022 0.63932544 0.44218695 -0.47644645
-0.30842555 0.30362767 -0.3594036 -0.712426 -0.755347 0.115888886 0.010569581 0.29514697
0.0070209093 -0.08483305 0.24029005 0.59485394 0.5211429 0.31073734 -0.29773524 -0.022275276
0.5201165 -0.6329456 -0.7167186 0.25467727 0.43094882 -0.6690612 0.04556231 -0.44638202
-0.052225806 -0.27571332 0.4164773 -0.977018 0.90931517 0.34083202 0.6073907 -0.15606935
-0.107461706 0.6323486 -0.07784155 0.069897845 0.0050636143 -0.08040134 0.29299322 -0.1621004
-0.5517205 0.15396066 0.053650945 -0.3795287 -0.39781278 0.88855815 0.30416077 -0.16925757
0.70762736 0.41909942 -0.23925132 -0.184011 0.26617435 -0.66509616 0.031193329 -0.0033817794
-0.080399126 -0.37481767 -0.45756173 -0.46281025 0.39549974 0.033904504 -0.3040784 0.3706328
-0.09382595 -0.19515158 0.5111411 0.55637485 -0.3450948 -1.0208362 -0.11384562 -0.32693374
-0.284126 0.11068764 -0.4889323 0.072501615 0.248675 0.86875033 0.64972943 -0.35731688
0.12597832 0.26911336 0.24217992 0.06044742 0.7208803 -0.017973097 0.5407563 -0.33942062
0.21013694 -0.026922291 -0.07635939 0.16537365 0.42682257 -0.1762302 -0.56125396 -0.25416675
-0.44274843 -0.1988395 -0.14069296 0.14195584 0.63882357 0.094239235 -0.42861152 0.11954291
0.44717363 0.48528552 -0.14491802 -0.79607326 0.6065074 -0.6834765 -0.38432032 -0.6420462
-0.3628287 0.33959174 0.26205066 -0.053505704 0.2294981 0.08904136 -0.51085854 0.5550153
00000000: b647 3b3e 6d47 a1bd d89f e53e 0462 a6bc
00000010: 6c8b ec3c 9939 5d3e e0b4 8ebe 85a2 17be
00000020: e0a3 c1be 3e39 9dbe cc06 c93d cdbb b73e
00000030: 8b66 f1bc bd10 eb3e c255 b03d 25c1 573e
00000040: 2f58 623e b99e ffbd b876 80be 55a4 1bbd
00000050: f469 8abe eee3 13bf 88c7 e03e 98fe 363e
00000060: 0a81 b13e 14bf 1abf 66ea 00be 6e21 bc3c
00000070: 077d 123e 56e1 33bc 94f0 eebc 3004 acbe
00000080: 5702 17be 5993 3fbd b73f b43d 2763 96bf
00000090: a0a6 cd3d 7da6 3a3f 1fe7 d83e 9ac9 1fbf
000000a0: c02d d33e 9d8d 053d ac4b 543d 970e 5bbe
000000b0: 97ec cfbe 05cf 7bbf 3b4a 2a3e 3e26 f7bc
000000c0: c28e dc3e 737a d6be a689 0dbe b30a 09bf
000000d0: 2969 8bbe 416d 50be 17c1 bbbe 11c3 41bd
000000e0: f299 cdbe 860e a9be 0e15 363f 9efa f63e
000000f0: 4748 173f 6fb8 1dbd 841d 223e da5e b6be
00000100: 14e4 32bc 39e0 ff3e 3ea4 c93e 680e 3e3d
00000110: 102d b93e 19a6 6a3e 0ffb 9fbe 1b96 083f
00000120: 7b2e eb3e 3d9f af3e 75e4 99be 6a18 16be
00000130: 9d13 bdbd 1aba 9f3d 53fa 20bf 3053 12bf
00000140: 7904 9e3d 9c18 8abe 339b 8e3e 4552 f5be
00000150: 234f 3cbd b5f8 763e 441e 9dbb 26a2 3fbe
00000160: 25d4 a43f 3418 e43d 1994 31bd d33a 81bf
00000170: d781 ee3e fdd2 1e3f 1e66 753c 96b4 5cbe
00000180: 0ac7 4f3e 7d9a 6d3e 36ce 253f aeeb 103f
00000190: fd37 9dbe 7ace a0bd 0aff 8b3c 876e e03d
000001a0: d5db 2f3e 2fa2 a23d 6929 063f ed3f 3e3e
000001b0: 4908 183c 116b a03e 2404 093f d5c5 e73e
000001c0: 4d57 073f 3a9b c8be 16c2 123f 2156 54bf
000001d0: 69f7 fc3d 0c6e e93c 7337 ad3e d7c1 0fbd
000001e0: d325 fabe 6937 f1be dbf5 71be e24b 3d3e
000001f0: 902e c1be 74d4 49be 2771 dfbe a249 05bf
00000200: 29f8 14bd 5188 48be 585f 6c3e 6e37 a9be
00000210: e61a a83e d5aa 233f 5466 e23e caf0 f3be
00000220: f4e9 9dbe 1675 9b3e c003 b8be 8d61 36bf
00000230: 6c5e 41bf 2757 ed3d 092c 2d3c 811d 973e
00000240: a80f e63b f3bc adbd 980e 763e 5948 183f
00000250: 9f69 053f f718 9f3e c170 98be a47a b6bc
00000260: 5b26 053f b908 22bf df7a 37bf 0f65 823e
00000270: 53a5 dc3e 9847 2bbf 8b9f 3a3d 2f8c e4be
00000280: baea 55bd 4c2a 8dbe 833c d53e da1d 7abf
00000290: e1c8 683f 8981 ae3e f57d 1b3f a5d0 1fbe
000002a0: e214 dcbd 99e1 213f 646b 9fbd 9a26 8f3d
000002b0: adec a53b 75a9 a4bd 3503 963e a6fd 25be
000002c0: 8e3d 0dbf dda7 1d3e 18c1 5b3d 9651 c2be
000002d0: 1eae cbbe 8c78 633f f6ba 9b3e db51 2dbe
000002e0: 1127 353f 3394 d63e 4cfe 74be 616d 3cbe
000002f0: 0148 883e be43 2abf 2789 ff3c d8a0 5dbb
00000300: 4ca8 a4bd 1ae8 bfbe 8845 eabe 77f5 ecbe
00000310: f17e ca3e 73df 0a3d 2ab0 9bbe 95c3 bd3e
00000320: d227 c0bd d1d5 47be 25da 023f 956e 0e3f
00000330: 44b0 b0be c3aa 82bf e427 e9bd dc63 a7be
00000340: f778 91be 34b0 e23d 5655 fabe ba7b 943d
00000350: a9a4 7e3e 6c66 5e3f ab54 263f 3df2 b6be
00000360: 7600 013e 3ac9 893e 03fe 773e b797 773d
00000370: 9d8b 383f 513c 93bc 016f 0a3f 8ac8 adbe
00000380: 232e 573e 238c dcbc 5062 9cbd b657 293e
00000390: 7d88 da3e b175 34be 57ae 0fbf 2522 82be
000003a0: ecaf e2be 959c 4bbe d111 10be df5c 113e
000003b0: f189 233f 8000 c13d f872 dbbe ead2 f43d
000003c0: f1f3 e43e 5877 f83e 6465 14be 75cb 4bbf
000003d0: 1244 1b3f 51f8 2ebf a2c5 c4be 245d 24bf
000003e0: afc4 b9be f8de ad3e 812b 863e cc28 5bbd
000003f0: 8d01 6b3e 515b b63d a0c7 02bf 7c15 0e3f

network_body._body_endoder.seq_layers.0.bias f4 [128]
0.0 0.0 0.0 0.0 0.0 0.0 0.0 0.0
0.0 0.0 0.0 0.0 0.0 0.0 0.0 0.0
0.0 0.0 0.0 0.0 0.0 0.0 0.0 0.0
0.0 0.0 0.0 0.0 0.0 0.0 0.0 0.0
0.0 0.0 0.0 0.0 0.0 0.0 0.0 0.0
0.0 0.0 0.0 0.0 0.0 0.0 0.0 0.0
0.0 0.0 0.0 0.0 0.0 0.0 0.0 0.0
0.0 0.0 0.0 0.0 0.0 0.0 0.0 0.0
0.0 0.0 0.0 0.0 0.0 0.0 0.0 0.0
0.0 0.0 0.0 0.0 0.0 0.0 0.0 0.0
0.0 0.0 0.0 0.0 0.0 0.0 0.0 0.0
0.0 0.0 0.0 0.0 0.0 0.0 0.0 0.0
0.0 0.0 0.0 0.0 0.0 0.0 0.0 0.0
0.0 0.0 0.0 0.0 0.0 0.0 0.0 0.0
0.0 0.0 0.0 0.0 0.0 0.0 0.0 0.0
0.0 0.0 0.0 0.0 0.0 0.0 0.0 0.0
00000000: 0000 0000 0000 0000 0000 0000 0000 0000
00000010: 0000 0000 0000 0000 0000 0000 0000 0000
00000020: 0000 0000 0000 0000 0000 0000 0000 0000
00000030: 0000 0000 0000 0000 0000 0000 0000 0000
00000040: 0000 0000 0000 0000 0000 0000 0000 0000
00000050: 0000 0000 0000 0000 0000 0000 0000 0000
00000060: 0000 0000 0000 0000 0000 0000 0000 0000
00000070: 0000 0000 0000 0000 0000 0000 0000 0000
00000080: 0000 0000 0000 0000 0000 0000 0000 0000
00000090: 0000 0000 0000 0000 0000 0000 0000 0000
000000a0: 0000 0000 0000 0000 0000 0000 0000 0000
000000b0: 0000 0000 0000 0000 0000 0000 0000 0000
000000c0: 0000 0000 0000 0000 0000 0000 0000 0000
000000d0: 0000 0000 0000 0000 0000 0000 0000 0000
000000e0: 0000 0000 0000 0000 0000 0000 0000 0000
000000f0: 0000 0000 0000 0000 0000 0000 0000 0000
00000100: 0000 0000 0000 0000 0000 0000 0000 0000
00000110: 0000 0000 0000 0000 0000 0000 0000 0000
00000120: 0000 0000 0000 0000 0000 0000 0000 0000
00000130: 0000 0000 0000 0000 0000 0000 0000 0000
00000140: 0000 0000 0000 0000 0000 0000 0000 0000
00000150: 0000 0000 0000 0000 0000 0000 0000 0000
00000160: 0000 0000 0000 0000 0000 0000 0000 0000
00000170: 0000 0000 0000 0000 0000 0000 0000 0000
00000180: 0000 0000 0000 0000 0000 0000 0000 0000
00000190: 0000 0000 0000 0000 0000 0000 0000 0000
000001a0: 0000 0000 0000 0000 0000 0000 0000 0000
000001b0: 0000 0000 0000 0000 0000 0000 0000 0000
000001c0: 0000 0000 0000 0000 0000 0000 0000 0000
000001d0: 0000 0000 0000 0000 0000 0000 0000 0000
000001e0: 0000 0000 0000 0000 0000 0000 0000 0000
000001f0: 0000 0000 0000 0000 0000 0000 0000 0000

network_body._body_endoder.seq_layers.2.weight f4 [128, 128]
0.10228938 -0.01534625 -0.21965553 -0.078159854 -0.018434506 0.15549962 -0.123931415 -0.10500674
-0.016114647 0.09632158 0.12200997 0.18787809 0.019917836 -0.1030823 -0.09637324 0.15627335
0.13666385 0.148376 -0.08408849 0.060401954 -0.14607932 -0.025352754 0.029819649 -0.044880357
-0.20055379 -0.0054771164 0.051046778 0.04098181 -0.022377513 -0.07512273 0.0161388 -0.032659527
0.07271191 -0.023706848 0.0468892 0.036156215 0.0012013891 -0.11992488 0.024107834 0.14110321
-0.013825546 0.042752907 0.086110555 -0.060548525 -0.008607033 -0.10735045 0.2793476 0.020628987
-0.015441216 0.05217155 0.16212983 0.111369744 -0.102895185 -0.05728529 -0.0014871133 0.015523702
0.112931624 -0.13674274 0.18170553 -0.03578136 -0.04533842 -0.07755294 0.050811734 -0.002501571
0.18402736 0.18599859 -0.095611535 -0.09636334 0.057652816 -0.042701952 0.1675393 -0.14277469
-0.076799996 0.06889115 0.053622875 0.07210692 -0.02117881 -0.05226039 0.008612438 0.09221974
0.003865145 -0.1256986 0.07484066 0.027964579 0.13246572 -0.008582521 0.029206432 0.004629456
-0.0019116465 -0.035033032 0.029010382 0.0006670218 0.02356615 0.076161474 -0.1322596 -0.0014978388
-0.04862433 -0.09138033 0.007345134 0.023468602 -0.02079321 -0.08852317 0.013196626 -0.09487523
0.064904094 -0.25452697 -0.12992562 -0.17947413 0.044805102 0.11541696 -0.0628393 0.098733746
0.0797368 0.06242766 0.03818707 -0.010624093 -0.052106865 0.031001208 0.20605452 -0.04825818
0.0146424025 0.12967554 -0.022856332 0.04660827 0.02277436 0.057644144 -0.00040546065 -0.024294516
0.056156456 -0.12291595 -0.10171069 0.05137433 -0.006510314 -0.10568378 -0.0066176453 -0.20115416
0.0065889657 0.12401075 0.0653807 0.09810883 0.0630128 -0.0047415537 -0.0010556631 0.007101037
0.019379323 0.031872958 -0.09434574 -0.16191298 0.12689327 0.100426994 0.041953273 0.11239989
0.047999896 -0.016210038 -0.026595667 -0.033305813 -0.05063788 0.004303518 0.024348358 0.13270025
-0.035677433 -0.07051989 0.044596203 -0.09147251 -0.19543236 0.018211687 0.18024524 0.105398126
0.010007041 0.05801491 0.09551659 0.13446252 0.034029905 -0.0031983873 -0.080060996 -0.041218158
0.073344834 0.014775784 0.058941565 0.053800847 0.03798957 0.06250848 -0.038222134 0.07067629
0.0051546483 0.18060341 0.16233255 -0.040640958 0.061318923 -0.1218359 0.14037871 0.04437296
0.060549293 0.03875564 -0.0038449513 0.042345643 -0.020968618 0.13930552 0.051980466 -0.13831733
-0.11476413 0.110201254 -0.12677684 0.06660429 -0.12690365 0.07548438 0.104816586 -0.02400473
-0.06702751 -0.058404308 -0.001686083 0.04787238 -0.023778375 0.06339593 0.09273296 -0.16513304
-0.11332457 -0.09884034 -0.12076046 0.033873383 -0.031437 0.033003528 -0.101679884 -0.027524708
0.07746702 0.031661578 -0.11527783 0.15296197 -0.17881049 -0.017422333 -0.102838844 0.07834645
-0.024334887 0.039280552 -0.029939445 0.15744995 -0.16942614 0.06866061 -0.0042622755 0.04389105
0.13029188 -0.12491591 0.053003956 -0.008662969 0.030743146 0.1261763 -0.016350215 -0.04956281
0.02132512 -0.01252332 -0.028961364 -0.15570799 -0.0890112 0.13548872 0.07668715 -0.026963811
00000000: 187d d13d d66e 7bbc 61ed 60be 4612 a0bd
00000010: f603 97bc 4b3b 1f3e c1cf fdbd c60d d7bd
00000020: dd02 84bc 4044 c53d 5de0 f93d 1d63 403e
00000030: bb2a a33c d01c d3bd 555f c5bd 1f06 203e
00000040: 9cf1 0b3e e1ef 173e 9636 acbd 0a68 773d
00000050: d195 15be 94b0 cfbc 5648 f43c 77d4 37bd
00000060: f95d 4dbe 6279 b3bb 6d16 513d 8bdc 273d
00000070: 0c51 b7bc f2d9 99bd 8435 843c ffc5 05bd
00000080: fbe9 943d dd34 c2bc e40e 403d 8a18 143d
00000090: ee77 9d3a 2d9b f5bd cb7d c53c 5c7d 103e
000000a0: 8b84 62bc ac1d 2f3d bb5a b03d bb01 78bd
000000b0: 8304 0dbc 8dda dbbd a606 8f3e 1ffe a83c
000000c0: 27fd 7cbc d6b1 553d 5d05 263e d215 e43d
000000d0: b6ba d2bd fba3 6abd 3eeb c2ba 2057 7e3c
000000e0: b248 e73d 4a06 0cbe 0411 3a3e 7a8f 12bd
000000f0: c7b4 39bd 13d4 9ebd f71f 503d 66f1 23bb
00000100: ab71 3c3e 6a76 3e3e fbcf c3bd 255a c5bd
00000110: 5c25 6c3d 3ee8 2ebd 6c8f 2b3e 8733 12be
00000120: 5149 9dbd ce16 8d3d a9a3 5b3d cbac 933d
00000130: 2f7f adbc fe0e 56bd 2f1b 0d3c b4dd bc3d
00000140: 5f4e 7d3b 22b7 00be 0f46 993d f915 e53c
00000150: 18a5 073e b49d 0cbc 5442 ef3c b1b2 973b
00000160: 3690 faba cc7e 0fbd 2ea7 ed3c 13db 2e3a
00000170: cc0d c13c 8cfa 9b3d 106f 07be 2153 c4ba
00000180: 4e2a 47bd 9c25 bbbd 73af f03b 3a41 c03c
00000190: 8656 aabc a34b b5bd a936 583c f24d c2bd
000001a0: 70ec 843d 5c51 82be 390b 05be 11c8 37be
000001b0: 8e85 373d ba5f ec3d e4b1 80bd eb34 ca3d
000001c0: 0c4d a33d 25b4 7f3d 0c6a 1c3d ad10 2ebc
000001d0: 026e 55bd 3ff6 fd3c f5ff 523e 5faa 45bd
000001e0: b0e6 6f3c aac9 043e 343d bbbc 50e8 3e3d
000001f0: 4b91 ba3c 441c 6c3d 0294 d4b9 4b05 c7bc
00000200: 5004 663d 5cbb fbbd b24d d0bd e46d 523d
00000210: 7954 d5bb bd70 d8bd d5d8 d8bb 5bfb 4dbe
00000220: 40e8 d73b 59f9 fd3d 51e6 853d 48ed c83d
00000230: db0c 813d 095f 9bbb 2d5e 8aba d1af e83b
00000240: 63c1 9e3c 388d 023d 5738 c1bd 84cc 25be
00000250: 4ff0 013e abac cd3d 32d7 2b3d ea31 e63d
00000260: 8a9b 443d eaca 84bc 28df d9bc ad6b 08bd
00000270: aa69 4fbd 8704 8d3b 3576 c73c 93e2 073e
00000280: 8022 12bd bb6c 90bd 82aa 363d f055 bbbd
00000290: 6c1f 48be ad30 953c 3592 383e f9da d73d
000002a0: 92f4 233c 0ba1 6d3d 349e c33d 8bb0 093e
000002b0: f162 0b3d 099c 51bb 05f7 a3bd 5fd4 28bd
000002c0: d135 963d 2116 723c b66c 713d 475e 5c3d
000002d0: f49a 1b3d 7204 803d d08e 1cbd bbbe 903d
000002e0: 53e8 a83b 1af0 383e 813a 263e 2277 26bd
000002f0: 8d29 7b3d 1a85 f9bd 70bf 0f3e 6cc0 353d
00000300: 8902 783d 3cbe 1e3d 94fb 7bbb a072 2d3d
00000310: 61c6 abbc 1ba6 0e3e 78e9 543d 0fa3 0dbe
00000320: 7509 ebbd 32b1 e13d cad1 01be d467 883d
00000330: 08f3 01be 8e97 9a3d 14aa d63d 91a5 c4bc
00000340: b845 89bd 5b39 6fbd 8fff dcba d415 443d
00000350: deca c2bc bad5 813d c7ea bd3d a318 29be
00000360: b616 e8bd ce6c cabd 4351 f7bd d1be 0a3d
00000370: 15c4 00bd b52e 073d 8b3d d0bd 7f7b e1bc
00000380: 07a7 9e3d 92af 013d c816 ecbd 10a2 1c3e
00000390: 191a 37be 48b9 8ebc 2c9d d2bd 1b74 a03d
000003a0: f559 c7bc a5e4 203d 9143 f5bc 8f3a 213e
000003b0: 0c7e 2dbe ef9d 8c3d 8faa 8bbb 1ac7 333d
000003c0: 3c6b 053e ead3 ffbd ad1a 593d 20ef 0dbc
000003d0: 0dd9 fb3c 5c34 013e e3f0 85bc 6002 4bbd
000003e0: 05b2 ae3c 9c2e 4dbc 6240 edbc ea71 1fbe
000003f0: 814b b6bd 8ebd 0a3e 270e 9d3d 36e3 dcbc

network_body._body_endoder.seq_layers.2.bias f4 [128]
0.0 0.0 0.0 0.0 0.0 0.0 0.0 0.0
0.0 0.0 0.0 0.0 0.0 0.0 0.0 0.0
0.0 0.0 0.0 0.0 0.0 0.0 0.0 0.0
0.0 0.0 0.0 0.0 0.0 0.0 0.0 0.0
0.0 0.0 0.0 0.0 0.0 0.0 0.0 0.0
0.0 0.0 0.0 0.0 0.0 0.0 0.0 0.0
0.0 0.0 0.0 0.0 0.0 0.0 0.0 0.0
0.0 0.0 0.0 0.0 0.0 0.0 0.0 0.0
0.0 0.0 0.0 0.0 0.0 0.0 0.0 0.0
0.0 0.0 0.0 0.0 0.0 0.0 0.0 0.0
0.0 0.0 0.0 0.0 0.0 0.0 0.0 0.0
0.0 0.0 0.0 0.0 0.0 0.0 0.0 0.0
0.0 0.0 0.0 0.0 0.0 0.0 0.0 0.0
0.0 0.0 0.0 0.0 0.0 0.0 0.0 0.0
0.0 0.0 0.0 0.0 0.0 0.0 0.0 0.0
0.0 0.0 0.0 0.0 0.0 0.0 0.0 0.0
00000000: 0000 0000 0000 0000 0000 0000 0000 0000
00000010: 0000 0000 0000 0000 0000 0000 0000 0000
00000020: 0000 0000 0000 0000 0000 0000 0000 0000
00000030: 0000 0000 0000 0000 0000 0000 0000 0000
00000040: 0000 0000 0000 0000 0000 0000 0000 0000
00000050: 0000 0000 0000 0000 0000 0000 0000 0000
00000060: 0000 0000 0000 0000 0000 0000 0000 0000
00000070: 0000 0000 0000 0000 0000 0000 0000 0000
00000080: 0000 0000 0000 0000 0000 0000 0000 0000
00000090: 0000 0000 0000 0000 0000 0000 0000 0000
000000a0: 0000 0000 0000 0000 0000 0000 0000 0000
000000b0: 0000 0000 0000 0000 0000 0000 0000 0000
000000c0: 0000 0000 0000 0000 0000 0000 0000 0000
000000d0: 0000 0000 0000 0000 0000 0000 0000 0000
000000e0: 0000 0000 0000 0000 0000 0000 0000 0000
000000f0: 0000 0000 0000 0000 0000 0000 0000 0000
00000100: 0000 0000 0000 0000 0000 0000 0000 0000
00000110: 0000 0000 0000 0000 0000 0000 0000 0000
00000120: 0000 0000 0000 0000 0000 0000 0000 0000
00000130: 0000 0000 0000 0000 0000 0000 0000 0000
00000140: 0000 0000 0000 0000 0000 0000 0000 0000
00000150: 0000 0000 0000 0000 0000 0000 0000 0000
00000160: 0000 0000 0000 0000 0000 0000 0000 0000
00000170: 0000 0000 0000 0000 0000 0000 0000 0000
00000180: 0000 0000 0000 0000 0000 0000 0000 0000
00000190: 0000 0000 0000 0000 0000 0000 0000 0000
000001a0: 0000 0000 0000 0000 0000 0000 0000 0000
000001b0: 0000 0000 0000 0000 0000 0000 0000 0000
000001c0: 0000 0000 0000 0000 0000 0000 0000 0000
000001d0: 0000 0000 0000 0000 0000 0000 0000 0000
000001e0: 0000 0000 0000 0000 0000 0000 0000 0000
000001f0: 0000 0000 0000 0000 0000 0000 0000 0000

value_heads.value_heads.extrinsic.weight f4 [1, 128]
0.17125039 -0.06126471 0.031104364 0.09783323 -0.026798282 -0.033361282 -0.15703702 0.083073296
0.17590377 0.020717638 0.16337852 -0.13125889 0.02527521 0.022278888 0.04302491 -0.007436066
0.1437998 -0.07556864 -0.15326059 0.16009732 0.08245722 0.17555667 -0.0719347 0.08666389
-0.11248925 0.0635305 -0.03878765 0.013271339 0.068134785 -0.12461231 0.016948367 -0.023990668
0.084734604 -0.18597941 -0.0511505 -0.033437356 0.07682207 0.12737043 0.16427441 0.094267964
0.010424494 0.13218135 -0.15828866 -0.11387141 0.03127996 -0.1786531 -0.061551854 0.0121714175
-0.09562729 0.052284 0.071751855 -0.017209573 -0.19417323 0.050587464 0.02568463 0.0919734
-0.074890114 0.12943003 0.06813913 -0.06480745 -0.13733323 0.1402187 -0.1330123 -0.11428669
0.107459374 -0.024489224 -0.16406262 0.01786133 -0.1367322 0.010211363 0.12027553 -0.10979442
0.14047332 -0.046268735 -0.10426565 -0.06192423 -0.05966309 0.18495362 0.08108997 0.19583118
0.03730232 -0.11858989 -0.11860013 -0.16997798 -0.030453455 -0.12229903 -0.095800444 0.19831198
-0.19028062 0.0692407 -0.032573678 -0.105615444 -0.13926516 -0.14362963 0.1775274 0.021642787
0.048613552 0.10700591 0.19117011 -0.18767507 -0.13735946 0.09821776 -0.21026309 0.13275471
-0.118524775 0.09059945 0.11001755 0.035590515 -0.18842335 -0.17457591 -0.13580446 -0.14336899
-0.11778709 -0.1169563 -0.022477057 0.13454548 -0.12576298 0.07282259 0.19408366 -0.060564514
0.17718078 -0.024786681 -0.08706369 0.029443592 -0.16796473 0.19912079 0.02741181 -0.1633753
00000000: 435c 2f3e b4f0 7abd 94ce fe3c ca5c c83d
00000010: 1288 dbbc d7a5 08bd 50ce 20be 5522 aa3d
00000020: 1e20 343e 09b8 a93c b34c 273e bb68 06be
00000030: f50d cf3c 3782 b63c e33a 303d 3eaa f3bb
00000040: 4140 133e bbc3 9abd 58f0 1cbe 8df0 233e
00000050: 55df a83d 21c5 333e 8052 93bd d67c b13d
00000060: c460 e6bd 471c 823d cddf 1ebd 0870 593c
00000070: 408a 8b3d bd34 ffbd 4dd7 8a3c 1488 c4bc
00000080: 5689 ad3d 6371 3ebe 3083 51bd 9cf5 08bd
00000090: e454 9d3d 656d 023e 8d37 283e 900f c13d
000000a0: 7fcb 2a3c 8c5a 073e 6c16 22be 6a35 e9bd
000000b0: 6a1f 003d d7f0 36be cc1d 7cbd a06a 473c
000000c0: 3ed8 c3bd bf27 563d a3f2 923d 17fb 8cbc
000000d0: 59d5 46be cd34 4f3d 9368 d23c 8d5c bc3d
000000e0: fd5f 99bd 4e89 043e 878c 8b3d c5b9 84bd
000000f0: 15a1 0cbe 7e95 0f3e 6034 08be 240f eabd
00000100: a913 dc3d a09d c8bc 0800 28be ed51 923c
00000110: 8703 0cbe 904d 273c 0453 f63d e6db e0bd
00000120: 3dd8 0f3e 4984 3dbd 3b89 d5bd 43a4 7dbd
00000130: 4961 74bd 7b64 3d3e 8012 a63d f887 483e
00000140: 51ca 183d 42df f2bd a0e4 f2bd b50e 2ebe
00000150: 8679 f9bc ea77 fabd 0633 c4bd 4c12 4b3e
00000160: ecd8 42be 11ce 8d3d fa6b 05bd e94c d8bd
00000170: 879b 0ebe a513 13be bec9 353e 374c b13c
00000180: 011f 473d ea25 db3d 19c2 433e e52d 40be
00000190: f5a7 0cbe 6526 c93d 354f 57be daf0 073e
000001a0: 1ebd f2bd 348c b93d e250 e13d 5cc7 113d
000001b0: 0df2 40be 07c4 32be 5310 0bbe 52cf 12be
000001c0: 5c3a f1bd c986 efbd ce21 b8bc 4ac6 093e
000001d0: 03c8 00be 0324 953d debd 463e 7f12 78bd
000001e0: e16e 353e 700d cbbc 734e b2bd b033 f13c
000001f0: f2fe 2bbe 52e6 4b3e bb8e e03c db4b 27be
