results/Shoot_v1/Shooter/Shooter-0.onnx (onnx, 74763 bytes, 9 tensors)

network_body.observation_encoder.processors.0.normalizer.running_mean f4 [8]
0.0 0.0 0.0 0.0 0.0 0.0 0.0 0.0
00000000: 0000 0000 0000 0000 0000 0000 0000 0000
00000010: 0000 0000 0000 0000 0000 0000 0000 0000

network_body._body_endoder.seq_layers.0.weight f4 [128, 8]
0.320052 0.8787862 -0.28643325 0.098301545 0.14254282 -0.02035121 -0.09204796 0.4258462
0.31155705 -0.39952713 0.4041528 0.43775132 0.23620638 -0.26310122 -0.56446856 -0.19586763
-0.16492578 -0.27069035 0.005822149 -0.54552615 0.2276521 0.30921093 -0.37840453 0.25814083
0.31789583 0.020498415 0.077137955 0.019954745 -0.104708545 0.079635866 0.38608357 0.24743685
-0.27545375 -0.12009775 -0.6358011 -0.35147142 -0.2091728 0.11545315 0.11402143 0.04398049
-0.22060001 -0.2512422 0.21704663 -0.104196586 0.13594045 -0.05751568 -0.7920727 -0.14206241
-0.5270476 -0.5044657 -0.118775874 0.07570775 0.0678289 -0.4126711 0.44603407 0.053961806
0.07282868 -0.35986394 0.15568158 0.14766498 0.44777215 -0.66689825 0.18204594 0.0446589
0.24395002 -0.14738218 -0.19216762 0.4422305 0.46308094 0.14214267 1.0016203 -0.066912696
-0.60225374 0.25682044 -0.6352997 0.26481026 0.59245735 -0.04894294 -0.0042481897 0.24267896
0.45545352 0.23722495 0.60940284 0.18586284 0.04912819 0.40458247 0.00021333633 -0.008207861
-0.15862694 -0.44743335 0.18161471 0.41246524 0.012809347 -0.45910966 0.046320677 0.09308301
0.5371407 -0.5439287 -0.18266648 0.39362615 -0.8651366 0.33912587 0.31845546 0.0060778414
-0.7706434 -0.27420983 -0.18909319 -0.029356273 -0.50248814 -0.28446242 -0.24427792 -0.118067816
-0.41229075 0.1527378 -0.051778384 -0.25800264 0.18024261 -0.20807722 -0.105595924 -0.28959477
-0.071022466 -0.5869548 0.28473347 -0.4000582 0.0776342 -0.3812919 0.5720389 -0.23345819
0.3344082 -0.14006034 -0.2755313 0.0077727335 -0.263515 -0.60204023 -0.34466448 0.70225334
-0.3485335 0.21001174 0.33844718 -0.19189046 0.08680339 0.6300329 -0.0460532 0.119848154
-0.2397074 -0.8261886 -0.6099126 0.01927813 -0.35959408 0.5998988 -0.2671255 -0.024693403
0.39522955 0.2653601 0.2112618 0.042861123 0.059042554 -0.5633992 -0.51878333 -0.23729314
-0.08955498 -0.24303274 -0.004721216 0.60588896 -0.044099428 0.17546412 -0.09901294 -0.40730536
0.8076462 0.5934384 0.73334587 0.42196506 0.62928414 1.6068784 -0.7202966 -0.28608367
-0.19556572 -0.24552724 -0.26932794 -0.8503141 0.44836256 0.38270092 0.04175509 0.303891
0.10046556 0.03633566 -0.2694557 0.687041 -0.3929234 -0.571927 0.24105117 -0.19278786
0.026299797 0.26386464 -0.60839117 -0.0057886606 0.08675189 -0.15968437 0.024535237 0.017455958
0.44641656 -0.54183155 0.029366838 -0.35997343 0.15378813 -0.022842435 -0.071729824 -0.040054716
-0.71242124 -0.8823764 -0.23885208 0.45880583 -0.029553918 0.5057724 -0.73986703 0.13727118
0.42781293 0.5270885 0.05615242 -0.010438851 0.36331454 -0.057591114 -0.32531655 -0.39618647
-0.14008118 -0.7457744 -0.27509728 0.032892894 -0.07399975 0.4887211 0.7913076 -0.38300157
0.24030946 0.3143353 -0.042396564 0.055202514 -0.08691289 0.2522955 -0.10710221 -0.12893587
0.5082619 -0.26380348 -0.14129151 0.11603455 0.43527612 0.04304757 -0.316725 -0.2662741
-0.37843508 0.25164628 -0.7530232 0.32245743 -0.52884096 0.23521419 0.08651039 0.22522843
00000000: dbdd a33e 22f8 603f 61a7 92be 5252 c93d
00000010: bff6 113e 95b7 a6bc a483 bcbd 8308 da3e
00000020: 6884 9f3e d28e ccbe 1eed ce3e f120 e03e
00000030: 16e0 713e 34b5 86be 0381 10bf 8691 48be
00000040: 4ee2 28be ed97 8abe bac7 be3b 9aa7 0bbf
00000050: a21d 693e e550 9e3e 3dbe c1be 092b 843e
00000060: 3ec3 a23e 4bec a73c 81fa 9d3d 2278 a33c
00000070: 6f71 d6bd 2118 a33d bfac c53e 1660 7d3e
00000080: 4608 8dbe cff5 f5bd dcc3 22bf 10f4 b3be
00000090: 6531 56be b372 ec3d 1184 e93d e324 343d
000000a0: f8e4 61be d1a2 80be 7941 5e3e 0565 d5bd
000000b0: f933 0b3e 9095 6bbd 47c5 4abf cf78 11be
000000c0: 97ec 06bf aa24 01bf c440 f3bd aa0c 9b3d
000000d0: e1e9 8a3d a049 d3be 945e e43e 0e07 5d3d
000000e0: 3427 953d 1640 b8be fe6a 1f3e 7d35 173e
000000f0: 6442 e53e d8b9 2abf 406a 3a3e 40ec 363d
00000100: 09ce 793e 5beb 16be 97c7 44be 096c e23e
00000110: f218 ed3e d98d 113e 1835 803f 8609 89bd
00000120: 4d2d 1abf f87d 833e 00a3 22bf 3695 873e
00000130: 49ab 173f 6478 48bd 6634 8bbb d580 783e
00000140: 3431 e93e 19eb 723e d301 1c3f d452 3e3e
00000150: a43a 493d 6f25 cf3e 09b3 5f39 447a 06bc
00000160: 1a6f 22be fc15 e5be 35f9 393e a52e d33e
00000170: 4cde 513c 6c10 ebbe c0ba 3d3d 4ea2 be3d
00000180: 0e82 093f e93e 0bbf ec0c 3bbe 5e89 c93e
00000190: 9879 5dbf e8a1 ad3e 980c a33e a128 c73b
000001a0: e348 45bf 3b65 8cbe a5a1 41be 917c f0bc
000001b0: 10a3 00bf 0fa5 91be fe23 7abe 8acd f1bd
000001c0: c617 d3be 4c67 1c3e 9215 54bd ec18 84be
000001d0: 8591 383e 3212 55be ad42 d8bd c445 94be
000001e0: 3a74 91bd ab42 16bf 96c8 913e 6ed4 ccbe
000001f0: aefe 9e3d b138 c3be 2471 123f aa0f 6fbe
00000200: 8d37 ab3e fa6b 0fbe 7012 8dbe 6ab2 fe3b
00000210: 70eb 86be 4f1f 1abf dd77 b0be e0c6 333f
00000220: fc72 b2be 510d 573e f348 ad3e ef7e 44be
00000230: fac5 b13d d649 213f 48a2 3cbd f372 f53d
00000240: db75 75be 1981 53bf 3b23 1cbf 2bed 9d3c
00000250: b71c b8be f892 193f acc4 88be d249 cabc
00000260: 875b ca3e 47dd 873e 0355 583e 258f 2f3d
00000270: 9bd6 713d ee3a 10bf fcce 04bf f9fc 72be
00000280: 9a68 b7bd 93dd 78be 6eb4 9abb 8a1b 1b3f
00000290: 9aa1 34bd deac 333e 4cc7 cabd 548a d0be
000002a0: e7c1 4e3f 94eb 173f 8ebc 3b3f ce0b d83e
000002b0: c418 213f 31ae cd3f 5c65 38bf 8f79 92be
000002c0: 6142 48be 7e6b 7bbe 5ae5 89be 2fae 59bf
000002d0: c78f e53e 60f1 c33e 6307 2b3d 9a97 9b3e
000002e0: e3c0 cd3d b3d4 143d 19f6 89be ebe1 2f3f
000002f0: 422d c9be cf69 12bf 1ed6 763e 2e6a 45be
00000300: ac72 d73c 4419 873e 86bf 1bbf ceae bdbb
00000310: faaa b13d 4d84 23be 1ffe c83c ccff 8e3c
00000320: b690 e43e 79b5 0abf b992 f03c 704e b8be
00000330: a37a 1d3e 0f20 bbbc 16e7 92bd 6a10 24bd
00000340: 3d61 36bf 6be3 61bf a495 74be 99e8 ea3e
00000350: 0f1b f2bc 4d7a 013f ed67 3dbf d190 0c3e
00000360: 4c0a db3e 46ef 063f 1400 663d b707 2bbc
00000370: 5d04 ba3e a9e4 6bbd e48f a6be f4d8 cabe
00000380: 7171 0fbe 12eb 3ebf 8dd9 8cbe b3ba 063d
00000390: 2e8d 97bd a739 fa3e 2393 4a3f c818 c4be
000003a0: af13 763e 8ef0 a03e 05a8 2dbd 081c 623d
000003b0: 63ff b1bd e02c 813e 6758 dbbd c407 04be
000003c0: 741d 023f 4011 87be b9ae 10be 86a3 ed3d
000003d0: 83dc de3e a652 303d c729 a2be 1455 88be
000003e0: 3ec2 c1be c8d7 803e 21c6 40bf 2419 a53e
000003f0: 1f62 07bf fddb 703e 5c2c b13d 48a2 663e

network_body._body_endoder.seq_layers.0.bias f4 [128]
0.0 0.0 0.0 0.0 0.0 0.0 0.0 0.0
0.0 0.0 0.0 0.0 0.0 0.0 0.0 0.0
0.0 0.0 0.0 0.0 0.0 0.0 0.0 0.0
0.0 0.0 0.0 0.0 0.0 0.0 0.0 0.0
0.0 0.0 0.0 0.0 0.0 0.0 0.0 0.0
0.0 0.0 0.0 0.0 0.0 0.0 0.0 0.0
0.0 0.0 0.0 0.0 0.0 0.0 0.0 0.0
0.0 0.0 0.0 0.0 0.0 0.0 0.0 0.0
0.0 0.0 0.0 0.0 0.0 0.0 0.0 0.0
0.0 0.0 0.0 0.0 0.0 0.0 0.0 0.0
0.0 0.0 0.0 0.0 0.0 0.0 0.0 0.0
0.0 0.0 0.0 0.0 0.0 0.0 0.0 0.0
0.0 0.0 0.0 0.0 0.0 0.0 0.0 0.0
0.0 0.0 0.0 0.0 0.0 0.0 0.0 0.0
0.0 0.0 0.0 0.0 0.0 0.0 0.0 0.0
0.0 0.0 0.0 0.0 0.0 0.0 0.0 0.0
00000000: 0000 0000 0000 0000 0000 0000 0000 0000
00000010: 0000 0000 0000 0000 0000 0000 0000 0000
00000020: 0000 0000 0000 0000 0000 0000 0000 0000
00000030: 0000 0000 0000 0000 0000 0000 0000 0000
00000040: 0000 0000 0000 0000 0000 0000 0000 0000
00000050: 0000 0000 0000 0000 0000 0000 0000 0000
00000060: 0000 0000 0000 0000 0000 0000 0000 0000
00000070: 0000 0000 0000 0000 0000 0000 0000 0000
00000080: 0000 0000 0000 0000 0000 0000 0000 0000
00000090: 0000 0000 0000 0000 0000 0000 0000 0000
000000a0: 0000 0000 0000 0000 0000 0000 0000 0000
000000b0: 0000 0000 0000 0000 0000 0000 0000 0000
000000c0: 0000 0000 0000 0000 0000 0000 0000 0000
000000d0: 0000 0000 0000 0000 0000 0000 0000 0000
000000e0: 0000 0000 0000 0000 0000 0000 0000 0000
000000f0: 0000 0000 0000 0000 0000 0000 0000 0000
00000100: 0000 0000 0000 0000 0000 0000 0000 0000
00000110: 0000 0000 0000 0000 0000 0000 0000 0000
00000120: 0000 0000 0000 0000 0000 0000 0000 0000
00000130: 0000 0000 0000 0000 0000 0000 0000 0000
00000140: 0000 0000 0000 0000 0000 0000 0000 0000
00000150: 0000 0000 0000 0000 0000 0000 0000 0000
00000160: 0000 0000 0000 0000 0000 0000 0000 0000
00000170: 0000 0000 0000 0000 0000 0000 0000 0000
00000180: 0000 0000 0000 0000 0000 0000 0000 0000
00000190: 0000 0000 0000 0000 0000 0000 0000 0000
000001a0: 0000 0000 0000 0000 0000 0000 0000 0000
000001b0: 0000 0000 0000 0000 0000 0000 0000 0000
000001c0: 0000 0000 0000 0000 0000 0000 0000 0000
000001d0: 0000 0000 0000 0000 0000 0000 0000 0000
000001e0: 0000 0000 0000 0000 0000 0000 0000 0000
000001f0: 0000 0000 0000 0000 0000 0000 0000 0000

network_body._body_endoder.seq_layers.2.weight f4 [128, 128]
-0.038557615 0.20552479 -0.060062017 0.10902665 0.039941087 -0.019106949 -0.094662115 -0.07960265
0.04186332 -0.11081888 -0.07510149 0.09133207 -0.03748544 -0.038481034 -0.09246172 0.12458904
0.054315485 0.11103286 0.084657595 -0.027241165 0.16509885 0.06541882 0.016512185 0.045325425
0.12750266 0.016224526 0.008908731 0.00051044475 0.03410312 0.03878155 0.0045339325 -0.015469261
0.012680565 -0.07386114 0.011263153 0.119529694 -0.041906636 -0.004618018 0.002920083 0.03933208
-0.049871374 0.058022708 0.11769048 -0.2204761 -0.0487619 0.032570403 -0.030381814 -0.037477985
-0.030989582 0.009942137 0.017764494 0.021226741 0.04239465 0.10659099 0.102887265 -0.05507835
-0.021609826 -0.119669534 -0.1318345 -0.053779762 0.07128204 -0.042546626 -0.044299856 0.0018983955
-0.05069908 -0.00016819322 -0.027988097 0.045303166 -0.031639226 0.124864876 0.06655732 -0.057205506
-0.03569921 0.12412993 -0.11225594 0.0010692655 -0.023507684 -0.088991724 -0.07622934 0.015511971
0.04146537 0.004733053 0.15807801 0.04496878 0.12169466 -0.07486376 0.024781024 0.008923081
0.020659478 -0.11509316 -0.15688856 -0.065797396 -0.032134242 0.047916714 -0.08894646 0.0073601487
0.029745366 -0.18494092 0.09447078 -0.08817535 0.11543359 -0.0920953 0.063594006 0.11094334
0.0005437632 -0.03413044 0.09648289 -0.052593186 0.06701258 -0.012303285 -0.0043913424 0.15920858
-0.06397064 -0.06607228 -0.11558566 0.070684396 -0.024470963 0.048451774 -0.06797715 0.016458571
-0.13914499 -0.11184533 0.20602056 -0.19118553 -0.02595347 -0.03436788 -0.06397075 -0.13156728
0.097325034 0.024851238 0.088621326 -0.11476818 0.013147963 0.078887165 0.21905163 -0.07941291
-0.05220545 -0.11989551 0.02908009 0.040670846 0.018748924 0.06819553 0.11614427 0.09719982
-0.086433716 -0.042900246 -0.03049891 -0.013001876 0.06641487 0.036699377 -0.07470289 0.04112691
0.07800727 0.10417431 0.044563733 -0.10056215 0.021266287 -0.036492422 -0.008610215 -0.09463377
0.085388064 0.05955509 0.050244484 -0.08714525 -0.08371758 0.055208217 -0.11545153 0.14215912
0.033479035 -0.049152337 -0.06860781 0.06974967 0.05950527 0.09225434 0.06700305 -0.06570162
0.04221454 0.043148357 -0.13197218 -0.06287847 -0.1197168 -0.01147932 0.11829865 0.052440166
-0.032052908 0.15293974 0.13294822 0.047931273 -0.03165137 -0.028830085 0.001704879 0.13127738
-0.12473164 0.10597239 -0.08805932 -0.024391241 -0.15121892 -0.0445517 -0.021607555 -0.028145757
0.04249811 0.006517489 -0.05176733 -0.046552014 0.024939762 0.033227757 -0.026535679 -0.07480415
0.017113362 -0.10285555 0.06639532 0.0061627114 0.12435172 -0.13881762 -0.0039401203 0.04714212
0.056804862 0.04050105 -0.077967465 -0.089395024 -0.024704138 0.053432386 -0.06149995 0.040711287
-0.20530017 -0.05259264 0.059977047 0.032258 0.045397528 0.008597876 0.0033342703 -0.07238932
0.0010657717 0.0020410495 -0.019652745 0.02175306 -0.07060014 -0.07385291 -0.015929703 -0.044098306
0.010594293 -0.055506896 0.06470058 -0.0022486646 -0.18542592 -0.12759554 -0.057488404 -0.006605475
0.022801355 0.0032763046 0.051717017 -0.057821993 -0.123885125 0.135524 0.059871458 0.08045085
00000000: 97ee 1dbd 1775 523e 9703 76bd 5d49 df3d
00000010: 4499 233d 2d86 9cbc 36de c1bd b706 a3bd
00000020: df78 2b3d 02f5 e2bd cfce 99bd 4f0c bb3d
00000030: 558a 19bd 4a9e 1dbd 925c bdbd 8a28 ff3d
00000040: ea79 5e3d 3265 e33d f660 ad3d dd28 dfbc
00000050: ac0f 293e 4dfa 853d 9044 873c 27a7 393d
00000060: 0f90 023e 4ce9 843c edf5 113c 5ecf 053a
00000070: b7af 0b3d 67d9 1e3d 6291 943b c972 7dbc
00000080: 25c2 4f3c 8244 97bd 1689 383c fccb f43d
00000090: 4ba6 2bbd be52 97bb dd5e 3f3b ad1a 213d
000000a0: ed45 4cbd 38a9 6d3d b507 f13d 7dc4 61be
000000b0: 8fba 47bd 8b68 053d 48e3 f8bc 8482 19bd
000000c0: dddd fdbc 58e4 223c d886 913c b4e3 ad3c
000000d0: 03a6 2d3d 614c da3d 8fb6 d23d d699 61bd
000000e0: 1707 b1bc 4d15 f5bd a0ff 06be 2b48 5cbd
000000f0: 51fc 913d 5f45 2ebd c473 35bd 95d3 f83a
00000100: d7a9 4fbd 065d 30b9 4b47 e5bc d08f 393d
00000110: 2298 01bd 28b9 ff3d 344f 883d 5250 6abd
00000120: 5639 12bd d537 fe3d 71e6 e5bd 9926 8c3a
00000130: 3093 c0bc 4b41 b6bd 211e 9cbd ec25 7e3c
00000140: 98d7 293d ba17 9b3b 34df 213e 2f31 383d
00000150: 0d3b f93d 2c52 99bd 9301 cb3c 1d32 123c
00000160: 113e a93c f6b5 ebbd 65a7 20be c9c0 86bd
00000170: 329f 03bd 5144 443d 9029 b6bd 672d f13b
00000180: 8eac f33c 2761 3dbe e579 c13d 4795 b4bd
00000190: 7268 ec3d 769c bcbd 933d 823d 4336 e33d
000001a0: 558b 0e3a 5ccc 0bbd d298 c53d f46b 57bd
000001b0: e43d 893d b893 49bc 40e5 8fbb 9307 233e
000001c0: 0a03 83bd e750 87bd 2db8 ecbd fbc2 903d
000001d0: 5477 c8bc 5e75 463d 9b37 8bbd 20d4 863c
000001e0: 067c 0ebe 2a0f e5bd 0ef7 523e 24c6 43be
000001f0: 5f9c d4bc 56c5 0cbd 1903 83bd 93b9 06be
00000200: 5952 c73d d394 cb3c 197f b53d 940b ebbd
00000210: 8e6a 573c 988f a13d 124f 603e 3ca3 a2bd
00000220: 62d5 55bd c78b f5bd 5e39 ee3c 7996 263d
00000230: 5897 993c 19aa 8b3d 0cdd ed3d b310 c73d
00000240: 2904 b1bd 2bb8 2fbd dad8 f9bc d205 55bc
00000250: 8504 883d 1652 163d d4fd 98bd b174 283d
00000260: 47c2 9f3d 5759 d53d 7688 363d 87f3 cdbd
00000270: a336 ae3c 1479 15bd dc11 0dbc 5acf c1bd
00000280: f0df ae3d 0af0 733d 29cd 4d3d 3579 b2bd
00000290: 1f74 abbd 0322 623d da71 ecbd 2992 113e
000002a0: 5021 093d f653 49bd 4082 8cbd ead8 8e3d
000002b0: ccbb 733d d8ef bc3d e538 893d 928e 86bd
000002c0: 27e9 2c3d 55bc 303d b723 07be 6dc6 80bd
000002d0: 152e f5bd c213 3cbc 9046 f23d 80cb 563d
000002e0: e949 03bd 3c9c 1c3e 9423 083e 9553 443d
000002f0: dea4 01bd 122d ecbc 3f76 df3a 946d 063e
00000300: 4d73 ffbd 0d08 d93d 7258 b4bd 24d0 c7bc
00000310: 22d9 1abe d87b 36bd 5402 b1bc ee91 e6bc
00000320: 8012 2e3d a990 d53b fb09 54bd 53ad 3ebd
00000330: 794e cc3c d419 083d 5a61 d9bc eb32 99bd
00000340: 5231 8c3c eea5 d2bd 45fa 873d 92f0 c93b
00000350: 1dac fe3d 3526 0ebe 201c 81bb 1818 413d
00000360: 37ac 683d 6ee4 253d 68ad 9fbd bd14 b7bd
00000370: 5560 cabc ebdb 5a3d 5fe7 7bbd e1c0 263d
00000380: 353a 52be 616b 57bd 7eaa 753d f720 043d
00000390: c2f2 393d 1bde 0c3c c683 5a3b da40 94bd
000003a0: 5db1 8b3a 21c3 053b cbfe a0bc 7933 b23c
000003b0: ce96 90bd 3240 97bd 027f 82bc 6da0 34bd
000003c0: af93 2d3c 335b 63bd bd81 843d 555e 13bb
000003d0: 4be0 3dbe 68a8 02be f678 6bbd be72 d8bb
000003e0: e8c9 ba3c 45b7 563b 39d5 533d c1d6 6cbd
000003f0: 7cb7 fdbd cec6 0a3e c63b 753d 6ac3 a43d

network_body._body_endoder.seq_layers.2.bias f4 [128]
0.0 0.0 0.0 0.0 0.0 0.0 0.0 0.0
0.0 0.0 0.0 0.0 0.0 0.0 0.0 0.0
0.0 0.0 0.0 0.0 0.0 0.0 0.0 0.0
0.0 0.0 0.0 0.0 0.0 0.0 0.0 0.0
0.0 0.0 0.0 0.0 0.0 0.0 0.0 0.0
0.0 0.0 0.0 0.0 0.0 0.0 0.0 0.0
0.0 0.0 0.0 0.0 0.0 0.0 0.0 0.0
0.0 0.0 0.0 0.0 0.0 0.0 0.0 0.0
0.0 0.0 0.0 0.0 0.0 0.0 0.0 0.0
0.0 0.0 0.0 0.0 0.0 0.0 0.0 0.0
0.0 0.0 0.0 0.0 0.0 0.0 0.0 0.0
0.0 0.0 0.0 0.0 0.0 0.0 0.0 0.0
0.0 0.0 0.0 0.0 0.0 0.0 0.0 0.0
0.0 0.0 0.0 0.0 0.0 0.0 0.0 0.0
0.0 0.0 0.0 0.0 0.0 0.0 0.0 0.0
0.0 0.0 0.0 0.0 0.0 0.0 0.0 0.0
00000000: 0000 0000 0000 0000 0000 0000 0000 0000
00000010: 0000 0000 0000 0000 0000 0000 0000 0000
00000020: 0000 0000 0000 0000 0000 0000 0000 0000
00000030: 0000 0000 0000 0000 0000 0000 0000 0000
00000040: 0000 0000 0000 0000 0000 0000 0000 0000
00000050: 0000 0000 0000 0000 0000 0000 0000 0000
00000060: 0000 0000 0000 0000 0000 0000 0000 0000
00000070: 0000 0000 0000 0000 0000 0000 0000 0000
00000080: 0000 0000 0000 0000 0000 0000 0000 0000
00000090: 0000 0000 0000 0000 0000 0000 0000 0000
000000a0: 0000 0000 0000 0000 0000 0000 0000 0000
000000b0: 0000 0000 0000 0000 0000 0000 0000 0000
000000c0: 0000 0000 0000 0000 0000 0000 0000 0000
000000d0: 0000 0000 0000 0000 0000 0000 0000 0000
000000e0: 0000 0000 0000 0000 0000 0000 0000 0000
000000f0: 0000 0000 0000 0000 0000 0000 0000 0000
00000100: 0000 0000 0000 0000 0000 0000 0000 0000
00000110: 0000 0000 0000 0000 0000 0000 0000 0000
00000120: 0000 0000 0000 0000 0000 0000 0000 0000
00000130: 0000 0000 0000 0000 0000 0000 0000 0000
00000140: 0000 0000 0000 0000 0000 0000 0000 0000
00000150: 0000 0000 0000 0000 0000 0000 0000 0000
00000160: 0000 0000 0000 0000 0000 0000 0000 0000
00000170: 0000 0000 0000 0000 0000 0000 0000 0000
00000180: 0000 0000 0000 0000 0000 0000 0000 0000
00000190: 0000 0000 0000 0000 0000 0000 0000 0000
000001a0: 0000 0000 0000 0000 0000 0000 0000 0000
000001b0: 0000 0000 0000 0000 0000 0000 0000 0000
000001c0: 0000 0000 0000 0000 0000 0000 0000 0000
000001d0: 0000 0000 0000 0000 0000 0000 0000 0000
000001e0: 0000 0000 0000 0000 0000 0000 0000 0000
000001f0: 0000 0000 0000 0000 0000 0000 0000 0000

action_model._continuous_distribution.log_sigma f4 [1, 3]
0.0 0.0 0.0
00000000: 0000 0000 0000 0000 0000 0000

action_model._continuous_distribution.mu.weight f4 [3, 128]
-0.0149463685 -0.025768941 -0.02335582 0.021046214 0.0037164015 -0.02208483 0.016788373 0.001764408
0.0019327191 -0.023175461 0.030619044 -0.0071800626 -0.026593683 0.017777627 -2.8079752e-05 -0.004569557
0.0051259594 0.007530249 0.020871777 0.0008928328 0.025377626 0.0048759435 0.022571197 0.027137855
0.007722211 -0.010280117 0.025481919 -0.005682605 -0.0021944016 0.0035213826 -0.013569134 -0.010949883
0.04278386 0.02100115 -0.007571271 0.02501129 -0.019169489 0.025426427 -0.0053118034 -0.008605328
-0.009259908 0.006459681 0.0052383477 -0.02809236 -0.013642385 0.022667844 0.0071624974 -0.023012927
0.037647385 0.010910109 -0.0011794493 0.00024429147 0.0025208436 -0.025546256 -0.022884756 -0.00035245987
0.00258739 0.0068825446 0.008037162 0.026884167 -0.007228491 0.020973487 0.019279873 -0.018279351
-0.041217852 -0.011035182 0.017108329 0.019004371 -0.0069987588 -0.00052194064 0.007922455 0.011006667
0.01100549 0.019042632 -0.0065550813 0.01123891 0.006615317 -0.0028030851 -0.009952594 -0.0122863585
0.021467363 -0.005771747 -0.035119735 -0.0005480511 -0.010556009 0.023230731 0.024339303 -0.008131022
0.0073586456 0.0115921395 0.009338138 0.03509454 -0.017988509 0.0018401148 -0.018205145 -0.008572631
-0.027301881 -0.002575144 -0.013223328 0.0006969304 -0.013266406 -0.022423083 -0.011993523 0.013021049
0.0011921342 -0.014049872 0.0008464822 0.0055564214 0.0166052 0.028447768 -0.010959948 -0.0030987256
-0.0044464734 -0.036031153 0.012678671 -0.028902957 0.013628882 -0.019493837 0.022150164 -0.008429374
-0.0086400425 -0.028615806 -0.0152811175 -0.0012863949 0.002548147 0.0032032323 -0.014662934 0.0021902698
-0.03248973 0.018445289 0.010557975 0.012957396 0.004060207 0.011532004 -0.018802222 0.014827753
-0.015025099 0.04152393 0.0055956976 -0.0051440448 0.005066944 -0.0013481484 0.00168828 -0.021694044
-0.0022198304 9.2297734e-05 0.022383612 -0.0034911267 0.012273901 -0.025996981 0.0052267252 -0.02773048
0.01854098 -0.0025380035 -0.0014916842 0.005287362 -0.020102281 0.0068291235 0.007830332 0.031064231
0.031009683 -0.014739635 0.013225294 0.015457583 0.038162112 -0.021267055 -0.022511343 0.0050021154
0.012324041 -0.009106308 0.0016551998 0.016926011 0.024072409 -0.0016890267 -0.019478222 0.009989675
0.01845352 0.0053003686 -0.0098228445 0.006532674 -0.007324043 -0.009062039 0.0027600538 0.0060696816
-0.0034281535 0.010121789 0.021482408 -0.034820832 -0.004585026 0.04112359 -0.016210614 -0.01962672
0.0028226457 -0.024888156 -0.005164301 0.007920099 0.02747791 0.020292677 -0.0022267457 0.025620153
0.022024171 0.000121439916 0.0024594588 0.0047635245 0.022003135 -0.00021618289 0.013979189 -0.0005645323
-0.02505003 -0.023784643 -0.021141952 -0.0063466476 0.019196702 0.013325346 -0.0043710675 0.015800176
0.019338258 0.033275347 -0.028234506 -0.0052192374 -0.0022512884 0.012586929 -0.0031066805 -0.0059035923
5.3171487e-05 0.0139467865 0.0042502107 0.043041807 0.00023489077 0.0046948674 -0.0037309676 0.021696772
0.0005987643 -0.0040220544 0.03438255 0.004309799 -0.01780748 0.008830788 0.009559566 -0.01712596
0.016614523 0.009749039 -0.013428601 0.008836249 0.007251087 -0.0054409034 0.029466737 -0.044123113
0.016211057 -0.01971728 -0.010106553 -0.020345349 0.02776285 0.0040386342 -0.0030342506 -0.0043432037
00000000: 9de1 74bc 6319 d3bc b454 bfbc 1c69 ac3c
00000010: df8e 733b 3feb b4bc c587 893c b543 e73a
00000020: 4b53 fd3a 77da bdbc cad4 fa3c bb46 ebbb
00000030: ffda d9bc 63a2 913c cf8c ebb7 39bc 95bb
00000040: aaf7 a73b 4fc0 f63b 4afb aa3c ff0c 6a3a
00000050: bde4 cf3c 61c6 9f3b 3be7 b83c 3550 de3c
00000060: 9a0a fd3b f06d 28bc 75bf d03c 2535 babb
00000070: f3cf 0fbb ffc6 663b 1351 5ebc 2367 33bc
00000080: 213e 2f3d 9b0a ac3c 6d18 f8bb 7ae4 cc3c
00000090: 5509 9dbc 154b d03c a30e aebb 5dfd 0cbc
000000a0: dfb6 17bc bbab d33b 72a6 ab3b f321 e6bc
000000b0: 4f84 5fbc eab1 b93c 62b3 ea3b 9b85 bcbc
000000c0: 2534 1a3d 50c0 323c c097 9aba 3f14 8039
000000d0: bd34 253b 6246 d1bc d078 bbbc 5dca b8b9
000000e0: 3391 293b f886 e13b 4dae 033c 2f3c dc3c
000000f0: fadc ecbb 97d0 ab3c d3f0 9d3c 94be 95bc
00000100: 0dd4 28bd e8cc 34bc c426 8c3c 0eaf 9b3c
00000110: d855 e5bb d8d2 08ba 2fcd 013c 4f55 343c
00000120: 5f50 343c 4bff 9b3c 02cc d6bb 6823 383c
00000130: 4dc5 d83b f7b3 37bb 3410 23bc b94c 49bc
00000140: 53dc af3c ec20 bdbb b6d9 0fbd 16ab 0fba
00000150: 1cf3 2cbc 604e be3c 3863 c73c fa37 05bc
00000160: cb20 f13b f5ec 3d3c fdfe 183c 4bbf 0f3d
00000170: a35c 93bc 0230 f13a f522 95bc 3874 0cbc
00000180: 32a8 dfbc bfc3 28bb a8a6 58bc 35b2 363a
00000190: 575b 59bc 9db0 b7bc 7b80 44bc 3d56 553c
000001a0: 6341 9c3a 6f31 66bc 75e6 5d3a a412 b63b
000001b0: a107 883c 4b0b e93c 5b91 33bc fd13 4bbb
000001c0: b9b3 91bb 6795 13bd 33ba 4f3c e5c5 ecbc
000001d0: ad4b 5f3c 8ab1 9fbc 4374 b53c 5b1b 0abc
000001e0: f78e 0dbc b26b eabc a75d 7abc 409c a8ba
000001f0: d0fe 263b 52ed 513b cd3c 70bc a18a 0f3b
00000200: f313 05bd 931a 973c 5bfb 2c3c 424b 543c
00000210: 7c0b 853b bbf0 3c3c 1e07 9abc 1bf0 723c
00000220: d52b 76bc ff14 2a3d 1d5c b73b 608f a8bb
00000230: 9b08 a63b 5bb4 b0ba 4749 dd3a b5b7 b1bc
00000240: 937a 11bb f88f c138 d65d b73c 63cb 64bb
00000250: 7918 493c 9ff7 d4bc f344 ab3b 082b e3bc
00000260: 41e3 973c a254 26bb 9e84 c3ba 9b41 ad3b
00000270: 8aad a4bc d7c6 df3b cb4a 003c 6a7a fe3c
00000280: 0508 fe3c 837e 71bc e7ae 583c cd41 7d3c
00000290: e04f 1c3d 3f38 aebc b569 b8bc c9e8 a33b
000002a0: c6ea 493c a032 15bc 4af3 d83a 6ba8 8a3c
000002b0: 8033 c53c 5562 ddba cb90 9fbc bcab 233c
000002c0: d62b 973c b7ae ad3b ffef 20bc 0b10 d63b
000002d0: 87fe efbb f278 14bc 05e2 343b 2ee4 c63b
000002e0: dfaa 60bb dcd5 253c e0fb af3c 4aa0 0ebd
000002f0: fc3d 96bb 3671 283d 1fcc 84bc 37c8 a0bc
00000300: 23fc 383b 3fe2 cbbc 4c39 a9bb 4ec3 013c
00000310: 5b19 e13c d43c a63c 98ee 11bb 5be1 d13c
00000320: 096c b43c 8fad fe38 df2e 213b 5717 9c3b
00000330: eb3f b43c 27af 62b9 f808 653c 1ffd 13ba
00000340: b835 cdbc 03d8 c2bc e331 adbc 8af7 cfbb
00000350: 6742 9d3c 8d52 5a3c 2c3b 8fbb 5f6f 813c
00000360: 446b 9e3c bb4b 083d 0d4c e7bc 2306 abbb
00000370: 5a8a 13bb 6839 4e3c 7399 4bbb ec72 c1bb
00000380: 7304 5f38 1081 643c 5a45 8b3b 9b4c 303d
00000390: 034d 7639 67d7 993b 4083 74bb 6ebd b13c
000003a0: 64f6 1c3a 70cb 83bb b7d4 0c3d 3739 8d3b
000003b0: fee0 91bc 02af 103c ba9f 1c3c be4b 8cbc
000003c0: 2e1b 883c 6fba 1f3c a303 5cbc eac5 103c
000003d0: 879a ed3b 9b49 b2bb 3a64 f13c 70ba 34bd
000003e0: 0dcd 843c 2286 a1bc f595 25bc 4aab a6bc
000003f0: eb6e e33c 8556 843b 47da 46bb 6f51 8ebb

action_model._continuous_distribution.mu.bias f4 [3]
0.0 0.0 0.0
00000000: 0000 0000 0000 0000 0000 0000

53 f4 [8]
1.0 1.0 1.0 1.0 1.0 1.0 1.0 1.0
00000000: 0000 803f 0000 803f 0000 803f 0000 803f
00000010: 0000 803f 0000 803f 0000 803f 0000 803f
