results/Shoot_v1/Shooter/Shooter-0.onnx (onnx, 74243 bytes, 9 tensors)

network_body.observation_encoder.processors.0.normalizer.running_mean f4 [7]
00000000: 0000 0000 0000 0000 0000 0000 0000 0000
00000010: 0000 0000 0000 0000 0000 0000
0.0 0.0 0.0 0.0 0.0 0.0 0.0

network_body._body_endoder.seq_layers.0.weight f4 [128, 7]
00000000: b91a 81bd 2035 fd3e 8b5e fdbe b91f 86be
00000010: 2788 afbc 48a4 7e3e ec46 c5bd 77b5 953d
00000020: b5ac ec3d ba65 f4bd 5374 a23e d7ee 10be
00000030: 785c 7ebe 1d80 80bd 4c3f 15bf aadc 0abd
00000040: 0dbf 99bd 38c5 41bb e030 2c3d 6137 dc3e
00000050: cc9e 213f 8c54 873f f290 9bbe e043 503c
00000060: 265a c6be d65d d63e bd6b 983e 7013 73be
00000070: e910 d83c a696 d7be bbdf 5ebe dc97 e73d
00000080: 0b61 e2bd e281 15bd ab56 16be 9d6b 46bd
00000090: b113 023f 595e 14bf 761f 033f ef63 b63e
000000a0: e4f7 4e3c 70b2 13bf 8cee 953e 5664 95be
000000b0: bf7c 51be fc48 ecbe 60d9 96bd bc76 ac3e
000000c0: aca0 2bbe c775 3abe de01 0fbf 3b18 d63c
000000d0: a6bc fd3e ade8 0abe c0ec ff3d ae43 bdbc
000000e0: 64f5 093e 8cd1 08bf bc62 01be 7c94 6ebe
000000f0: d91d 07bf 7221 cdbe 6c8f dcbe d7a8 0b3e
00000100: 122b c0bc 21af d8be c536 40be a66a 363c
00000110: 402b 2f3e 6076 b43e 818f 3bbe d222 08bf
00000120: 8fcb f23d 9eff 0d3d 66fd aebd ad03 f23e
00000130: d2cb 953d b049 9abc a719 153f dd68 d83d
00000140: f861 b53e eb7f 0e3f 8cbc f53e 7028 8f3e
00000150: 2429 243f 1166 253e 92ec 033f e9cc 72bd
00000160: 0561 db3d 28bf 083e fb26 83bc 8073 2cbe
00000170: 40cf 74be af57 4c3e 8e37 afbe b400 3dbe
00000180: 0ed2 163e 13df c43e ca4c 16be 700c 31bf
00000190: 9090 1e3d 301e fcbe 2eb8 7d3e 930b 54bf
000001a0: 36eb d4be 3b4c 2ebf 4a2a 03bf b88d a33e
000001b0: 7f75 5d3d ceac b8bd 0c95 523e fc2f 96be
000001c0: 48af 08be a8e4 a63e a6b3 07bf cd1a bebe
000001d0: aea7 113e a111 d73d 174f 74be 28a7 4c3f
000001e0: edd1 793e f7be 303f 09ee b5be b75c 8bbe
000001f0: 3185 6fbe 4f28 01be 446b 0bbe 9092 73bd
00000200: 18ce a93e 02f6 563e cc50 f63d cd94 e1be
00000210: a232 bebe 1170 04bf c4a9 9abe 3904 d2be
00000220: 3c8f 783e 79fe f53d 335b 6dbe 4714 883e
00000230: 6411 91be ee8f 64be 1a21 ba3e 8c60 c5be
00000240: 8c5a 0b3f aaf4 07bf 633f bfbd 2a3b fb3e
00000250: db36 2cbe 6e13 31bd b665 bbbe da9b 493e
00000260: 7be4 a1bd af68 4dbe f8f4 b9be b8d1 6abf
00000270: e244 a33e a6ca e13d c441 563e 0fe1 ce3e
00000280: d5bc bebe b27e 52be 7d6b 2c3e bb20 85be
00000290: 5ba5 723d f6a0 a5bb 617a e43e b02a fe3e
000002a0: e78a 823e 3ad1 2cbf 1b70 b53d 729a 8abe
000002b0: d4c3 283f fc34 c93e 9b23 03be ae8c b3bd
000002c0: e83f fa3c 6b36 093e a959 933e 359f fe3d
000002d0: dbd3 333e 8058 2e3e 75cb 333e 741b b8be
000002e0: dade b53e f44d f33d 1a53 073c 8bc8 f2be
000002f0: 47dc b6bd bbea 38be e3e6 bebe cce8 233f
00000300: 731a 0c3f 80d3 8ebd b3ad d23d 0e86 e13e
00000310: 690a 81be a044 d1bd 8b15 48be 02f1 d53d
00000320: d2f8 cc3e a4b6 843e 790b 8b3b c12d 3b3f
00000330: c5b3 b63e f30a 673e 625f 2fbe 2627 243e
00000340: 2225 2c3e d2a7 cabd 75ee b1bd d3af 3bbf
00000350: 071f 263f 0294 4cbe 8e7d 40be 6c92 cdbe
00000360: d403 473e 3b5b 46be 75b1 5e3e dcb0 20bf
00000370: 7e39 8e3e 3d28 a93d b9c4 2fbe b7b8 2a3f
00000380: 4b00 6a3d 189c e43c f4d6 a0bd 5905 2a3d
00000390: 4814 c73e f526 fbbe 787a d53d b332 4f3e
000003a0: 17a4 5bbd 47fe dc3e 901f ebbd c67d a0bf
000003b0: 7191 98be f547 893e 0ccf 4bbe 65e6 db3c
000003c0: f1f6 653e 965b 5dbe f563 8dbf fcf3 ecbd
000003d0: 2cb9 afbe 6703 06bf 6057 693e 25d6 fbbd
000003e0: 207a 1cbf 0797 61bf 0b2a 153e f3e7 ebbe
000003f0: 6902 bcbe f486 d73e 1298 d63d 638a c33c
-0.06303925 0.49454594 -0.49486193 -0.26196077 -0.021427227 0.24867356 -0.09632668 0.07310002
0.11556379 -0.11933465 0.31729373 -0.1415361 -0.24839962 -0.06274436 -0.5829971 -0.033901848
-0.07507143 -0.0029567014 0.0420388 0.43011 0.6313293 1.0572677 -0.30384022 0.012711495
-0.38740653 0.41868466 0.29769698 -0.23737884 0.02637525 -0.42107123 -0.21765034 0.11308262
-0.11053666 -0.03650082 -0.14681499 -0.04844247 0.50811297 -0.57956463 0.5121988 0.35623118
0.012632344 -0.5769415 0.2928356 -0.29178113 -0.20457743 -0.46149433 -0.0736568 0.33684337
-0.1676051 -0.18208991 -0.55862224 0.0261346 0.4955799 -0.13565321 0.12496328 -0.023103561
0.13472515 -0.53444743 -0.1263532 -0.2329883 -0.5277992 -0.4006458 -0.43078172 0.13638626
-0.023458038 -0.42321113 -0.18770893 0.011133825 0.17106342 0.35246563 -0.18316461 -0.5317813
0.11855232 0.034667604 -0.08544426 0.4726843 0.07314266 -0.018833965 0.5824227 0.10566876
0.35426307 0.5566394 0.47995412 0.2796054 0.64125276 0.16152216 0.5153285 -0.05927745
0.107118644 0.1335417 -0.016009798 -0.16840935 -0.23907185 0.19955324 -0.34222072 -0.184573
0.14728567 0.38451442 -0.1467773 -0.69159603 0.038712084 -0.4924178 0.2477729 -0.8283016
-0.41585702 -0.6808507 -0.51236403 0.3194406 0.05406713 -0.09017335 0.2056467 -0.29333484
-0.13348114 0.32596326 -0.53008497 -0.37129822 0.14224121 0.10501409 -0.23858295 0.7994256
0.24396487 0.6904139 -0.3553317 -0.27219173 -0.23390652 -0.12613033 -0.13615137 -0.059465945
0.3316505 0.20992282 0.120271295 -0.44058838 -0.37148005 -0.517335 -0.30207646 -0.41018847
0.2427339 0.120114274 -0.23179321 0.2657797 -0.2833358 -0.2232053 0.3635338 -0.38550222
0.5443504 -0.531077 -0.09338262 0.49068576 -0.168178 -0.04323142 -0.36601037 0.19688359
-0.07904907 -0.20059465 -0.3631971 -0.91726255 0.3188849 0.1102498 0.20923525 0.4040608
-0.37253442 -0.20556143 0.16837879 -0.26001534 0.059239727 -0.0050545884 0.44624618 0.49641943
0.254966 -0.67506754 0.08859273 -0.27070957 0.6592381 0.39298236 -0.12806551 -0.08767067
0.030548051 0.13399665 0.28779343 0.1243271 0.17561285 0.17025948 0.17558081 -0.35958445
0.35521585 0.11880103 0.008259559 -0.47418627 -0.08928733 -0.18058293 -0.37285528 0.64027095
0.5472786 -0.06973934 0.10287037 0.44047588 -0.25203255 -0.10218167 -0.19539468 0.10446359
0.40033585 0.25920594 0.004243311 0.7311669 0.35684028 0.2256277 -0.1712623 0.16030559
0.1681104 -0.098952904 -0.0868806 -0.7331516 0.64891094 -0.19978335 -0.18797895 -0.40150774
0.19435054 -0.19370739 0.21747382 -0.62769866 0.27778238 0.08259628 -0.17164887 0.666881
0.057129186 0.027906463 -0.07853499 0.041509006 0.3888266 -0.4905316 0.1042375 0.20234184
-0.053623285 0.43162748 -0.114806294 -1.2538383 -0.29798463 0.2681271 -0.19903201 0.02684326
0.22457482 -0.21616969 -1.104613 -0.11569974 -0.34320962 -0.5234894 0.22787237 -0.12296704
-0.6112385 -0.88121074 0.1456682 -0.460754 -0.3672059 0.4209515 0.10478224 0.023869699

network_body._body_endoder.seq_layers.0.bias f4 [128]
00000000: 0000 0000 0000 0000 0000 0000 0000 0000
00000010: 0000 0000 0000 0000 0000 0000 0000 0000
00000020: 0000 0000 0000 0000 0000 0000 0000 0000
00000030: 0000 0000 0000 0000 0000 0000 0000 0000
00000040: 0000 0000 0000 0000 0000 0000 0000 0000
00000050: 0000 0000 0000 0000 0000 0000 0000 0000
00000060: 0000 0000 0000 0000 0000 0000 0000 0000
00000070: 0000 0000 0000 0000 0000 0000 0000 0000
00000080: 0000 0000 0000 0000 0000 0000 0000 0000
00000090: 0000 0000 0000 0000 0000 0000 0000 0000
000000a0: 0000 0000 0000 0000 0000 0000 0000 0000
000000b0: 0000 0000 0000 0000 0000 0000 0000 0000
000000c0: 0000 0000 0000 0000 0000 0000 0000 0000
000000d0: 0000 0000 0000 0000 0000 0000 0000 0000
000000e0: 0000 0000 0000 0000 0000 0000 0000 0000
000000f0: 0000 0000 0000 0000 0000 0000 0000 0000
00000100: 0000 0000 0000 0000 0000 0000 0000 0000
00000110: 0000 0000 0000 0000 0000 0000 0000 0000
00000120: 0000 0000 0000 0000 0000 0000 0000 0000
00000130: 0000 0000 0000 0000 0000 0000 0000 0000
00000140: 0000 0000 0000 0000 0000 0000 0000 0000
00000150: 0000 0000 0000 0000 0000 0000 0000 0000
00000160: 0000 0000 0000 0000 0000 0000 0000 0000
00000170: 0000 0000 0000 0000 0000 0000 0000 0000
00000180: 0000 0000 0000 0000 0000 0000 0000 0000
00000190: 0000 0000 0000 0000 0000 0000 0000 0000
000001a0: 0000 0000 0000 0000 0000 0000 0000 0000
000001b0: 0000 0000 0000 0000 0000 0000 0000 0000
000001c0: 0000 0000 0000 0000 0000 0000 0000 0000
000001d0: 0000 0000 0000 0000 0000 0000 0000 0000
000001e0: 0000 0000 0000 0000 0000 0000 0000 0000
000001f0: 0000 0000 0000 0000 0000 0000 0000 0000
0.0 0.0 0.0 0.0 0.0 0.0 0.0 0.0
0.0 0.0 0.0 0.0 0.0 0.0 0.0 0.0
0.0 0.0 0.0 0.0 0.0 0.0 0.0 0.0
0.0 0.0 0.0 0.0 0.0 0.0 0.0 0.0
0.0 0.0 0.0 0.0 0.0 0.0 0.0 0.0
0.0 0.0 0.0 0.0 0.0 0.0 0.0 0.0
0.0 0.0 0.0 0.0 0.0 0.0 0.0 0.0
0.0 0.0 0.0 0.0 0.0 0.0 0.0 0.0
0.0 0.0 0.0 0.0 0.0 0.0 0.0 0.0
0.0 0.0 0.0 0.0 0.0 0.0 0.0 0.0
0.0 0.0 0.0 0.0 0.0 0.0 0.0 0.0
0.0 0.0 0.0 0.0 0.0 0.0 0.0 0.0
0.0 0.0 0.0 0.0 0.0 0.0 0.0 0.0
0.0 0.0 0.0 0.0 0.0 0.0 0.0 0.0
0.0 0.0 0.0 0.0 0.0 0.0 0.0 0.0
0.0 0.0 0.0 0.0 0.0 0.0 0.0 0.0

network_body._body_endoder.seq_layers.2.weight f4 [128, 128]
00000000: e2b1 d33c 286c 38bd cac9 34bd c3cf b63d
00000010: cbfb 043e 0b45 95bd 65c5 d0bd 0c35 30be
00000020: ff30 c0bb ba67 d13c 7dfd 1cbe ea8d 9dbd
00000030: 5dfd 73bc a0a8 333d 4866 383c e31d babc
00000040: 79e1 333d 586b d6bd 62db 31bd 0f67 03be
00000050: 2447 ba3c 7cd8 29bd a667 e43c 76c2 82bd
00000060: cfc3 60bd bcb8 5bbb 1f54 c93a 2a2b 8f3d
00000070: 984d 4cbc 8e58 ca3c 34d0 613d 2c6f 333c
00000080: 6e38 ed3d 1631 e53d 3c9c b4bd eafa a63d
00000090: 71cf debd 1ee1 c13c 8199 503d 1312 c6bd
000000a0: b836 643d 1e34 a2bd 28ce e2bd 3192 9c3c
000000b0: 4b1a 053c aaf5 b53d 68ee 98bd 20ab debd
000000c0: bd13 0ebe d769 babd 59f5 ca3d 4052 ac3d
000000d0: f192 de3d b091 ae3c 7f94 5a3d 9fe6 a4bd
000000e0: ea09 4bbd 45c7 e8bc eefb 043e bba2 d4bd
000000f0: 841d cabd 2182 5e3d a368 7b3c 0156 083d
00000100: b94a 2a3e 3cd2 d63d 898d 833d d81a 543d
00000110: 4456 16be 8a27 eabd e896 643e 3017 08bd
00000120: cd12 84bd 2469 4ebd f93b c13d f8bd b4bd
00000130: c9b6 ebbc dc08 3fba 3e92 6b3d d030 22be
00000140: 0807 463d 10f5 73bd 5847 13bd bdb8 283e
00000150: ec53 c13c 316d 60be 95ec ba3d ce56 4c3d
00000160: 9994 e73b ef04 14bd ada5 ee3d 0dc7 34bd
00000170: 5648 bcbc 325a a13d d618 c23d bdf0 6a3d
00000180: fe88 a73c a50a a33c cddb bebd b07b 9bbd
00000190: 3fde 71bd 2439 7b3c 870e c9bc 1444 a23d
000001a0: e176 18be 9cba 07be f616 203d aaa7 973d
000001b0: 233a 243d 3979 e63c 92de 5a3e 16c1 2e3d
000001c0: b693 813c 59c4 363e ff7b 5a3d bcd2 51bd
000001d0: fd71 003d 9379 893d 6336 2a3d 8616 8d3c
000001e0: 3e98 0abd fede 4e3b c746 b93d 4772 b2ba
000001f0: 117e 1fbd 3f09 963c 496f 37be 4c0b a2bd
00000200: ea1a 723d e082 093d 6435 a53c 94af 4bbd
00000210: 5159 503c 67cc 8a3b e8c3 9ebd 952b f3bd
00000220: fb25 0cbe aa83 91bd 017d 1c3e 3d78 2fbd
00000230: c0d4 6d3d e4dd 8e3d eea6 143e b1ea 213d
00000240: dfdb 87bd 0246 f23d 78df b23d 9e25 d33d
00000250: cbb3 79bc 5e85 0c3d 9991 513e 3beb cabc
00000260: 1243 29be d9d4 033d 43ec ddbd da59 a5bd
00000270: 6837 e63d 6c72 91bd 9968 41be ff89 e3bc
00000280: a744 c63d b541 d23c b267 4cbd ffbd f93c
00000290: 38c2 9b3a 5d82 513c d9cd ae38 c3dc 49bd
000002a0: f118 35be 0ab3 693d 9f5b 163d 767b e3ba
000002b0: 0cc7 643d 8e8b 03bd 0c6d 01be 8d85 68bd
000002c0: 42c8 bebd fb28 31be 628f 13bd 3527 7ebc
000002d0: c18b 023a 286e aabd ec7d 0f3d 362e 963d
000002e0: c41f 90bc 9d14 553c 946d f1bd 0cbc b7bc
000002f0: 0bcb 9fbd f08f 0a3d 3959 8e3d ffb6 1c3e
00000300: a953 26bd f56b 78bd 35a3 9abc d0b5 3ebd
00000310: 1774 143e ba9f ff3d 431c c83c e385 373b
00000320: b423 50be b21b 86bd 2795 d5bb 6f9e 9d3d
00000330: 914b 943d 3713 9abd 9332 39be 25b7 72bd
00000340: 145b d8bd 2aaf d0bd 2df5 7bbd d5dc b0bc
00000350: b547 c03c a1c4 8cbd 0fb8 b1bd e39c 7b3d
00000360: f99c 203e 2ad4 093d d878 0abc d48e 233d
00000370: 6349 283e 2b5d cf3d 1726 cabc 9bfb 903d
00000380: a842 8dbd 3b80 04be 2eea 5bbc fab7 cc3d
00000390: 5289 f2bc 00fb 953d 3404 debd ab02 9a3c
000003a0: 6d8f 10bc 99a9 20be dae5 583d 9b32 a03d
000003b0: 66d1 2f3d 4b01 8bbd 2a8f 3e3b 0a9b 9e3d
000003c0: 081e cc3d 5b11 47bd 8755 d03d 6c53 d13c
000003d0: eb42 bc3c 5f40 9abb f6a9 84bc 6d05 2db9
000003e0: fcf5 653d 8dda b73d b09b c5bd 83b9 a63d
000003f0: 46cd 9fbd b6dd cb3d 2d2e a63d bddb a7bd
0.025841657 -0.04502502 -0.044137754 0.08926346 0.12986676 -0.072885595 -0.101939 -0.17207736
-0.005865216 0.025562156 -0.15331073 -0.076930836 -0.0148919495 0.043861985 0.0112548545 -0.02271933
0.0439162 -0.10469693 -0.04342211 -0.12832282 0.022739 -0.04146622 0.027881455 -0.06384747
-0.054874238 -0.0033526858 0.0015360153 0.06990655 -0.012469672 0.02470043 0.0551302 0.010951798
0.11583029 0.11191003 -0.08818862 0.08153327 -0.1087941 0.023666915 0.050927643 -0.09671416
0.055716246 -0.07920097 -0.110744774 0.019112678 0.0081239445 0.08884747 -0.074673474 -0.10872483
-0.13874717 -0.091022186 0.099100776 0.084141254 0.108678706 0.021309704 0.053364273 -0.080518
-0.04957 -0.028415332 0.12986729 -0.10382601 -0.09868911 0.05432332 0.015344772 0.033285145
0.16630067 0.10489318 0.0642348 0.051783413 -0.14681345 -0.11433323 0.22323191 -0.03322524
-0.064488985 -0.05039324 0.09435267 -0.08825296 -0.028773682 -0.0007287392 0.057512514 -0.15838933
0.04834655 -0.05955988 -0.03595671 0.16476722 0.023599587 -0.21916653 0.09127156 0.04988747
0.007067275 -0.036137518 0.11652694 -0.044135142 -0.022983711 0.078785315 0.09477393 0.057358492
0.020451065 0.019902537 -0.093192674 -0.07591951 -0.05904984 0.015333448 -0.02454306 0.07923141
-0.14889099 -0.1325478 0.039084397 0.07405026 0.040094506 0.028133975 0.21373966 0.04266461
0.015817504 0.17848338 0.05334091 -0.051226363 0.031358708 0.067126416 0.041555773 0.017222654
-0.033836596 0.003156602 0.09046703 -0.001361438 -0.038938586 0.018314956 -0.17913546 -0.07912311
0.0591077 0.033572078 0.02016706 -0.04972799 0.012716607 0.0042357924 -0.0775221 -0.11873547
-0.13686363 -0.07105191 0.1528206 -0.042839278 0.058064222 0.06975916 0.14516804 0.03953046
-0.06633734 0.11829759 0.087340295 0.10309909 -0.01524062 0.034306876 0.20465697 -0.02477037
-0.16529492 0.03218541 -0.10836079 -0.080737785 0.11241037 -0.07101902 -0.18887557 -0.027775763
0.09681063 0.025666097 -0.04990358 0.030486105 0.0011883443 0.012787429 8.335309e-05 -0.0492828
-0.17685296 0.05705551 0.03670847 -0.001735552 0.05585389 -0.03211551 -0.12639254 -0.05676799
-0.0931554 -0.17300789 -0.036025412 -0.015512277 0.00049799314 -0.08321792 0.035032198 0.07333033
-0.017593272 0.013005403 -0.117884785 -0.022428535 -0.07802399 0.033828676 0.069506116 0.15304182
-0.04060713 -0.06064983 -0.018876651 -0.04656011 0.1449741 0.12481637 0.024427539 0.0028003387
-0.2032612 -0.06548251 -0.0065180245 0.076962344 0.07240976 -0.07523196 -0.18085699 -0.05925669
-0.10564247 -0.1018966 -0.061513115 -0.021589676 0.023471693 -0.068734415 -0.086776845 0.061428916
0.1568488 0.0336496 -0.008451663 0.039931133 0.16434245 0.10125192 -0.024676366 0.0707924
-0.06897479 -0.12939541 -0.013422532 0.09996028 -0.029606495 0.07323265 -0.108406454 0.0188001
-0.008823258 -0.15689696 0.05295358 0.07822152 0.042924307 -0.06787356 0.0029077032 0.07744415
0.099666655 -0.048600536 0.10172563 0.025552474 0.022981128 -0.0047073807 -0.016194325 -0.00016500587
0.056142792 0.08977232 -0.09648836 0.08140852 -0.07802825 0.099543974 0.08114276 -0.081962086

network_body._body_endoder.seq_layers.2.bias f4 [128]
00000000: 0000 0000 0000 0000 0000 0000 0000 0000
00000010: 0000 0000 0000 0000 0000 0000 0000 0000
00000020: 0000 0000 0000 0000 0000 0000 0000 0000
00000030: 0000 0000 0000 0000 0000 0000 0000 0000
00000040: 0000 0000 0000 0000 0000 0000 0000 0000
00000050: 0000 0000 0000 0000 0000 0000 0000 0000
00000060: 0000 0000 0000 0000 0000 0000 0000 0000
00000070: 0000 0000 0000 0000 0000 0000 0000 0000
00000080: 0000 0000 0000 0000 0000 0000 0000 0000
00000090: 0000 0000 0000 0000 0000 0000 0000 0000
000000a0: 0000 0000 0000 0000 0000 0000 0000 0000
000000b0: 0000 0000 0000 0000 0000 0000 0000 0000
000000c0: 0000 0000 0000 0000 0000 0000 0000 0000
000000d0: 0000 0000 0000 0000 0000 0000 0000 0000
000000e0: 0000 0000 0000 0000 0000 0000 0000 0000
000000f0: 0000 0000 0000 0000 0000 0000 0000 0000
00000100: 0000 0000 0000 0000 0000 0000 0000 0000
00000110: 0000 0000 0000 0000 0000 0000 0000 0000
00000120: 0000 0000 0000 0000 0000 0000 0000 0000
00000130: 0000 0000 0000 0000 0000 0000 0000 0000
00000140: 0000 0000 0000 0000 0000 0000 0000 0000
00000150: 0000 0000 0000 0000 0000 0000 0000 0000
00000160: 0000 0000 0000 0000 0000 0000 0000 0000
00000170: 0000 0000 0000 0000 0000 0000 0000 0000
00000180: 0000 0000 0000 0000 0000 0000 0000 0000
00000190: 0000 0000 0000 0000 0000 0000 0000 0000
000001a0: 0000 0000 0000 0000 0000 0000 0000 0000
000001b0: 0000 0000 0000 0000 0000 0000 0000 0000
000001c0: 0000 0000 0000 0000 0000 0000 0000 0000
000001d0: 0000 0000 0000 0000 0000 0000 0000 0000
000001e0: 0000 0000 0000 0000 0000 0000 0000 0000
000001f0: 0000 0000 0000 0000 0000 0000 0000 0000
0.0 0.0 0.0 0.0 0.0 0.0 0.0 0.0
0.0 0.0 0.0 0.0 0.0 0.0 0.0 0.0
0.0 0.0 0.0 0.0 0.0 0.0 0.0 0.0
0.0 0.0 0.0 0.0 0.0 0.0 0.0 0.0
0.0 0.0 0.0 0.0 0.0 0.0 0.0 0.0
0.0 0.0 0.0 0.0 0.0 0.0 0.0 0.0
0.0 0.0 0.0 0.0 0.0 0.0 0.0 0.0
0.0 0.0 0.0 0.0 0.0 0.0 0.0 0.0
0.0 0.0 0.0 0.0 0.0 0.0 0.0 0.0
0.0 0.0 0.0 0.0 0.0 0.0 0.0 0.0
0.0 0.0 0.0 0.0 0.0 0.0 0.0 0.0
0.0 0.0 0.0 0.0 0.0 0.0 0.0 0.0
0.0 0.0 0.0 0.0 0.0 0.0 0.0 0.0
0.0 0.0 0.0 0.0 0.0 0.0 0.0 0.0
0.0 0.0 0.0 0.0 0.0 0.0 0.0 0.0
0.0 0.0 0.0 0.0 0.0 0.0 0.0 0.0

action_model._continuous_distribution.log_sigma f4 [1, 3]
00000000: 0000 0000 0000 0000 0000 0000
0.0 0.0 0.0

action_model._continuous_distribution.mu.weight f4 [3, 128]
00000000: 1b6e 1b3c 2de0 943b 3540 dc3c da87 56bc
00000010: e866 c0bc 0c4b 933a 245a 003d 8885 cfbc
00000020: 03d0 3dbc 2b38 17bc a7e8 19bc 5706 363c
00000030: 23d9 ce3c 0237 37bc 92ca 93bc 7094 da3b
00000040: dc32 20bb 33e2 6c3c 6b1f 803c 2279 9abc
00000050: a1f6 0d3c 4b02 0e3d 95de 5fbd ab23 413c
00000060: 450b dc3a e719 1c3c b3e7 fc3c 920f 6c3b
00000070: adc2 f83c 2b3e 7abc b55d e6bb ab25 4c3c
00000080: 3ded 15bc e67a 41bb 5a51 28bd 9d96 f0bb
00000090: 8c57 a53b 7b68 adbb 1fd2 1fba e66c ae3c
000000a0: 2bef 1abd 4a6b 8b3c 7220 b53c c8b8 1e3d
000000b0: b2b7 d0bc 72a8 c23b 676f ac3a 2098 d43b
000000c0: 9a1b 52bb 5d0b 083b c781 123c 9d30 5dbc
000000d0: a0d2 b03c 3361 ad3c ba83 303c 472e 8a3c
000000e0: d04f f63b f080 bebc 385f 5b3b e67f b03c
000000f0: 9a6f 3d3b 5274 77ba 3139 9bbc 8390 c9bb
00000100: 8b0c a53c 9397 cabb 8bfb 4d3b 4075 6f3c
00000110: ec9f b9bc 607b 37bc f7df aa3b df73 aebb
00000120: 5d96 e6bc 7081 9e3c f718 073c 827e d13b
00000130: 3c1b 243d 97e4 9f3a e20d f4bb efd6 42bc
00000140: e90a acbb 2496 82ba a894 6abc c794 a13c
00000150: 0233 d63c efe6 50bc 6cda 87bb a539 92bc
00000160: 4787 98bc 2bce 28bc 1e8c 023b da4e a03c
00000170: 7d5b 32bc 4ce7 97bc d82c 26bc fcf5 963c
00000180: 4ad1 87bb a759 8cbc 6068 29bd 63ca 80bb
00000190: 5561 ffbc 570a 263c b60c c7bb c2e1 843c
000001a0: bb2b 23bd 009e e3bb 8a0c d5bc 4793 fd3c
000001b0: 301b ccbb 4749 8bbc ee52 473c 0706 50bc
000001c0: e768 fbbc 8bf6 643b 4de9 ce3b b323 4a3b
000001d0: 6f60 e8bc e29a f8bc e831 2bbc d3bb 6abc
000001e0: 93b9 14bc 0538 36bb 070b 35bc 0550 18bc
000001f0: aa45 a9bc 3067 eebb 02d1 92bc 7307 013d
00000200: ba1d 98bb 59fc acbb 0310 b13c 58ea 4ebc
00000210: 3b01 ed3b e324 303c 5b3c 92b8 03b7 3e3c
00000220: 3fcf 283a 290c 813c 1d4e 1c3c 51ce 4abc
00000230: f00d 6eb9 6dcd e4bc 6b15 9b3c d589 3a3b
00000240: 13ed 37bb 408d 3e3a 1b31 1c3c f23c c5bb
00000250: 5b50 a4ba 0513 8ebc 7da4 75ba 10c2 a83b
00000260: eeda 44bb fa0e 8ebc 2f5b 4dbc 0084 853c
00000270: 0db9 203c 39ec 2b3b df4d 44bc a453 1fbd
00000280: 290f 143d 9754 6ebb 7898 223c 4f14 8d3c
00000290: 1f35 863c f764 963a 3348 8ebb 9bdf 4cba
000002a0: 6aff 70bc 63eb 603b 9381 a9bc 0f80 cd3c
000002b0: 2b44 c6bc 275c 193c 4a05 f6b9 61ed 98bc
000002c0: 7d33 99bc 1d13 27bb 72ca e33c c174 0c3c
000002d0: d04f 03bd 1345 2fbc 6b74 aabb 15f6 06bc
000002e0: ea75 683c 6ac4 88bc 776b 853c 7f95 083c
000002f0: 4320 c73b 3e85 2bbd 09c2 c33c 4f3d 83bb
00000300: 74c7 44bc 2465 ac3c 9d31 0e3c 5fb9 0a3d
00000310: e805 69bb 3531 6c3c 8a1e c5bb 3201 fc3c
00000320: 9f2c d5bb dd4f d13c d6f6 48bd f2f9 4e3c
00000330: d38f 84bc b6aa c8bc 7598 893b 25ee 6d3b
00000340: 47df 903b 26a9 883c 1ea4 20bc de94 89bc
00000350: 6b7d 00bb f35f 1ebd 9361 4dbc e0dc c2bc
00000360: 836e 923c 92da 8e3c d107 4cbc ab68 0bbd
00000370: 0366 a43c c64c 303c 7bba 963b 0559 77bc
00000380: 9a3e 4cbc 0e48 3a3d 7ca8 16bc 53b7 593d
00000390: a361 ecbc f15e 89ba 5ed5 a83b 87de 95bc
000003a0: 3e08 cc3c cfea d6bb 95d0 ddbc cd19 d83c
000003b0: baec a63c 5f4c 63bc eff5 9ebc b7ff 733a
000003c0: 8170 423d 6638 993b 9b6e 5fbb e7a1 5bbc
000003d0: ea5b 9c3c b784 86bc 6a20 5bbc 0ffd cfbb
000003e0: 17a1 52bd ac27 103c 5ae4 793c 65b0 c13b
000003f0: 5fdb b3bb 6d39 a7bc b843 91ba e404 163a
0.0094867 0.0045433254 0.026886085 -0.013093913 -0.02348657 0.0011237576 0.031335965 -0.025332227
-0.011585238 -0.0092297 -0.009393848 0.01110991 0.025250023 -0.0111825485 -0.018040929 0.006670527
-0.0024444377 0.014458227 0.015639981 -0.018856589 0.008664758 0.034670155 -0.05465563 0.011788289
0.0016788027 0.00952766 0.030872202 0.0036020023 0.030366266 -0.015273611 -0.0070302137 0.012460153
-0.0091508 -0.0029522716 -0.041093208 -0.0073421733 0.005045837 -0.005291996 -0.0006096679 0.021292161
-0.037825745 0.017018933 0.022110198 0.03875044 -0.025478218 0.0059404904 0.0013155759 0.0064878613
-0.003205991 0.0020758726 0.008942074 -0.01350036 0.021584809 0.021164512 0.010773594 0.01686777
0.0075168386 -0.023254842 0.0033473503 0.021545362 0.002890563 -0.00094396353 -0.01894817 -0.0061512603
0.020147583 -0.00618262 0.003143045 0.014615357 -0.022659265 -0.0111988485 0.005214687 -0.0053238715
-0.02814787 0.01934883 0.008245698 0.0063932547 0.040065035 0.0012198862 -0.007447944 -0.0118920645
-0.005250324 -0.0009962958 -0.014317669 0.019724263 0.02614737 -0.012750371 -0.004145911 -0.017849753
-0.018619193 -0.0103030605 0.0019919942 0.01956885 -0.01088607 -0.018542908 -0.0101425275 0.018427841
-0.0041448222 -0.017132593 -0.041359305 -0.0039303764 -0.031174341 0.010134301 -0.0060745133 0.016220931
-0.039836626 -0.0069463253 -0.026006956 0.030954016 -0.006228827 -0.017002715 0.012165768 -0.0126967495
-0.03068967 0.003493699 0.0063144327 0.0030844032 -0.028366296 -0.030347291 -0.01044891 -0.014327007
-0.0090774475 -0.0027804386 -0.011049992 -0.009296422 -0.020663101 -0.0072754845 -0.017921928 0.031501245
-0.0046422156 -0.0052791056 0.02161408 -0.012629114 0.0072328127 0.010750982 -6.9730646e-05 0.011640313
0.00064395735 0.015752869 0.009540108 -0.012378291 -0.00022702641 -0.027929986 0.018931111 0.0028463502
-0.0028064891 0.00072689727 0.009533192 -0.006019228 -0.0012536155 -0.017343054 -0.0009370519 0.005150087
-0.0030037719 -0.017341126 -0.012533947 0.016298294 0.009809745 0.002623333 -0.011981457 -0.038898125
0.03614727 -0.0036366337 0.009924047 0.017221598 0.016382752 0.0011474182 -0.004342103 -0.0007815302
-0.014709333 0.003431999 -0.020691669 0.025085477 -0.024202427 0.00936035 -0.00046924717 -0.018667879
-0.01870131 -0.002549357 0.027806494 0.008572758 -0.032058537 -0.010697621 -0.0052018664 -0.0082373815
0.014188269 -0.01669522 0.016286595 0.008336424 0.006076844 -0.041875117 0.023896234 -0.0040051113
-0.012010444 0.021044321 0.008678821 0.03386819 -0.00355565 0.014416029 -0.0060156034 0.030762289
-0.0065055634 0.025550777 -0.049063526 0.012632834 -0.016181862 -0.024495464 0.0041990825 0.0036305275
0.004421148 0.016682219 -0.009804754 -0.016794618 -0.0019606005 -0.038665723 -0.012535471 -0.023786962
0.017874962 0.017438207 -0.012453035 -0.034035366 0.020068174 0.010760492 0.004599867 -0.0150969075
-0.012466097 0.045478873 -0.009195443 0.053153347 -0.02885515 -0.0010480565 0.0051523885 -0.018294586
0.024906274 -0.006558753 -0.027076999 0.02637949 0.020376552 -0.013873189 -0.01940438 0.0009307819
0.047470573 0.0046759127 -0.0034093026 -0.0134053 0.019086797 -0.016420705 -0.013374427 -0.0063473056
-0.05142316 0.008798521 0.015252197 0.0059109204 -0.0054887976 -0.020413125 -0.0011082804 0.00057227747

action_model._continuous_distribution.mu.bias f4 [3]
00000000: 0000 0000 0000 0000 0000 0000
0.0 0.0 0.0

53 f4 [7]
00000000: 0000 803f 0000 803f 0000 803f 0000 803f
00000010: 0000 803f 0000 803f 0000 803f
1.0 1.0 1.0 1.0 1.0 1.0 1.0
