results/Shoot_v1/Shooter/Shooter-16499.onnx (onnx, 74243 bytes, 9 tensors)

network_body.observation_encoder.processors.0.normalizer.running_mean f4 [7]
0	0xba3e33f3	-0.0007255666
1	0x3bf6739a	0.007521105
2	0x00000000	0.0
3	0x3f6c0d58	0.9220786
4	0x3f7ffc07	0.9999394
5	0x3e52a998	0.20572507
6	0xbdc70e4d	-0.097195245

network_body._body_endoder.seq_layers.0.weight f4 [128, 7]
0	0xbf212dd2	-0.6296054
1	0xbc19475a	-0.00935539
2	0x3e82cab6	0.2554528
3	0xbeb74828	-0.35797238
4	0x3e3d44b0	0.18483233
5	0xbf3d7605	-0.7400821
6	0xbdac43d2	-0.08411373
7	0xbe743dc8	-0.23851693
8	0x3e40cf90	0.18829179
9	0x3fab26c2	1.3371203
10	0x3ed36365	0.4128677
11	0xbe16345a	-0.14668408
12	0x3dd17a9d	0.10228465
13	0xbc1f0d7b	-0.009707804
14	0x3f381e8d	0.71921617
15	0xbe17f28d	-0.1483862
16	0xbe4390c6	-0.19098195
17	0x3e229e59	0.15880717
18	0xbf156099	-0.5835052
19	0x3efa9fd3	0.4895006
20	0x3ca9be95	0.02072076
21	0x3f20731a	0.6267563
22	0xbe62535b	-0.2210211
23	0xbe382702	-0.1798363
24	0x3e7a2278	0.24427211
25	0x3eb3592e	0.35028976
26	0xbe9c5ad1	-0.30538037
27	0x3f066dd9	0.52511364
28	0x3c543e4b	0.012954305
29	0x3e9057a9	0.2819188
30	0x3d3d9ac7	0.046290185
31	0x3f04b608	0.5184026
32	0xbd1372f4	-0.0359983
33	0x3db94771	0.090468295
34	0x3ea124ab	0.31473288
35	0xbeb9c522	-0.36283213
36	0xbdfea4e7	-0.124337964
37	0x3efbeb63	0.49203023
38	0x3ee73456	0.45157117
39	0xbeeec80a	-0.46636993
40	0x3e864415	0.26223817
41	0x3e071e9a	0.13195267
42	0xbdcafcca	-0.09911497
43	0xbed2370b	-0.4105762
44	0x3f6dc5e5	0.9288009
45	0x3f2bc208	0.67092943
46	0xbed41dac	-0.41428888
47	0x3e059e87	0.13048755
48	0xbf4bf8a6	-0.7967628
49	0xbea3a838	-0.31964278
50	0x3df204fb	0.11817356
51	0x3f013851	0.50476557
52	0x3f00a044	0.50244546
53	0x3c177688	0.009244569
54	0x3c8bdb5d	0.017072374
55	0x3d93073a	0.07179113
56	0x3eaefe0e	0.34178203
57	0x3f2b6a15	0.66958743
58	0x3f272ed4	0.6530583
59	0xbed872a3	-0.4227496
60	0x3e8b9be4	0.27267373
61	0x3f0d9dff	0.5531921
62	0xbdf280ff	-0.1184101
63	0xbe223047	-0.15838729
64	0xbe8d2b94	-0.2757231
65	0x3ef0a802	0.4700318
66	0xbc3d08b6	-0.011537721
67	0xba519840	-0.00079954043
68	0xbe59b60e	-0.21260855
69	0xbeeb6670	-0.4597659
70	0x3e7568df	0.23965786
71	0xbdac2f2b	-0.08407434
72	0x3ed43b00	0.41451263
73	0xbcdbfc45	-0.02685369
74	0xbcffefb4	-0.031242229
75	0x3eb36ba3	0.35043058
76	0x3f1f2236	0.62161577
77	0xbed8e29a	-0.42360383
78	0x3d45478f	0.048163947
79	0x3e9a0a66	0.30086058
80	0x3f85f46e	1.0465219
81	0xbf1f5f3f	-0.6225471
82	0xbd2fcd68	-0.0429205
83	0xbe7b1d5c	-0.24522918
84	0x3dd4fce8	0.103998005
85	0xbf4bddc1	-0.79635245
86	0xbef5296e	-0.4788317
87	0x3f689962	0.90859044
88	0xbed9dc9c	-0.42551124
89	0xbe6076cd	-0.21920319
90	0xbd1727e5	-0.03690328
91	0x3ed95131	0.42444757
92	0x3ea4614e	0.32105488
93	0x3dc48d4d	0.095972635
94	0x3e2dcafd	0.16971965
95	0x3eac6a15	0.33674684
96	0xbcd82e47	-0.026389254
97	0x3e466554	0.19374591
98	0x3f057de1	0.521452
99	0xbd9ebe0c	-0.07751092
100	0xbeaaa361	-0.33327773
101	0x3e0fcdfa	0.14043418
102	0x3e0ffb08	0.14060605
103	0xbe8117b2	-0.2521339
104	0xbcaeb482	-0.021326307
105	0x3c4afed9	0.012389862
106	0xbeb4ceaa	-0.35313922
107	0xbe494133	-0.19653778
108	0xbf1542f5	-0.58305293
109	0x3d8c4b6f	0.06850325
110	0xbd6f66ef	-0.058447774
111	0xbe60b753	-0.21944933
112	0x3ec7e556	0.39042157
113	0x3e90153d	0.28141204
114	0xbed61038	-0.4180925
115	0x3c11ab16	0.008890888
116	0x3e96188c	0.29315603
117	0x3ea3bbfc	0.31979358
118	0xbed67446	-0.41885585
119	0x3f0384c0	0.51374435
120	0xbe33117a	-0.17487136
121	0xbecd3251	-0.4007745
122	0x3e8c50c9	0.27405384
123	0x3efa3ed4	0.4887606
124	0x3f2a40d3	0.66505164
125	0x3ea46e0a	0.32115203
126	0x3e18bf8f	0.14916824
127	0x3f8c3c9a	1.0955994
128	0xbe9d0edb	-0.30675396
129	0x3e20d13f	0.15704821
130	0x3dd30f2f	0.103056304
131	0x3eaa7343	0.33291063
132	0x3e15007e	0.14550969
133	0xbe9c0bb3	-0.30477676
134	0xbec4657d	-0.3835868
135	0x3ec37966	0.38178557
136	0xbe972cd4	-0.2952639
137	0x3dea02c4	0.11426309
138	0xbf680af0	-0.9064169
139	0xbf122f65	-0.5710357
140	0xbdf317a9	-0.11869747
141	0x3eebd899	0.46063688
142	0x3ebb80ae	0.36621612
143	0xbe322492	-0.17396763
144	0x3e994335	0.29934087
145	0x3edcd5a4	0.43131745
146	0xbeec93a5	-0.46206394
147	0x3ee3b031	0.4447036
148	0xbe4b81d6	-0.19873747
149	0xbe6985d3	-0.22804956
150	0xbf19242b	-0.5982081
151	0x3e80011d	0.2500085
152	0xbdf3da94	-0.11906925
153	0x3d3511e2	0.044206508
154	0x3e5a76a8	0.21334326
155	0x3f1db2f9	0.61601216
156	0xbeed25ae	-0.4631781
157	0xbc65881c	-0.014009502
158	0x3d8c083b	0.06837507
159	0xbee55104	-0.44788373
160	0x3da738e8	0.08165151
161	0x3ef59246	0.4796316
162	0xbe4065a1	-0.18788768
163	0x3e2ea3c9	0.17054667
164	0xbc3d3f9e	-0.011550812
165	0x3ec7d4dc	0.39029586
166	0x3dfbf02b	0.12301668
167	0xbf190644	-0.59775186
168	0x3f118f3e	0.56859195
169	0x3f12c220	0.5732746
170	0x3d5d96dd	0.054098953
171	0x3ee95a4a	0.45576698
172	0x3f1db4eb	0.61604184
173	0xbf05dcfa	-0.5229031
174	0x3ec51b37	0.38497326
175	0xbe5def47	-0.21673308
176	0x3ee851ff	0.45375058
177	0x3f17516e	0.59108627
178	0x3e424d60	0.18974829
179	0xbdcc09a0	-0.09962773
180	0x3f2cddf3	0.6752617
181	0x3f3242ee	0.69633377
182	0x3f56372c	0.83677936
183	0x3ea9ce61	0.33165267
184	0xbe785679	-0.24251737
185	0x3e73d502	0.23811725
186	0xbc5d7c75	-0.013518442
187	0xbcddcb6c	-0.027074538
188	0x3f24ec2c	0.6442287
189	0xbe01e041	-0.12683202
190	0x3e1af62c	0.1513297
191	0xbea71db0	-0.32639837
192	0xbe66f063	-0.22552638
193	0x3f14c04d	0.5810593
194	0x3ed44918	0.41462016
195	0xbda6798a	-0.081286505
196	0xbbd84c4a	-0.0066008912
197	0x3eb73593	0.3578306
198	0x3f40e8b0	0.7535505
199	0xbc63f3ff	-0.013913154
200	0x3d52fbad	0.051509548
201	0x3ee41d03	0.44553384
202	0x3e100027	0.14062558
203	0xbc25b101	-0.010113002
204	0xbdb67c91	-0.08910478
205	0xbf0a3c06	-0.5399784
206	0x3c6000aa	0.013672033
207	0x3ea84b09	0.32869747
208	0xbea04bc0	-0.31307793
209	0xbe19f88e	-0.15036222
210	0x3de02347	0.109442286
211	0xbeb5f3b9	-0.35537508
212	0xbec95c35	-0.3932816
213	0xbda09ac4	-0.07842019
214	0xbe81a455	-0.25320688
215	0xbee7e0cd	-0.45288697
216	0xbf4c4883	-0.79798144
217	0xbea63625	-0.32463184
218	0xbeb09ec1	-0.3449612
219	0xbd757559	-0.059926365
220	0x3c723bce	0.014784766
221	0x3e6b743b	0.22993557
222	0xbee26010	-0.44213915
223	0xbe028c52	-0.1274884
224	0x3e83651e	0.25663084
225	0xbf285f50	-0.65770435
226	0x3e92a663	0.28642568
227	0xbf3bf8ec	-0.734267
228	0x3e87ece6	0.26547927
229	0x3dd75e43	0.10516026
230	0xbecd84e5	-0.40140453
231	0xbdd08592	-0.101817265
232	0x3e4baa29	0.1988913
233	0x3efd2e07	0.4944918
234	0x3f07d045	0.5305217
235	0xbbfb1723	-0.00766267
236	0xbe88aa03	-0.2669221
237	0x3e8f4d2a	0.2798856
238	0xbdcb159c	-0.09916231
239	0xbf242b43	-0.6412851
240	0xbebee53b	-0.37284264
241	0x3d5e34e0	0.054249644
242	0x3d922bbf	0.0713725
243	0xbeb8cf8f	-0.36095855
244	0xbe545c6e	-0.20738384
245	0x3dc22e97	0.094815426
246	0x3da1da7c	0.07903001
247	0x3e1eccec	0.15507859
248	0xbe1fc39e	-0.15601966
249	0x3db83bb7	0.08995765
250	0xbed8c934	-0.42341006
251	0xbd827e14	-0.06371704
252	0xbee6f714	-0.4511038
253	0x3f04ebdc	0.5192239
254	0xbee2d6ba	-0.44304448
255	0x3d8a0b20	0.06740403

network_body._body_endoder.seq_layers.0.bias f4 [128]
0	0x00000000	0.0
1	0x00000000	0.0
2	0x00000000	0.0
3	0x00000000	0.0
4	0x00000000	0.0
5	0x00000000	0.0
6	0x00000000	0.0
7	0x00000000	0.0
8	0x00000000	0.0
9	0x00000000	0.0
10	0x00000000	0.0
11	0x00000000	0.0
12	0x00000000	0.0
13	0x00000000	0.0
14	0x00000000	0.0
15	0x00000000	0.0
16	0x00000000	0.0
17	0x00000000	0.0
18	0x00000000	0.0
19	0x00000000	0.0
20	0x00000000	0.0
21	0x00000000	0.0
22	0x00000000	0.0
23	0x00000000	0.0
24	0x00000000	0.0
25	0x00000000	0.0
26	0x00000000	0.0
27	0x00000000	0.0
28	0x00000000	0.0
29	0x00000000	0.0
30	0x00000000	0.0
31	0x00000000	0.0
32	0x00000000	0.0
33	0x00000000	0.0
34	0x00000000	0.0
35	0x00000000	0.0
36	0x00000000	0.0
37	0x00000000	0.0
38	0x00000000	0.0
39	0x00000000	0.0
40	0x00000000	0.0
41	0x00000000	0.0
42	0x00000000	0.0
43	0x00000000	0.0
44	0x00000000	0.0
45	0x00000000	0.0
46	0x00000000	0.0
47	0x00000000	0.0
48	0x00000000	0.0
49	0x00000000	0.0
50	0x00000000	0.0
51	0x00000000	0.0
52	0x00000000	0.0
53	0x00000000	0.0
54	0x00000000	0.0
55	0x00000000	0.0
56	0x00000000	0.0
57	0x00000000	0.0
58	0x00000000	0.0
59	0x00000000	0.0
60	0x00000000	0.0
61	0x00000000	0.0
62	0x00000000	0.0
63	0x00000000	0.0
64	0x00000000	0.0
65	0x00000000	0.0
66	0x00000000	0.0
67	0x00000000	0.0
68	0x00000000	0.0
69	0x00000000	0.0
70	0x00000000	0.0
71	0x00000000	0.0
72	0x00000000	0.0
73	0x00000000	0.0
74	0x00000000	0.0
75	0x00000000	0.0
76	0x00000000	0.0
77	0x00000000	0.0
78	0x00000000	0.0
79	0x00000000	0.0
80	0x00000000	0.0
81	0x00000000	0.0
82	0x00000000	0.0
83	0x00000000	0.0
84	0x00000000	0.0
85	0x00000000	0.0
86	0x00000000	0.0
87	0x00000000	0.0
88	0x00000000	0.0
89	0x00000000	0.0
90	0x00000000	0.0
91	0x00000000	0.0
92	0x00000000	0.0
93	0x00000000	0.0
94	0x00000000	0.0
95	0x00000000	0.0
96	0x00000000	0.0
97	0x00000000	0.0
98	0x00000000	0.0
99	0x00000000	0.0
100	0x00000000	0.0
101	0x00000000	0.0
102	0x00000000	0.0
103	0x00000000	0.0
104	0x00000000	0.0
105	0x00000000	0.0
106	0x00000000	0.0
107	0x00000000	0.0
108	0x00000000	0.0
109	0x00000000	0.0
110	0x00000000	0.0
111	0x00000000	0.0
112	0x00000000	0.0
113	0x00000000	0.0
114	0x00000000	0.0
115	0x00000000	0.0
116	0x00000000	0.0
117	0x00000000	0.0
118	0x00000000	0.0
119	0x00000000	0.0
120	0x00000000	0.0
121	0x00000000	0.0
122	0x00000000	0.0
123	0x00000000	0.0
124	0x00000000	0.0
125	0x00000000	0.0
126	0x00000000	0.0
127	0x00000000	0.0

network_body._body_endoder.seq_layers.2.weight f4 [128, 128]
0	0x3dc4d964	0.096117765
1	0x3d93da5a	0.07219382
2	0xbcb9d2c0	-0.022683501
3	0xbb60f16f	-0.0034323593
4	0xbcc99b25	-0.024610111
5	0xbd71223a	-0.05887053
6	0x3e1699b3	0.14707069
7	0x3dfbc375	0.1229314
8	0x3dd74781	0.10511685
9	0xbc5fd3d5	-0.013661345
10	0xbdd70910	-0.104997754
11	0xbd88e51b	-0.066843234
12	0x3d24a12c	0.040192768
13	0x3e1fdfd3	0.15612726
14	0x3e0bd8d7	0.13656937
15	0x3d9c3587	0.07627397
16	0xbcc874ca	-0.024469752
17	0xbda4b6a3	-0.08042648
18	0xbe466423	-0.19374137
19	0x3cd4ad36	0.0259615
20	0xbd32fec3	-0.04369999
21	0x3e690402	0.22755435
22	0x3dea9d49	0.11455781
23	0xbddd053a	-0.107920125
24	0x3d20c295	0.039248068
25	0x3d89d38d	0.06729803
26	0x3dd7df51	0.10540641
27	0xbd4eae00	-0.050458908
28	0x3cddad2a	0.02706011
29	0xbe872286	-0.26393527
30	0xbd6b75bf	-0.05748534
31	0x3e33ba48	0.1755153
32	0xbc1596c0	-0.00913018
33	0x3d556198	0.052095026
34	0x3ce3b2e9	0.027795272
35	0xbd588251	-0.052858654
36	0xbe1fc446	-0.15602216
37	0x3deecc31	0.1166004
38	0x3e1fabf2	0.15592936
39	0x3cc80601	0.024416925
40	0xbd2a9c6b	-0.041653078
41	0xbd757404	-0.059925094
42	0xbd1c1c38	-0.03811285
43	0xbd60378f	-0.054740485
44	0x3cab40f8	0.020905003
45	0xbd52bbf1	-0.051448766
46	0xbdea20f3	-0.11432066
47	0x3c8fd9cd	0.01755991
48	0x3ce21320	0.02759701
49	0xbd6ce18f	-0.057832297
50	0x3c821e20	0.015883505
51	0xbd2c245b	-0.04202686
52	0x3ded57ca	0.1158901
53	0xbd83ba65	-0.06432036
54	0xbd85abd2	-0.06526913
55	0xbc993655	-0.018702665
56	0x3d0f660b	0.035009425
57	0x3d3a3a40	0.045465708
58	0x3e82b2f9	0.2552717
59	0xbc1a239e	-0.009407906
60	0x38b9f422	8.866961e-05
61	0xbc97ab9d	-0.018514449
62	0xbe7e1682	-0.24813274
63	0x3d2ab072	0.041672178
64	0xbbed33e6	-0.007238853
65	0xbde3aa99	-0.11116523
66	0xbd80ba59	-0.06285543
67	0x3cfa9fc2	0.030593757
68	0x3d62abc4	0.05533959
69	0xbe0a1c96	-0.13487467
70	0x3dcee6dc	0.10102627
71	0x3d93c2df	0.07214903
72	0xbdd79c21	-0.10527826
73	0xbaf2a36b	-0.0018511837
74	0xbc3b19d5	-0.011419733
75	0x3d2855c6	0.041097425
76	0x3d0a9e41	0.03384233
77	0x3d2ffe34	0.042967036
78	0x3b96cbab	0.004601916
79	0x3ccd21d6	0.025040548
80	0x3dbf8cba	0.09353013
81	0x3d3ce8a1	0.04612029
82	0x3cfd3f8f	0.030914096
83	0x3d79087f	0.060799118
84	0x3d67f805	0.056633014
85	0xbd21eb5d	-0.0395311
86	0x3d1bb196	0.038011156
87	0x3d9203ba	0.07129617
88	0xbce9c902	-0.02853823
89	0x3d1e2864	0.03861274
90	0xbe3443ff	-0.17604063
91	0x3dc25f57	0.09490841
92	0x3c913b2c	0.01772841
93	0xbdfb8ee7	-0.12283116
94	0xbe2f3d33	-0.1711319
95	0xbd7830f8	-0.060593575
96	0x3cc2aef2	0.023765061
97	0xbdc497a6	-0.09599237
98	0x3da7c8d0	0.08192599
99	0x3ddb47c5	0.10707048
100	0xbcd9d354	-0.026590027
101	0xbd610678	-0.05493781
102	0x3bb69b62	0.0055727223
103	0xbe6ccc90	-0.2312491
104	0x3e22e06c	0.15905923
105	0xbda6cae8	-0.0814417
106	0x3d52b57c	0.05144261
107	0x3d2aba4f	0.041681584
108	0x3c1c0af4	0.009524096
109	0x3d274977	0.040841546
110	0x3d5ba408	0.05362323
111	0x3b929437	0.004473235
112	0x3ba2753d	0.0049578235
113	0xbb6f84c5	-0.0036547643
114	0xbda5f60e	-0.08103572
115	0xbe0662ef	-0.13123678
116	0xbe40351a	-0.18770257
117	0x3b9342bf	0.0044940407
118	0xbd7c8e5d	-0.061659206
119	0x3e21d69c	0.15804523
120	0xbd439edb	-0.04775892
121	0xbd3909aa	-0.045175232
122	0x3e0a9328	0.13532698
123	0xbae35fcf	-0.0017347279
124	0xbb938e44	-0.0045030434
125	0xbded06c7	-0.11573558
126	0x3d6ad038	0.05732748
127	0xbdc112e2	-0.0942743
128	0x3e29069b	0.16506426
129	0xbd720885	-0.059090156
130	0x3c63d6d4	0.0139061995
131	0x3c8cc3df	0.017183242
132	0xbe17b6ca	-0.14815822
133	0x3d404cb1	0.04694814
134	0x3e0157ea	0.12631193
135	0x3d5ed283	0.05439998
136	0x3df5f231	0.12009085
137	0xbd54991d	-0.051903833
138	0x3e32413f	0.17407702
139	0x3dea105c	0.114289016
140	0x3d8bb0bd	0.068208195
141	0xbdd80609	-0.10548026
142	0x3af804e0	0.0018922351
143	0xbd64ca11	-0.055856768
144	0x3bfcb1de	0.007711633
145	0x3da8a5dd	0.08234761
146	0xbe0f7ac8	-0.14011681
147	0x3e15dea3	0.1463571
148	0x3d3dcd5f	0.046338435
149	0x3c9cfded	0.01916405
150	0x3daf1025	0.08548001
151	0x3cf7ba53	0.030240213
152	0xbde6e1ca	-0.112735346
153	0xbcab23ea	-0.020891149
154	0xbdf4cb82	-0.119528785
155	0x3db02037	0.085998945
156	0xbe16333a	-0.14667979
157	0xba9a2d54	-0.0011762776
158	0x3d65b820	0.0560838
159	0x3e9c6bb4	0.3055092
160	0x3da39c4e	0.07988797
161	0x3d1cf460	0.03831899
162	0x3d10c3c6	0.035342954
163	0xbd7649ae	-0.06012886
164	0x3c3f2784	0.011667136
165	0x3da3fd54	0.08007303
166	0xbd151840	-0.03640008
167	0x3d5d1642	0.053976305
168	0x3d003184	0.03129722
169	0x3caddb8f	0.021222858
170	0x3e11334f	0.14179729
171	0xbd52d279	-0.051470254
172	0x3d3585a2	0.044316895
173	0xbd3ca903	-0.04605962
174	0xbc5614dd	-0.013066498
175	0xbd947f94	-0.07250896
176	0xbca27376	-0.019830447
177	0xbc8dce36	-0.017310243
178	0xbafb21c1	-0.001915984
179	0xbcfcd6f8	-0.030864224
180	0xbc22b4c2	-0.009930791
181	0xbcf272f1	-0.029595824
182	0x3cb94aac	0.022618614
183	0xbd6b1b37	-0.057399
184	0xbdba9a78	-0.09111494
185	0xbe0b4a92	-0.13602665
186	0xbd4288dc	-0.0474938
187	0x3c3d68b5	0.011560609
188	0x3d830a5c	0.0639846
189	0xbda0b2be	-0.07846592
190	0xbc5daab3	-0.013529467
191	0xbdc00a1a	-0.09376927
192	0x3ccc4ce3	0.024939006
193	0x3d4dbe6d	0.050230432
194	0xbd1fa610	-0.03897673
195	0x3dc4eff0	0.09616077
196	0xbc03c28e	-0.008041991
197	0x3e2e82b4	0.17042047
198	0xbda0cd91	-0.07851709
199	0xbd694177	-0.056947198
200	0x3c774478	0.015092008
201	0x3da46d70	0.08028686
202	0x3dda6382	0.10663511
203	0x3e3f2c9c	0.18669361
204	0xbdbfdc40	-0.09368181
205	0xbe1ae0ed	-0.15124865
206	0xbdd09131	-0.10183943
207	0x3d0b4ea9	0.034010563
208	0xbdd33884	-0.10313514
209	0x3d3a5cc7	0.045498636
210	0xbde6025e	-0.1123092
211	0x3df93418	0.12168139
212	0x3d1fe497	0.03903636
213	0xbd2e4cf4	-0.042553857
214	0xbd67603b	-0.056488257
215	0x3d2f4db3	0.04279871
216	0x3c22fa9c	0.009947445
217	0xbd924556	-0.07142131
218	0xbdb3adc3	-0.08773377
219	0xbe66b55a	-0.22530118
220	0x3d4ec62b	0.050481956
221	0xbcfcf1dc	-0.030877046
222	0x3da7b344	0.08188489
223	0xbd72cbe9	-0.059276495
224	0x3e2d7ffa	0.1694335
225	0x3d7ff985	0.06249382
226	0x3d288de9	0.04115096
227	0xbd9ddd58	-0.077082336
228	0x3db8164f	0.0898863
229	0xbe213547	-0.1574298
230	0xbddb9c18	-0.10723132
231	0x3df3be36	0.11901514
232	0x3d9efc1a	0.07762928
233	0xbd6a42e5	-0.0571927
234	0x3df3dd5e	0.11907457
235	0x3d8e3bcd	0.06945
236	0xbd22c17a	-0.039735295
237	0xbd65e91c	-0.056130514
238	0xbd83c142	-0.064333454
239	0x3de65093	0.11245837
240	0xbe328712	-0.17434338
241	0xbd6de024	-0.058075085
242	0xbd8cc425	-0.06873349
243	0x3d701e4d	0.058622647
244	0xbd8f7d8f	-0.0700637
245	0xbcc745a3	-0.024325198
246	0x3e102564	0.14076763
247	0xbcc5a8bd	-0.024128312
248	0xbd27f378	-0.041003674
249	0xbcc88741	-0.024478557
250	0x3da4fc38	0.080559194
251	0xbd4549a9	-0.04816595
252	0x3d142643	0.0361693
253	0xbdbc1bde	-0.09185003
254	0x3c43aff8	0.01194381
255	0xbc9f979f	-0.019481478

network_body._body_endoder.seq_layers.2.bias f4 [128]
0	0x00000000	0.0
1	0x00000000	0.0
2	0x00000000	0.0
3	0x00000000	0.0
4	0x00000000	0.0
5	0x00000000	0.0
6	0x00000000	0.0
7	0x00000000	0.0
8	0x00000000	0.0
9	0x00000000	0.0
10	0x00000000	0.0
11	0x00000000	0.0
12	0x00000000	0.0
13	0x00000000	0.0
14	0x00000000	0.0
15	0x00000000	0.0
16	0x00000000	0.0
17	0x00000000	0.0
18	0x00000000	0.0
19	0x00000000	0.0
20	0x00000000	0.0
21	0x00000000	0.0
22	0x00000000	0.0
23	0x00000000	0.0
24	0x00000000	0.0
25	0x00000000	0.0
26	0x00000000	0.0
27	0x00000000	0.0
28	0x00000000	0.0
29	0x00000000	0.0
30	0x00000000	0.0
31	0x00000000	0.0
32	0x00000000	0.0
33	0x00000000	0.0
34	0x00000000	0.0
35	0x00000000	0.0
36	0x00000000	0.0
37	0x00000000	0.0
38	0x00000000	0.0
39	0x00000000	0.0
40	0x00000000	0.0
41	0x00000000	0.0
42	0x00000000	0.0
43	0x00000000	0.0
44	0x00000000	0.0
45	0x00000000	0.0
46	0x00000000	0.0
47	0x00000000	0.0
48	0x00000000	0.0
49	0x00000000	0.0
50	0x00000000	0.0
51	0x00000000	0.0
52	0x00000000	0.0
53	0x00000000	0.0
54	0x00000000	0.0
55	0x00000000	0.0
56	0x00000000	0.0
57	0x00000000	0.0
58	0x00000000	0.0
59	0x00000000	0.0
60	0x00000000	0.0
61	0x00000000	0.0
62	0x00000000	0.0
63	0x00000000	0.0
64	0x00000000	0.0
65	0x00000000	0.0
66	0x00000000	0.0
67	0x00000000	0.0
68	0x00000000	0.0
69	0x00000000	0.0
70	0x00000000	0.0
71	0x00000000	0.0
72	0x00000000	0.0
73	0x00000000	0.0
74	0x00000000	0.0
75	0x00000000	0.0
76	0x00000000	0.0
77	0x00000000	0.0
78	0x00000000	0.0
79	0x00000000	0.0
80	0x00000000	0.0
81	0x00000000	0.0
82	0x00000000	0.0
83	0x00000000	0.0
84	0x00000000	0.0
85	0x00000000	0.0
86	0x00000000	0.0
87	0x00000000	0.0
88	0x00000000	0.0
89	0x00000000	0.0
90	0x00000000	0.0
91	0x00000000	0.0
92	0x00000000	0.0
93	0x00000000	0.0
94	0x00000000	0.0
95	0x00000000	0.0
96	0x00000000	0.0
97	0x00000000	0.0
98	0x00000000	0.0
99	0x00000000	0.0
100	0x00000000	0.0
101	0x00000000	0.0
102	0x00000000	0.0
103	0x00000000	0.0
104	0x00000000	0.0
105	0x00000000	0.0
106	0x00000000	0.0
107	0x00000000	0.0
108	0x00000000	0.0
109	0x00000000	0.0
110	0x00000000	0.0
111	0x00000000	0.0
112	0x00000000	0.0
113	0x00000000	0.0
114	0x00000000	0.0
115	0x00000000	0.0
116	0x00000000	0.0
117	0x00000000	0.0
118	0x00000000	0.0
119	0x00000000	0.0
120	0x00000000	0.0
121	0x00000000	0.0
122	0x00000000	0.0
123	0x00000000	0.0
124	0x00000000	0.0
125	0x00000000	0.0
126	0x00000000	0.0
127	0x00000000	0.0

action_model._continuous_distribution.log_sigma f4 [1, 3]
0	0x00000000	0.0
1	0x00000000	0.0
2	0x00000000	0.0

action_model._continuous_distribution.mu.weight f4 [3, 128]
0	0x3cc20c44	0.02368749
1	0xbd126d5f	-0.035748836
2	0x3cf258f7	0.029583437
3	0xbcbc0f0d	-0.022956396
4	0xbc0a60d4	-0.008445937
5	0x3d07cc09	0.033153567
6	0x3d2f9eb6	0.042875968
7	0x3cec2f63	0.02883119
8	0x3cb85b80	0.022504568
9	0x3c8675a6	0.016413521
10	0xbd14e747	-0.036353376
11	0xbc50cc88	-0.012744077
12	0xbc8b566c	-0.017008983
13	0xbb4d4395	-0.00313208
14	0x3bbdb323	0.005789177
15	0xbc856761	-0.016284646
16	0x3cc26ccd	0.02373352
17	0xbc3ee7a1	-0.011651904
18	0xbc5f7aa3	-0.013640079
19	0x3cf5f55f	0.030024229
20	0xbcb8e703	-0.022571092
21	0x3d0c30eb	0.03422634
22	0x3c26033b	0.010132606
23	0x3b4096c7	0.0029386745
24	0xbb28b349	-0.0025741628
25	0xbcad191f	-0.021130143
26	0xbc5e44f0	-0.013566241
27	0x3c1c012e	0.009521766
28	0xbd1539b7	-0.036431994
29	0xb9a036f1	-0.00030558513
30	0x3d045ab5	0.032313067
31	0xbb8c12d7	-0.004274707
32	0xbbb6dae3	-0.0055802925
33	0x3c3a02e7	0.011353231
34	0x3c9c60cc	0.019089125
35	0x3c0ab8d5	0.008466919
36	0xbc92743b	-0.017877689
37	0x3c07b1e0	0.008282155
38	0x3c69f695	0.014279981
39	0x3ae7bcc3	0.0017680157
40	0x3c524682	0.012834193
41	0xbbc845dc	-0.0061118435
42	0x3c135570	0.008992538
43	0xbb65d402	-0.0035068993
44	0x3c92f82e	0.017940607
45	0x3c3f0b1a	0.011660362
46	0x3c3bd9b7	0.0114654815
47	0x3cd332af	0.025781004
48	0x3c392695	0.011300703
49	0x3b1de048	0.002408998
50	0xbcf716e2	-0.030162279
51	0xbc12f460	-0.008969396
52	0xbc5e4fbd	-0.013568816
53	0xba880d69	-0.0010379973
54	0xbcd6ebeb	-0.026235541
55	0x3b466307	0.0030271427
56	0xbc6cf423	-0.014462504
57	0x3b701c87	0.0036638097
58	0x3d7c7f75	0.06164499
59	0xbca72719	-0.020404385
60	0xbbeca88d	-0.0072222413
61	0x3c99e46a	0.018785674
62	0x3cfe61ea	0.031052548
63	0xbc45cc9d	-0.012072709
64	0x3c3da8e5	0.011575912
65	0x3cab0685	0.020877132
66	0xbc86acaf	-0.016439764
67	0xbaf7bdc3	-0.0018901158
68	0xbc84fd0a	-0.01623394
69	0x3c0a0cf3	0.008425939
70	0x3c673a27	0.014112986
71	0xbc5fe798	-0.013666056
72	0x3b8726c0	0.0041244924
73	0xbc763355	-0.015026887
74	0xbcd96a8a	-0.02654006
75	0xbb841038	-0.0040302537
76	0x3c6463c7	0.013939804
77	0xbcfde31a	-0.03099208
78	0xbc8aeda2	-0.016959015
79	0xbbe2badd	-0.0069192485
80	0xbbf0915a	-0.007341546
81	0xbb867d4b	-0.0041042916
82	0x3c539a2a	0.012915174
83	0x3c487fbf	0.012237488
84	0x3c118b87	0.008883364
85	0xbd27f1d4	-0.04100211
86	0xbcacc9f0	-0.021092385
87	0x3c415db4	0.011802126
88	0x3c184417	0.009293578
89	0x3c6b456a	0.014359811
90	0xbb6ab8af	-0.0035815646
91	0xbc31ba3f	-0.010847627
92	0x3cfb1b6b	0.030652722
93	0xbc9d5d27	-0.019209458
94	0xbcc8568a	-0.024455328
95	0xbca1097a	-0.01965784
96	0xbc921f27	-0.01783712
97	0xbc65d1b0	-0.014027044
98	0xba824fcb	-0.0009941993
99	0xbb5c53b0	-0.0033619218
100	0x3b4a46a0	0.003086485
101	0xbaa36e58	-0.0012468798
102	0x3bd116a3	0.0063808723
103	0xbb4ff1f2	-0.0031729904
104	0x3bd082df	0.0063632573
105	0x3cde6d15	0.027151624
106	0xbce806cd	-0.028323555
107	0x3cbea6ff	0.02327299
108	0x3c9c6603	0.019091612
109	0x3c4fcbbb	0.0126828505
110	0x3d250a86	0.04029324
111	0xbcc264c0	-0.023729682
112	0xbc9cc697	-0.019137664
113	0x3c540c28	0.012942351
114	0xbb6810df	-0.0035410447
115	0xbb35a838	-0.0027718674
116	0x3d37296f	0.04471725
117	0xb89eac1e	-7.5660864e-05
118	0xbc54cda2	-0.01298848
119	0x3b65fc07	0.0035092847
120	0x3bd9d7af	0.006648026
121	0x3d147b15	0.036250193
122	0x3b9ce4b2	0.004788005
123	0xbc2cbe87	-0.010543472
124	0x3ccb50a7	0.024818731
125	0x3c0ddff6	0.0086593535
126	0xbbbcabb3	-0.005757773
127	0x3b23f8ac	0.0025020046
128	0xbcd394a8	-0.02582772
129	0xbb8bc4a6	-0.0042653857
130	0xbc96200f	-0.018325834
131	0xbbc73edf	-0.006080493
132	0xbc8587ff	-0.0163002
133	0xbc7e2e92	-0.015514033
134	0xbcdbb2cd	-0.026818657
135	0x3c70bf7b	0.01469409
136	0xbbbf0f52	-0.0058306837
137	0xbcd4e708	-0.02598907
138	0x3cc0b5eb	0.023524245
139	0x3c7c9882	0.01541722
140	0xbb11bdb2	-0.0022238311
141	0xbd115957	-0.03548559
142	0x3bc0d965	0.0058852904
143	0xbb516520	-0.0031951144
144	0x3b8f2f9f	0.0043696905
145	0x3ca8bf42	0.020599011
146	0x3b98fca3	0.0046687885
147	0xbd245256	-0.040117584
148	0xbb96951f	-0.0045954133
149	0x3c7c015d	0.015381184
150	0xbc252506	-0.010079628
151	0xba0a531e	-0.00052766677
152	0x3b4eaac2	0.0031534885
153	0xbc64118b	-0.013920198
154	0xbcaea8fd	-0.021320814
155	0x3b385f5b	0.0028133008
156	0xbb8278df	-0.003981694
157	0xbc0b24d5	-0.008492668
158	0xbc616c50	-0.013758734
159	0xbcf0a615	-0.02937607
160	0xbba13287	-0.0049193534
161	0x3cf33e60	0.029692829
162	0xbb90203b	-0.0043983734
163	0x3ca1dc35	0.019758323
164	0x3c6dcaeb	0.014513711
165	0x3ce1d47b	0.027567139
166	0xbd230d3e	-0.03980755
167	0x3c03c238	0.008041911
168	0xbb545aa0	-0.003240265
169	0x3cd39d65	0.025831887
170	0x3c45678a	0.012048611
171	0xbbfb00cd	-0.0076600076
172	0x3c23cc3f	0.0099974265
173	0x3be35c83	0.0069385185
174	0xbb939f94	-0.004505107
175	0xbb07b667	-0.0020708086
176	0x3c27a0a2	0.010231169
177	0xbc37685f	-0.011194318
178	0xbc81f0bb	-0.01586186
179	0x3cd50937	0.02600537
180	0x3cb5c03e	0.022186395
181	0x3c69349d	0.014233735
182	0x3a8d8910	0.0010798294
183	0xbbdfe4af	-0.006832681
184	0x3c12bd9b	0.008956338
185	0xbcbe2d76	-0.023215037
186	0x3c90e764	0.01768846
187	0x3cb43347	0.021997107
188	0xbc0ac703	-0.0084703
189	0x3c942b0d	0.018086934
190	0xbc2d01ed	-0.010559541
191	0x3c547be7	0.012968994
192	0x3c8391fe	0.016060825
193	0xbc240961	-0.010012002
194	0x3ca65bd5	0.02030746
195	0x3c8283df	0.015932022
196	0x3b6d71bf	0.0036231128
197	0xbc86b530	-0.016443819
198	0xbc10389e	-0.008802561
199	0xbc06925d	-0.008213607
200	0xbc424d9f	-0.011859327
201	0x3c17794e	0.00924523
202	0x3c3d7947	0.011564559
203	0x3d226c01	0.03965378
204	0x3c754d75	0.0149720805
205	0xbc47b4ab	-0.012189071
206	0xbc893ea3	-0.0167535
207	0x3c003288	0.007824548
208	0xbb81cb4b	-0.003961002
209	0x3ba5871f	0.005051508
210	0x3c151d3f	0.009101211
211	0xbc8a866d	-0.016909802
212	0xbc98e2eb	-0.01866289
213	0xbd11a756	-0.035559975
214	0xbaeba5dd	-0.0017978508
215	0x3c460414	0.012085933
216	0x3d04d643	0.0324309
217	0x3c1402ef	0.009033903
218	0xbc868a84	-0.016423471
219	0xbb8e947d	-0.0043511973
220	0x3bfce10f	0.0077172588
221	0xbbe468cb	-0.0069705
222	0xbd0be38d	-0.034152556
223	0xbb9408c0	-0.0045176446
224	0xbbf58fcd	-0.007493949
225	0x3c64eb2b	0.013972084
226	0xbb93b2d9	-0.0045074043
227	0xbcc3ce77	-0.023902161
228	0xb92c3905	-0.0001642444
229	0x3b7702e2	0.0037690927
230	0x3c1c9b58	0.009558521
231	0xba95752b	-0.0011402717
232	0x3b943595	0.004522989
233	0xbc1bca97	-0.00950875
234	0xbc368945	-0.011141126
235	0xbbbe7962	-0.00581281
236	0x3beb73b8	0.0071854256
237	0xbaff015d	-0.0019455362
238	0xbc0f6f77	-0.008754603
239	0x3cea6f73	0.028617596
240	0x3ab7be3f	0.001401849
241	0xbc862f93	-0.016380107
242	0x3cf8fded	0.030394519
243	0x3ca4aa71	0.020100804
244	0x3c3cba0a	0.011518965
245	0x3c27c404	0.010239605
246	0xba56d1bf	-0.0008194707
247	0xbb8e86fa	-0.0043495866
248	0xbbaa1647	-0.005190644
249	0xbca60e3f	-0.020270465
250	0xbac5fe0e	-0.0015105621
251	0x3c1e473a	0.009660536
252	0x3d08211b	0.033234697
253	0x3ccbd059	0.024879621
254	0xbcd3836f	-0.025819508
255	0xbd10370f	-0.035208758

action_model._continuous_distribution.mu.bias f4 [3]
0	0x00000000	0.0
1	0x00000000	0.0
2	0x00000000	0.0

53 f4 [7]
0	0x3c877a60	0.016537845
1	0x3c91f942	0.01781905
2	0x3bff1939	0.007784989
3	0x3e0df79c	0.13863987
4	0x3c346170	0.011009559
5	0x3f3c9219	0.7366043
6	0x3f230f25	0.63694984
