results/Shoot_v1/Shooter/Shooter-0.pt (torch, 153303 bytes, 20 tensors)

network_body.observation_encoder.processors.0.normalizer.running_mean f4 [7]
0	0x00000000	0.0
1	0x00000000	0.0
2	0x00000000	0.0
3	0x00000000	0.0
4	0x00000000	0.0
5	0x00000000	0.0
6	0x00000000	0.0

network_body.observation_encoder.processors.0.normalizer.running_variance f4 [7]
0	0x3f800000	1.0
1	0x3f800000	1.0
2	0x3f800000	1.0
3	0x3f800000	1.0
4	0x3f800000	1.0
5	0x3f800000	1.0
6	0x3f800000	1.0

network_body.processors.0.normalizer.running_mean f4 [7]
0	0x00000000	0.0
1	0x00000000	0.0
2	0x00000000	0.0
3	0x00000000	0.0
4	0x00000000	0.0
5	0x00000000	0.0
6	0x00000000	0.0

network_body.processors.0.normalizer.running_variance f4 [7]
0	0x3f800000	1.0
1	0x3f800000	1.0
2	0x3f800000	1.0
3	0x3f800000	1.0
4	0x3f800000	1.0
5	0x3f800000	1.0
6	0x3f800000	1.0

network_body._body_endoder.seq_layers.0.weight f4 [128, 7]
0	0xbd811ab9	-0.06303925
1	0x3efd3520	0.49454594
2	0xbefd5e8b	-0.49486193
3	0xbe861fb9	-0.26196077
4	0xbcaf8827	-0.021427227
5	0x3e7ea448	0.24867356
6	0xbdc546ec	-0.09632668
7	0x3d95b577	0.07310002
8	0x3decacb5	0.11556379
9	0xbdf465ba	-0.11933465
10	0x3ea27453	0.31729373
11	0xbe10eed7	-0.1415361
12	0xbe7e5c78	-0.24839962
13	0xbd80801d	-0.06274436
14	0xbf153f4c	-0.5829971
15	0xbd0adcaa	-0.033901848
16	0xbd99bf0d	-0.07507143
17	0xbb41c538	-0.0029567014
18	0x3d2c30e0	0.0420388
19	0x3edc3761	0.43011
20	0x3f219ecc	0.6313293
21	0x3f87548c	1.0572677
22	0xbe9b90f2	-0.30384022
23	0x3c5043e0	0.012711495
24	0xbec65a26	-0.38740653
25	0x3ed65dd6	0.41868466
26	0x3e986bbd	0.29769698
27	0xbe731370	-0.23737884
28	0x3cd810e9	0.02637525
29	0xbed796a6	-0.42107123
30	0xbe5edfbb	-0.21765034
31	0x3de797dc	0.11308262
32	0xbde2610b	-0.11053666
33	0xbd1581e2	-0.03650082
34	0xbe1656ab	-0.14681499
35	0xbd466b9d	-0.04844247
36	0x3f0213b1	0.50811297
37	0xbf145e59	-0.57956463
38	0x3f031f76	0.5121988
39	0x3eb663ef	0.35623118
40	0x3c4ef7e4	0.012632344
41	0xbf13b270	-0.5769415
42	0x3e95ee8c	0.2928356
43	0xbe956456	-0.29178113
44	0xbe517cbf	-0.20457743
45	0xbeec48fc	-0.46149433
46	0xbd96d960	-0.0736568
47	0x3eac76bc	0.33684337
48	0xbe2ba0ac	-0.1676051
49	0xbe3a75c7	-0.18208991
50	0xbf0f01de	-0.55862224
51	0x3cd6183b	0.0261346
52	0x3efdbca6	0.4955799
53	0xbe0ae8ad	-0.13565321
54	0x3dffecc0	0.12496328
55	0xbcbd43ae	-0.023103561
56	0x3e09f564	0.13472515
57	0xbf08d18c	-0.53444743
58	0xbe0162bc	-0.1263532
59	0xbe6e947c	-0.2329883
60	0xbf071dd9	-0.5277992
61	0xbecd2172	-0.4006458
62	0xbedc8f6c	-0.43078172
63	0x3e0ba8d7	0.13638626
64	0xbcc02b12	-0.023458038
65	0xbed8af21	-0.42321113
66	0xbe4036c5	-0.18770893
67	0x3c366aa6	0.011133825
68	0x3e2f2b40	0.17106342
69	0x3eb47660	0.35246563
70	0xbe3b8f81	-0.18316461
71	0xbf0822d2	-0.5317813
72	0x3df2cb8f	0.11855232
73	0x3d0dff9e	0.034667604
74	0xbdaefd66	-0.08544426
75	0x3ef203ad	0.4726843
76	0x3d95cbd2	0.07314266
77	0xbc9a49b0	-0.018833965
78	0x3f1519a7	0.5824227
79	0x3dd868dd	0.10566876
80	0x3eb561f8	0.35426307
81	0x3f0e7feb	0.5566394
82	0x3ef5bc8c	0.47995412
83	0x3e8f2870	0.2796054
84	0x3f242924	0.64125276
85	0x3e256611	0.16152216
86	0x3f03ec92	0.5153285
87	0xbd72cce9	-0.05927745
88	0x3ddb6105	0.107118644
89	0x3e08bf28	0.1335417
90	0xbc8326fb	-0.016009798
91	0xbe2c7380	-0.16840935
92	0xbe74cf40	-0.23907185
93	0x3e4c57af	0.19955324
94	0xbeaf378e	-0.34222072
95	0xbe3d00b4	-0.184573
96	0x3e16d20e	0.14728567
97	0x3ec4df13	0.38451442
98	0xbe164cca	-0.1467773
99	0xbf310c70	-0.69159603
100	0x3d1e9090	0.038712084
101	0xbefc1e30	-0.4924178
102	0x3e7db82e	0.2477729
103	0xbf540b93	-0.8283016
104	0xbed4eb36	-0.41585702
105	0xbf2e4c3b	-0.6808507
106	0xbf032a4a	-0.51236403
107	0x3ea38db8	0.3194406
108	0x3d5d757f	0.05406713
109	0xbdb8acce	-0.09017335
110	0x3e52950c	0.2056467
111	0xbe962ffc	-0.29333484
112	0xbe08af48	-0.13348114
113	0x3ea6e4a8	0.32596326
114	0xbf07b3a6	-0.53008497
115	0xbebe1acd	-0.37129822
116	0x3e11a7ae	0.14224121
117	0x3dd711a1	0.10501409
118	0xbe744f17	-0.23858295
119	0x3f4ca728	0.7994256
120	0x3e79d1ed	0.24396487
121	0x3f30bef7	0.6904139
122	0xbeb5ee09	-0.3553317
123	0xbe8b5cb7	-0.27219173
124	0xbe6f8531	-0.23390652
125	0xbe01284f	-0.12613033
126	0xbe0b6b44	-0.13615137
127	0xbd739290	-0.059465945
128	0x3ea9ce18	0.3316505
129	0x3e56f602	0.20992282
130	0x3df650cc	0.120271295
131	0xbee194cd	-0.44058838
132	0xbebe32a2	-0.37148005
133	0xbf047011	-0.517335
134	0xbe9aa9c4	-0.30207646
135	0xbed20439	-0.41018847
136	0x3e788f3c	0.2427339
137	0x3df5fe79	0.120114274
138	0xbe6d5b33	-0.23179321
139	0x3e881447	0.2657797
140	0xbe911164	-0.2833358
141	0xbe648fee	-0.2232053
142	0x3eba211a	0.3635338
143	0xbec5608c	-0.38550222
144	0x3f0b5a8c	0.5443504
145	0xbf07f4aa	-0.531077
146	0xbdbf3f63	-0.09338262
147	0x3efb3b2a	0.49068576
148	0xbe2c36db	-0.168178
149	0xbd31136e	-0.04323142
150	0xbebb65b6	-0.36601037
151	0x3e499bda	0.19688359
152	0xbda1e47b	-0.07904907
153	0xbe4d68af	-0.20059465
154	0xbeb9f4f8	-0.3631971
155	0xbf6ad1b8	-0.91726255
156	0x3ea344e2	0.3188849
157	0x3de1caa6	0.1102498
158	0x3e5641c4	0.20923525
159	0x3ecee10f	0.4040608
160	0xbebebcd5	-0.37253442
161	0xbe527eb2	-0.20556143
162	0x3e2c6b7d	0.16837879
163	0xbe8520bb	-0.26001534
164	0x3d72a55b	0.059239727
165	0xbba5a0f6	-0.0050545884
166	0x3ee47a61	0.44624618
167	0x3efe2ab0	0.49641943
168	0x3e828ae7	0.254966
169	0xbf2cd13a	-0.67506754
170	0x3db5701b	0.08859273
171	0xbe8a9a72	-0.27070957
172	0x3f28c3d4	0.6592381
173	0x3ec934fc	0.39298236
174	0xbe03239b	-0.12806551
175	0xbdb38cae	-0.08767067
176	0x3cfa3fe8	0.030548051
177	0x3e09366b	0.13399665
178	0x3e9359a9	0.28779343
179	0x3dfe9f35	0.1243271
180	0x3e33d3db	0.17561285
181	0x3e2e5880	0.17025948
182	0x3e33cb75	0.17558081
183	0xbeb81b74	-0.35958445
184	0x3eb5deda	0.35521585
185	0x3df34df4	0.11880103
186	0x3c07531a	0.008259559
187	0xbef2c88b	-0.47418627
188	0xbdb6dc47	-0.08928733
189	0xbe38eabb	-0.18058293
190	0xbebee6e3	-0.37285528
191	0x3f23e8cc	0.64027095
192	0x3f0c1a73	0.5472786
193	0xbd8ed380	-0.06973934
194	0x3dd2adb3	0.10287037
195	0x3ee1860e	0.44047588
196	0xbe810a69	-0.25203255
197	0xbdd144a0	-0.10218167
198	0xbe48158b	-0.19539468
199	0x3dd5f102	0.10446359
200	0x3eccf8d2	0.40033585
201	0x3e84b6a4	0.25920594
202	0x3b8b0b79	0.004243311
203	0x3f3b2dc1	0.7311669
204	0x3eb6b3c5	0.35684028
205	0x3e670af3	0.2256277
206	0xbe2f5f62	-0.1712623
207	0x3e242726	0.16030559
208	0x3e2c2522	0.1681104
209	0xbdcaa7d2	-0.098952904
210	0xbdb1ee75	-0.0868806
211	0xbf3bafd3	-0.7331516
212	0x3f261f07	0.64891094
213	0xbe4c9402	-0.19978335
214	0xbe407d8e	-0.18797895
215	0xbecd926c	-0.40150774
216	0x3e4703d4	0.19435054
217	0xbe465b3b	-0.19370739
218	0x3e5eb175	0.21747382
219	0xbf20b0dc	-0.62769866
220	0x3e8e397e	0.27778238
221	0x3da9283d	0.08259628
222	0xbe2fc4b9	-0.17164887
223	0x3f2ab8b7	0.666881
224	0x3d6a004b	0.057129186
225	0x3ce49c18	0.027906463
226	0xbda0d6f4	-0.07853499
227	0x3d2a0559	0.041509006
228	0x3ec71448	0.3888266
229	0xbefb26f5	-0.4905316
230	0x3dd57a78	0.1042375
231	0x3e4f32b3	0.20234184
232	0xbd5ba417	-0.053623285
233	0x3edcfe47	0.43162748
234	0xbdeb1f90	-0.114806294
235	0xbfa07dc6	-1.2538383
236	0xbe989171	-0.29798463
237	0x3e8947f5	0.2681271
238	0xbe4bcf0c	-0.19903201
239	0x3cdbe665	0.02684326
240	0x3e65f6f1	0.22457482
241	0xbe5d5b96	-0.21616969
242	0xbf8d63f5	-1.104613
243	0xbdecf3fc	-0.11569974
244	0xbeafb92c	-0.34320962
245	0xbf060367	-0.5234894
246	0x3e695760	0.22787237
247	0xbdfbd625	-0.12296704
248	0xbf1c7a20	-0.6112385
249	0xbf619707	-0.88121074
250	0x3e152a0b	0.1456682
251	0xbeebe7f3	-0.460754
252	0xbebc0269	-0.3672059
253	0x3ed786f4	0.4209515
254	0x3dd69812	0.10478224
255	0x3cc38a63	0.023869699

network_body._body_endoder.seq_layers.0.bias f4 [128]
0	0x00000000	0.0
1	0x00000000	0.0
2	0x00000000	0.0
3	0x00000000	0.0
4	0x00000000	0.0
5	0x00000000	0.0
6	0x00000000	0.0
7	0x00000000	0.0
8	0x00000000	0.0
9	0x00000000	0.0
10	0x00000000	0.0
11	0x00000000	0.0
12	0x00000000	0.0
13	0x00000000	0.0
14	0x00000000	0.0
15	0x00000000	0.0
16	0x00000000	0.0
17	0x00000000	0.0
18	0x00000000	0.0
19	0x00000000	0.0
20	0x00000000	0.0
21	0x00000000	0.0
22	0x00000000	0.0
23	0x00000000	0.0
24	0x00000000	0.0
25	0x00000000	0.0
26	0x00000000	0.0
27	0x00000000	0.0
28	0x00000000	0.0
29	0x00000000	0.0
30	0x00000000	0.0
31	0x00000000	0.0
32	0x00000000	0.0
33	0x00000000	0.0
34	0x00000000	0.0
35	0x00000000	0.0
36	0x00000000	0.0
37	0x00000000	0.0
38	0x00000000	0.0
39	0x00000000	0.0
40	0x00000000	0.0
41	0x00000000	0.0
42	0x00000000	0.0
43	0x00000000	0.0
44	0x00000000	0.0
45	0x00000000	0.0
46	0x00000000	0.0
47	0x00000000	0.0
48	0x00000000	0.0
49	0x00000000	0.0
50	0x00000000	0.0
51	0x00000000	0.0
52	0x00000000	0.0
53	0x00000000	0.0
54	0x00000000	0.0
55	0x00000000	0.0
56	0x00000000	0.0
57	0x00000000	0.0
58	0x00000000	0.0
59	0x00000000	0.0
60	0x00000000	0.0
61	0x00000000	0.0
62	0x00000000	0.0
63	0x00000000	0.0
64	0x00000000	0.0
65	0x00000000	0.0
66	0x00000000	0.0
67	0x00000000	0.0
68	0x00000000	0.0
69	0x00000000	0.0
70	0x00000000	0.0
71	0x00000000	0.0
72	0x00000000	0.0
73	0x00000000	0.0
74	0x00000000	0.0
75	0x00000000	0.0
76	0x00000000	0.0
77	0x00000000	0.0
78	0x00000000	0.0
79	0x00000000	0.0
80	0x00000000	0.0
81	0x00000000	0.0
82	0x00000000	0.0
83	0x00000000	0.0
84	0x00000000	0.0
85	0x00000000	0.0
86	0x00000000	0.0
87	0x00000000	0.0
88	0x00000000	0.0
89	0x00000000	0.0
90	0x00000000	0.0
91	0x00000000	0.0
92	0x00000000	0.0
93	0x00000000	0.0
94	0x00000000	0.0
95	0x00000000	0.0
96	0x00000000	0.0
97	0x00000000	0.0
98	0x00000000	0.0
99	0x00000000	0.0
100	0x00000000	0.0
101	0x00000000	0.0
102	0x00000000	0.0
103	0x00000000	0.0
104	0x00000000	0.0
105	0x00000000	0.0
106	0x00000000	0.0
107	0x00000000	0.0
108	0x00000000	0.0
109	0x00000000	0.0
110	0x00000000	0.0
111	0x00000000	0.0
112	0x00000000	0.0
113	0x00000000	0.0
114	0x00000000	0.0
115	0x00000000	0.0
116	0x00000000	0.0
117	0x00000000	0.0
118	0x00000000	0.0
119	0x00000000	0.0
120	0x00000000	0.0
121	0x00000000	0.0
122	0x00000000	0.0
123	0x00000000	0.0
124	0x00000000	0.0
125	0x00000000	0.0
126	0x00000000	0.0
127	0x00000000	0.0

network_body._body_endoder.seq_layers.2.weight f4 [128, 128]
0	0x3cd3b1e2	0.025841657
1	0xbd386c28	-0.04502502
2	0xbd34c9ca	-0.044137754
3	0x3db6cfc3	0.08926346
4	0x3e04fbcb	0.12986676
5	0xbd95450b	-0.072885595
6	0xbdd0c565	-0.101939
7	0xbe30350c	-0.17207736
8	0xbbc030ff	-0.005865216
9	0x3cd167ba	0.025562156
10	0xbe1cfd7d	-0.15331073
11	0xbd9d8dea	-0.076930836
12	0xbc73fd5d	-0.0148919495
13	0x3d33a8a0	0.043861985
14	0x3c386648	0.0112548545
15	0xbcba1de3	-0.02271933
16	0x3d33e179	0.0439162
17	0xbdd66b58	-0.10469693
18	0xbd31db62	-0.04342211
19	0xbe03670f	-0.12832282
20	0x3cba4724	0.022739
21	0xbd29d87c	-0.04146622
22	0x3ce467a6	0.027881455
23	0xbd82c276	-0.06384747
24	0xbd60c3cf	-0.054874238
25	0xbb5bb8bc	-0.0033526858
26	0x3ac9541f	0.0015360153
27	0x3d8f2b2a	0.06990655
28	0xbc4c4d98	-0.012469672
29	0x3cca588e	0.02470043
30	0x3d61d034	0.0551302
31	0x3c336f2c	0.010951798
32	0x3ded386e	0.11583029
33	0x3de53116	0.11191003
34	0xbdb49c3c	-0.08818862
35	0x3da6faea	0.08153327
36	0xbddecf71	-0.1087941
37	0x3cc1e11e	0.023666915
38	0x3d509981	0.050927643
39	0xbdc61213	-0.09671416
40	0x3d6436b8	0.055716246
41	0xbda2341e	-0.07920097
42	0xbde2ce28	-0.110744774
43	0x3c9c9231	0.019112678
44	0x3c051a4b	0.0081239445
45	0x3db5f5aa	0.08884747
46	0xbd98ee68	-0.074673474
47	0xbddeab20	-0.10872483
48	0xbe0e13bd	-0.13874717
49	0xbdba69d7	-0.091022186
50	0x3dcaf559	0.099100776
51	0x3dac5240	0.084141254
52	0x3dde92f1	0.108678706
53	0x3cae91b0	0.021309704
54	0x3d5a947f	0.053364273
55	0xbda4e69f	-0.080518
56	0xbd4b09ea	-0.04957
57	0xbce8c745	-0.028415332
58	0x3e04fbee	0.12986729
59	0xbdd4a2bb	-0.10382601
60	0xbdca1d84	-0.09868911
61	0x3d5e8221	0.05432332
62	0x3c7b68a3	0.015344772
63	0x3d085601	0.033285145
64	0x3e2a4ab9	0.16630067
65	0x3dd6d23c	0.10489318
66	0x3d838d89	0.0642348
67	0x3d541ad8	0.051783413
68	0xbe165644	-0.14681345
69	0xbdea278a	-0.11433323
70	0x3e6496e8	0.22323191
71	0xbd081730	-0.03322524
72	0xbd8412cd	-0.064488985
73	0xbd4e6924	-0.05039324
74	0x3dc13bf9	0.09435267
75	0xbdb4bdf8	-0.08825296
76	0xbcebb6c9	-0.028773682
77	0xba3f08dc	-0.0007287392
78	0x3d6b923e	0.057512514
79	0xbe2230d0	-0.15838933
80	0x3d460708	0.04834655
81	0xbd73f510	-0.05955988
82	0xbd134758	-0.03595671
83	0x3e28b8bd	0.16476722
84	0x3cc153ec	0.023599587
85	0xbe606d31	-0.21916653
86	0x3dbaec95	0.09127156
87	0x3d4c56ce	0.04988747
88	0x3be79499	0.007067275
89	0xbd1404ef	-0.036137518
90	0x3deea5ad	0.11652694
91	0xbd34c70d	-0.044135142
92	0xbcbc4856	-0.022983711
93	0x3da15a32	0.078785315
94	0x3dc218d6	0.09477393
95	0x3d6af0bd	0.057358492
96	0x3ca788fe	0.020451065
97	0x3ca30aa5	0.019902537
98	0xbdbedbcd	-0.093192674
99	0xbd9b7bb0	-0.07591951
100	0xbd71de3f	-0.05904984
101	0x3c7b3924	0.015333448
102	0xbcc90e87	-0.02454306
103	0x3da24414	0.07923141
104	0xbe1876e1	-0.14889099
105	0xbe07ba9c	-0.1325478
106	0x3d2016f6	0.039084397
107	0x3d97a7aa	0.07405026
108	0x3d243a23	0.040094506
109	0x3ce67939	0.028133975
110	0x3e5ade92	0.21373966
111	0x3d2ec116	0.04266461
112	0x3c8193b6	0.015817504
113	0x3e36c459	0.17848338
114	0x3d5a7bff	0.05334091
115	0xbd51d2bc	-0.051226363
116	0x3d0071fd	0.031358708
117	0x3d897993	0.067126416
118	0x3d2a3663	0.041555773
119	0x3c8d1686	0.017222654
120	0xbd0a983e	-0.033836596
121	0x3b4edefe	0.003156602
122	0x3db946c7	0.09046703
123	0xbab27247	-0.001361438
124	0xbd1f7e11	-0.038938586
125	0x3c96093f	0.018314956
126	0xbe376f49	-0.17913546
127	0xbda20b4c	-0.07912311
128	0x3d721aea	0.0591077
129	0x3d0982e0	0.033572078
130	0x3ca53564	0.02016706
131	0xbd4baf94	-0.04972799
132	0x3c505951	0.012716607
133	0x3b8acc67	0.0042357924
134	0xbd9ec3e8	-0.0775221
135	0xbdf32b95	-0.11873547
136	0xbe0c25fb	-0.13686363
137	0xbd9183aa	-0.07105191
138	0x3e1c7d01	0.1528206
139	0xbd2f783d	-0.042839278
140	0x3d6dd4c0	0.058064222
141	0x3d8edde4	0.06975916
142	0x3e14a6ee	0.14516804
143	0x3d21eab1	0.03953046
144	0xbd87dbdf	-0.06633734
145	0x3df24602	0.11829759
146	0x3db2df78	0.087340295
147	0x3dd3259e	0.10309909
148	0xbc79b3cb	-0.01524062
149	0x3d0c855e	0.034306876
150	0x3e519199	0.20465697
151	0xbccaeb3b	-0.02477037
152	0xbe294312	-0.16529492
153	0x3d03d4d9	0.03218541
154	0xbdddec43	-0.10836079
155	0xbda559da	-0.080737785
156	0x3de63768	0.11241037
157	0xbd91726c	-0.07101902
158	0xbe416899	-0.18887557
159	0xbce389ff	-0.027775763
160	0x3dc644a7	0.09681063
161	0x3cd241b5	0.025666097
162	0xbd4c67b2	-0.04990358
163	0x3cf9bdff	0.030486105
164	0x3a9bc238	0.0011883443
165	0x3c51825d	0.012787429
166	0x38aecdd9	8.335309e-05
167	0xbd49dcc3	-0.0492828
168	0xbe3518f1	-0.17685296
169	0x3d69b30a	0.05705551
170	0x3d165b9f	0.03670847
171	0xbae37b76	-0.001735552
172	0x3d64c70c	0.05585389
173	0xbd038b8e	-0.03211551
174	0xbe016d0c	-0.12639254
175	0xbd68858d	-0.05676799
176	0xbdbec842	-0.0931554
177	0xbe3128fb	-0.17300789
178	0xbd138f62	-0.036025412
179	0xbc7e2735	-0.015512277
180	0x3a028bc1	0.00049799314
181	0xbdaa6e28	-0.08321792
182	0x3d0f7dec	0.035032198
183	0x3d962e36	0.07333033
184	0xbc901fc4	-0.017593272
185	0x3c55149d	0.013005403
186	0xbdf16d94	-0.117884785
187	0xbcb7bc0c	-0.022428535
188	0xbd9fcb0b	-0.07802399
189	0x3d0a8ff0	0.033828676
190	0x3d8e5939	0.069506116
191	0x3e1cb6ff	0.15304182
192	0xbd2653a9	-0.04060713
193	0xbd786bf5	-0.06064983
194	0xbc9aa335	-0.018876651
195	0xbd3eb5d0	-0.04656011
196	0x3e147417	0.1449741
197	0x3dff9fba	0.12481637
198	0x3cc81c43	0.024427539
199	0x3b3785e3	0.0028003387
200	0xbe5023b4	-0.2032612
201	0xbd861bb2	-0.06548251
202	0xbbd59527	-0.0065180245
203	0x3d9d9e6f	0.076962344
204	0x3d944b91	0.07240976
205	0xbd9a1337	-0.07523196
206	0xbe393293	-0.18085699
207	0xbd72b725	-0.05925669
208	0xbdd85b14	-0.10564247
209	0xbdd0af2a	-0.1018966
210	0xbd7bf52d	-0.061513115
211	0xbcb0dcd5	-0.021589676
212	0x3cc047b5	0.023471693
213	0xbd8cc4a1	-0.068734415
214	0xbdb1b80f	-0.086776845
215	0x3d7b9ce3	0.061428916
216	0x3e209cf9	0.1568488
217	0x3d09d42a	0.0336496
218	0xbc0a78d8	-0.008451663
219	0x3d238ed4	0.039931133
220	0x3e284963	0.16434245
221	0x3dcf5d2b	0.10125192
222	0xbcca2617	-0.024676366
223	0x3d90fb9b	0.0707924
224	0xbd8d42a8	-0.06897479
225	0xbe04803b	-0.12939541
226	0xbc5bea2e	-0.013422532
227	0x3dccb7fa	0.09996028
228	0xbcf28952	-0.029606495
229	0x3d95fb00	0.07323265
230	0xbdde0434	-0.108406454
231	0x3c9a02ab	0.0188001
232	0xbc108f6d	-0.008823258
233	0xbe20a999	-0.15689696
234	0x3d58e5da	0.05295358
235	0x3da0329b	0.07822152
236	0x3d2fd166	0.042924307
237	0xbd8b014b	-0.06787356
238	0x3b3e8f2a	0.0029077032
239	0x3d9e9b0a	0.07744415
240	0x3dcc1e08	0.099666655
241	0xbd47115b	-0.048600536
242	0x3dd05587	0.10172563
243	0x3cd1536c	0.025552474
244	0x3cbc42eb	0.022981128
245	0xbb9a405f	-0.0047073807
246	0xbc84a9f6	-0.016194325
247	0xb92d056d	-0.00016500587
248	0x3d65f5fc	0.056142792
249	0x3db7da8d	0.08977232
250	0xbdc59bb0	-0.09648836
251	0x3da6b983	0.08140852
252	0xbd9fcd46	-0.07802825
253	0x3dcbddb6	0.099543974
254	0x3da62e2d	0.08114276
255	0xbda7dbbd	-0.081962086

network_body._body_endoder.seq_layers.2.bias f4 [128]
0	0x00000000	0.0
1	0x00000000	0.0
2	0x00000000	0.0
3	0x00000000	0.0
4	0x00000000	0.0
5	0x00000000	0.0
6	0x00000000	0.0
7	0x00000000	0.0
8	0x00000000	0.0
9	0x00000000	0.0
10	0x00000000	0.0
11	0x00000000	0.0
12	0x00000000	0.0
13	0x00000000	0.0
14	0x00000000	0.0
15	0x00000000	0.0
16	0x00000000	0.0
17	0x00000000	0.0
18	0x00000000	0.0
19	0x00000000	0.0
20	0x00000000	0.0
21	0x00000000	0.0
22	0x00000000	0.0
23	0x00000000	0.0
24	0x00000000	0.0
25	0x00000000	0.0
26	0x00000000	0.0
27	0x00000000	0.0
28	0x00000000	0.0
29	0x00000000	0.0
30	0x00000000	0.0
31	0x00000000	0.0
32	0x00000000	0.0
33	0x00000000	0.0
34	0x00000000	0.0
35	0x00000000	0.0
36	0x00000000	0.0
37	0x00000000	0.0
38	0x00000000	0.0
39	0x00000000	0.0
40	0x00000000	0.0
41	0x00000000	0.0
42	0x00000000	0.0
43	0x00000000	0.0
44	0x00000000	0.0
45	0x00000000	0.0
46	0x00000000	0.0
47	0x00000000	0.0
48	0x00000000	0.0
49	0x00000000	0.0
50	0x00000000	0.0
51	0x00000000	0.0
52	0x00000000	0.0
53	0x00000000	0.0
54	0x00000000	0.0
55	0x00000000	0.0
56	0x00000000	0.0
57	0x00000000	0.0
58	0x00000000	0.0
59	0x00000000	0.0
60	0x00000000	0.0
61	0x00000000	0.0
62	0x00000000	0.0
63	0x00000000	0.0
64	0x00000000	0.0
65	0x00000000	0.0
66	0x00000000	0.0
67	0x00000000	0.0
68	0x00000000	0.0
69	0x00000000	0.0
70	0x00000000	0.0
71	0x00000000	0.0
72	0x00000000	0.0
73	0x00000000	0.0
74	0x00000000	0.0
75	0x00000000	0.0
76	0x00000000	0.0
77	0x00000000	0.0
78	0x00000000	0.0
79	0x00000000	0.0
80	0x00000000	0.0
81	0x00000000	0.0
82	0x00000000	0.0
83	0x00000000	0.0
84	0x00000000	0.0
85	0x00000000	0.0
86	0x00000000	0.0
87	0x00000000	0.0
88	0x00000000	0.0
89	0x00000000	0.0
90	0x00000000	0.0
91	0x00000000	0.0
92	0x00000000	0.0
93	0x00000000	0.0
94	0x00000000	0.0
95	0x00000000	0.0
96	0x00000000	0.0
97	0x00000000	0.0
98	0x00000000	0.0
99	0x00000000	0.0
100	0x00000000	0.0
101	0x00000000	0.0
102	0x00000000	0.0
103	0x00000000	0.0
104	0x00000000	0.0
105	0x00000000	0.0
106	0x00000000	0.0
107	0x00000000	0.0
108	0x00000000	0.0
109	0x00000000	0.0
110	0x00000000	0.0
111	0x00000000	0.0
112	0x00000000	0.0
113	0x00000000	0.0
114	0x00000000	0.0
115	0x00000000	0.0
116	0x00000000	0.0
117	0x00000000	0.0
118	0x00000000	0.0
119	0x00000000	0.0
120	0x00000000	0.0
121	0x00000000	0.0
122	0x00000000	0.0
123	0x00000000	0.0
124	0x00000000	0.0
125	0x00000000	0.0
126	0x00000000	0.0
127	0x00000000	0.0

action_model._continuous_distribution.log_sigma f4 [1, 3]
0	0x00000000	0.0
1	0x00000000	0.0
2	0x00000000	0.0

action_model._continuous_distribution.mu.weight f4 [3, 128]
0	0x3c1b6e1b	0.0094867
1	0x3b94e02d	0.0045433254
2	0x3cdc4035	0.026886085
3	0xbc5687da	-0.013093913
4	0xbcc066e8	-0.02348657
5	0x3a934b0c	0.0011237576
6	0x3d005a24	0.031335965
7	0xbccf8588	-0.025332227
8	0xbc3dd003	-0.011585238
9	0xbc17382b	-0.0092297
10	0xbc19e8a7	-0.009393848
11	0x3c360657	0.01110991
12	0x3cced923	0.025250023
13	0xbc373702	-0.0111825485
14	0xbc93ca92	-0.018040929
15	0x3bda9470	0.006670527
16	0xbb2032dc	-0.0024444377
17	0x3c6ce233	0.014458227
18	0x3c801f6b	0.015639981
19	0xbc9a7922	-0.018856589
20	0x3c0df6a1	0.008664758
21	0x3d0e024b	0.034670155
22	0xbd5fde95	-0.05465563
23	0x3c4123ab	0.011788289
24	0x3adc0b45	0.0016788027
25	0x3c1c19e7	0.00952766
26	0x3cfce7b3	0.030872202
27	0x3b6c0f92	0.0036020023
28	0x3cf8c2ad	0.030366266
29	0xbc7a3e2b	-0.015273611
30	0xbbe65db5	-0.0070302137
31	0x3c4c25ab	0.012460153
32	0xbc15ed3d	-0.0091508
33	0xbb417ae6	-0.0029522716
34	0xbd28515a	-0.041093208
35	0xbbf0969d	-0.0073421733
36	0x3ba5578c	0.005045837
37	0xbbad687b	-0.005291996
38	0xba1fd21f	-0.0006096679
39	0x3cae6ce6	0.021292161
40	0xbd1aef2b	-0.037825745
41	0x3c8b6b4a	0.017018933
42	0x3cb52072	0.022110198
43	0x3d1eb8c8	0.03875044
44	0xbcd0b7b2	-0.025478218
45	0x3bc2a872	0.0059404904
46	0x3aac6f67	0.0013155759
47	0x3bd49820	0.0064878613
48	0xbb521b9a	-0.003205991
49	0x3b080b5d	0.0020758726
50	0x3c1281c7	0.008942074
51	0xbc5d309d	-0.01350036
52	0x3cb0d2a0	0.021584809
53	0x3cad6133	0.021164512
54	0x3c3083ba	0.010773594
55	0x3c8a2e47	0.01686777
56	0x3bf64fd0	0.0075168386
57	0xbcbe80f0	-0.023254842
58	0x3b5b5f38	0.0033473503
59	0x3cb07fe6	0.021545362
60	0x3b3d6f9a	0.002890563
61	0xba777452	-0.00094396353
62	0xbc9b3931	-0.01894817
63	0xbbc99083	-0.0061512603
64	0x3ca50c8b	0.020147583
65	0xbbca9793	-0.00618262
66	0x3b4dfb8b	0.003143045
67	0x3c6f7540	0.014615357
68	0xbcb99fec	-0.022659265
69	0xbc377b60	-0.0111988485
70	0x3baadff7	0.005214687
71	0xbbae73df	-0.0053238715
72	0xbce6965d	-0.02814787
73	0x3c9e8170	0.01934883
74	0x3c0718f7	0.008245698
75	0x3bd17e82	0.0063932547
76	0x3d241b3c	0.040065035
77	0x3a9fe497	0.0012198862
78	0xbbf40de2	-0.007447944
79	0xbc42d6ef	-0.0118920645
80	0xbbac0ae9	-0.005250324
81	0xba829624	-0.0009962958
82	0xbc6a94a8	-0.014317669
83	0x3ca194c7	0.019724263
84	0x3cd63302	0.02614737
85	0xbc50e6ef	-0.012750371
86	0xbb87da6c	-0.004145911
87	0xbc9239a5	-0.017849753
88	0xbc988747	-0.018619193
89	0xbc28ce2b	-0.0103030605
90	0x3b028c1e	0.0019919942
91	0x3ca04eda	0.01956885
92	0xbc325b7d	-0.01088607
93	0xbc97e74c	-0.018542908
94	0xbc262cd8	-0.0101425275
95	0x3c96f5fc	0.018427841
96	0xbb87d14a	-0.0041448222
97	0xbc8c59a7	-0.017132593
98	0xbd296860	-0.041359305
99	0xbb80ca63	-0.0039303764
100	0xbcff6155	-0.031174341
101	0x3c260a57	0.010134301
102	0xbbc70cb6	-0.0060745133
103	0x3c84e1c2	0.016220931
104	0xbd232bbb	-0.039836626
105	0xbbe39e00	-0.0069463253
106	0xbcd50c8a	-0.026006956
107	0x3cfd9347	0.030954016
108	0xbbcc1b30	-0.006228827
109	0xbc8b4947	-0.017002715
110	0x3c4752ee	0.012165768
111	0xbc500607	-0.0126967495
112	0xbcfb68e7	-0.03068967
113	0x3b64f68b	0.003493699
114	0x3bcee94d	0.0063144327
115	0x3b4a23b3	0.0030844032
116	0xbce8606f	-0.028366296
117	0xbcf89ae2	-0.030347291
118	0xbc2b31e8	-0.01044891
119	0xbc6abbd3	-0.014327007
120	0xbc14b993	-0.0090774475
121	0xbb363805	-0.0027804386
122	0xbc350b07	-0.011049992
123	0xbc185005	-0.009296422
124	0xbca945aa	-0.020663101
125	0xbbee6730	-0.0072754845
126	0xbc92d102	-0.017921928
127	0x3d010773	0.031501245
128	0xbb981dba	-0.0046422156
129	0xbbacfc59	-0.0052791056
130	0x3cb11003	0.02161408
131	0xbc4eea58	-0.012629114
132	0x3bed013b	0.0072328127
133	0x3c3024e3	0.010750982
134	0xb8923c5b	-6.9730646e-05
135	0x3c3eb703	0.011640313
136	0x3a28cf3f	0.00064395735
137	0x3c810c29	0.015752869
138	0x3c1c4e1d	0.009540108
139	0xbc4ace51	-0.012378291
140	0xb96e0df0	-0.00022702641
141	0xbce4cd6d	-0.027929986
142	0x3c9b156b	0.018931111
143	0x3b3a89d5	0.0028463502
144	0xbb37ed13	-0.0028064891
145	0x3a3e8d40	0.00072689727
146	0x3c1c311b	0.009533192
147	0xbbc53cf2	-0.006019228
148	0xbaa4505b	-0.0012536155
149	0xbc8e1305	-0.017343054
150	0xba75a47d	-0.0009370519
151	0x3ba8c210	0.005150087
152	0xbb44daee	-0.0030037719
153	0xbc8e0efa	-0.017341126
154	0xbc4d5b2f	-0.012533947
155	0x3c858400	0.016298294
156	0x3c20b90d	0.009809745
157	0x3b2bec39	0.002623333
158	0xbc444ddf	-0.011981457
159	0xbd1f53a4	-0.038898125
160	0x3d140f29	0.03614727
161	0xbb6e5497	-0.0036366337
162	0x3c229878	0.009924047
163	0x3c8d144f	0.017221598
164	0x3c86351f	0.016382752
165	0x3a9664f7	0.0011474182
166	0xbb8e4833	-0.004342103
167	0xba4cdf9b	-0.0007815302
168	0xbc70ff6a	-0.014709333
169	0x3b60eb63	0.003431999
170	0xbca98193	-0.020691669
171	0x3ccd800f	0.025085477
172	0xbcc6442b	-0.024202427
173	0x3c195c27	0.00936035
174	0xb9f6054a	-0.00046924717
175	0xbc98ed61	-0.018667879
176	0xbc99337d	-0.01870131
177	0xbb27131d	-0.002549357
178	0x3ce3ca72	0.027806494
179	0x3c0c74c1	0.008572758
180	0xbd034fd0	-0.032058537
181	0xbc2f4513	-0.010697621
182	0xbbaa746b	-0.0052018664
183	0xbc06f615	-0.0082373815
184	0x3c6875ea	0.014188269
185	0xbc88c46a	-0.01669522
186	0x3c856b77	0.016286595
187	0x3c08957f	0.008336424
188	0x3bc72043	0.006076844
189	0xbd2b853e	-0.041875117
190	0x3cc3c209	0.023896234
191	0xbb833d4f	-0.0040051113
192	0xbc44c774	-0.012010444
193	0x3cac6524	0.021044321
194	0x3c0e319d	0.008678821
195	0x3d0ab95f	0.03386819
196	0xbb6905e8	-0.00355565
197	0x3c6c3135	0.014416029
198	0xbbc51e8a	-0.0060156034
199	0x3cfc0132	0.030762289
200	0xbbd52c9f	-0.0065055634
201	0x3cd14fdd	0.025550777
202	0xbd48f6d6	-0.049063526
203	0x3c4ef9f2	0.012632834
204	0xbc848fd3	-0.016181862
205	0xbcc8aab6	-0.024495464
206	0x3b899875	0.0041990825
207	0x3b6dee25	0.0036305275
208	0x3b90df47	0.004421148
209	0x3c88a926	0.016682219
210	0xbc20a41e	-0.009804754
211	0xbc8994de	-0.016794618
212	0xbb007d6b	-0.0019606005
213	0xbd1e5ff3	-0.038665723
214	0xbc4d6193	-0.012535471
215	0xbcc2dce0	-0.023786962
216	0x3c926e83	0.017874962
217	0x3c8eda92	0.017438207
218	0xbc4c07d1	-0.012453035
219	0xbd0b68ab	-0.034035366
220	0x3ca46603	0.020068174
221	0x3c304cc6	0.010760492
222	0x3b96ba7b	0.004599867
223	0xbc775905	-0.0150969075
224	0xbc4c3e9a	-0.012466097
225	0x3d3a480e	0.045478873
226	0xbc16a87c	-0.009195443
227	0x3d59b753	0.053153347
228	0xbcec61a3	-0.02885515
229	0xba895ef1	-0.0010480565
230	0x3ba8d55e	0.0051523885
231	0xbc95de87	-0.018294586
232	0x3ccc083e	0.024906274
233	0xbbd6eacf	-0.006558753
234	0xbcddd095	-0.027076999
235	0x3cd819cd	0.02637949
236	0x3ca6ecba	0.020376552
237	0xbc634c5f	-0.013873189
238	0xbc9ef5ef	-0.01940438
239	0x3a73ffb7	0.0009307819
240	0x3d427081	0.047470573
241	0x3b993866	0.0046759127
242	0xbb5f6e9b	-0.0034093026
243	0xbc5ba1e7	-0.0134053
244	0x3c9c5bea	0.019086797
245	0xbc8684b7	-0.016420705
246	0xbc5b206a	-0.013374427
247	0xbbcffd0f	-0.0063473056
248	0xbd52a117	-0.05142316
249	0x3c1027ac	0.008798521
250	0x3c79e45a	0.015252197
251	0x3bc1b065	0.0059109204
252	0xbbb3db5f	-0.0054887976
253	0xbca7396d	-0.020413125
254	0xba9143b8	-0.0011082804
255	0x3a1604e4	0.00057227747

action_model._continuous_distribution.mu.bias f4 [3]
0	0x00000000	0.0
1	0x00000000	0.0
2	0x00000000	0.0

network_body.observation_encoder.processors.0.normalizer.running_mean f4 [7]
0	0x00000000	0.0
1	0x00000000	0.0
2	0x00000000	0.0
3	0x00000000	0.0
4	0x00000000	0.0
5	0x00000000	0.0
6	0x00000000	0.0

network_body.observation_encoder.processors.0.normalizer.running_variance f4 [7]
0	0x3f800000	1.0
1	0x3f800000	1.0
2	0x3f800000	1.0
3	0x3f800000	1.0
4	0x3f800000	1.0
5	0x3f800000	1.0
6	0x3f800000	1.0

network_body.processors.0.normalizer.running_mean f4 [7]
0	0x00000000	0.0
1	0x00000000	0.0
2	0x00000000	0.0
3	0x00000000	0.0
4	0x00000000	0.0
5	0x00000000	0.0
6	0x00000000	0.0

network_body.processors.0.normalizer.running_variance f4 [7]
0	0x3f800000	1.0
1	0x3f800000	1.0
2	0x3f800000	1.0
3	0x3f800000	1.0
4	0x3f800000	1.0
5	0x3f800000	1.0
6	0x3f800000	1.0

network_body._body_endoder.seq_layers.0.weight f4 [128, 7]
0	0xbea9b7a0	-0.33147907
1	0xb97fb69a	-0.0002438672
2	0xbf26667d	-0.65000135
3	0x3f4ad172	0.7922584
4	0xbefbcfc8	-0.49181962
5	0x3dfb8455	0.122811
6	0xbecc6cd6	-0.39926785
7	0xbeb44110	-0.3520589
8	0x3e5dc6da	0.21657887
9	0x3e4d67dc	0.2005915
10	0x3df70690	0.120617986
11	0xbdf6a24c	-0.120426744
12	0xbd39f1e7	-0.04539671
13	0xbee1b5cc	-0.44084013
14	0x3dee7b4a	0.11644609
15	0x3d08b6d8	0.0333775
16	0xbe38ab66	-0.18034133
17	0xbd6f6b2f	-0.058451828
18	0xbf1df389	-0.6169973
19	0x3ec9f079	0.3944128
20	0xbdf0295f	-0.11726641
21	0xbe19b0f4	-0.15008909
22	0x3e9178fb	0.28412613
23	0xbe0663f7	-0.13124071
24	0x3e63d4c6	0.22249135
25	0x3ed398c2	0.41327482
26	0xbf50a5d4	-0.81503034
27	0x3f2f6eb6	0.68528306
28	0x3e9dc7cd	0.30816498
29	0xbe00a1e3	-0.12561755
30	0xbe429b79	-0.1900462
31	0xbe8a2380	-0.2698021
32	0xbb5b8703	-0.0033497221
33	0xbf177f12	-0.5917827
34	0x3f63c546	0.8897289
35	0xbe22b980	-0.15891075
36	0xbebe1fa7	-0.37133524
37	0x3e9d3f07	0.3071215
38	0xbf2c7f96	-0.6738218
39	0x3e51a207	0.20471965
40	0xbe3be07c	-0.18347353
41	0xbec3f251	-0.3827081
42	0x3de2c249	0.11072213
43	0x3f1439b5	0.57900554
44	0x3f3944f6	0.7237085
45	0x3e517d9d	0.20458074
46	0x3e39cc25	0.18144281
47	0x3c153769	0.009107449
48	0x3e687083	0.2269917
49	0x3e3fe9e8	0.18741572
50	0xbd444633	-0.04791851
51	0xbe61b23e	-0.2204065
52	0xbfa61e13	-1.2977928
53	0xbec6f82e	-0.3886122
54	0xbc9e37ac	-0.019313656
55	0xbe4d2342	-0.20032981
56	0x3ec5321f	0.38514802
57	0x3f0c0c5a	0.54706347
58	0xbe46e4f7	-0.1942328
59	0x3e431dbc	0.19054312
60	0xbf221529	-0.6331354
61	0x3e575c3b	0.21031277
62	0x3e8b0914	0.27155364
63	0x3f4586b7	0.77158684
64	0xbf04960b	-0.5179145
65	0x3ee7aaa1	0.45247367
66	0x3e8401f8	0.25782752
67	0x3ea306ec	0.31841218
68	0x3f1b274b	0.6060683
69	0x3e6e1dfb	0.23253624
70	0x3ec4a193	0.3840452
71	0xbe8be6b6	-0.27324456
72	0x3f2c9787	0.6741871
73	0xbefbdd45	-0.49192253
74	0x3e8218e7	0.25409624
75	0xbf5f050e	-0.8711709
76	0xbd83a9f2	-0.06428899
77	0x3e9f7875	0.3114659
78	0xbd165cd3	-0.036709618
79	0x3e97b4d2	0.29630142
80	0x3f16dec9	0.58933693
81	0x3d0226d0	0.031775296
82	0x3e628d0c	0.22124118
83	0xbeb3660e	-0.350388
84	0x3f6a58e9	0.91541916
85	0xbf232b01	-0.63737494
86	0x3e8751bc	0.26429546
87	0xbdadd795	-0.08488385
88	0x3e6fa9fb	0.23404686
89	0xbf086651	-0.5328112
90	0x3ef3e291	0.47633794
91	0xbe22a145	-0.15881832
92	0xbe5ab931	-0.21359707
93	0x3bbb2c1d	0.005712046
94	0x3eb996af	0.36247775
95	0xbf2faadb	-0.6862008
96	0x3ebea547	0.37235472
97	0xbe343db6	-0.17601666
98	0x3ed03533	0.40665588
99	0xbf13f736	-0.5779909
100	0x3e1f27fc	0.15542597
101	0xbeca7cfe	-0.39548486
102	0x3c72389a	0.014784003
103	0x3d01bef6	0.031676255
104	0x3e012454	0.12611514
105	0xbe3dfdf6	-0.1855391
106	0xbf31dc24	-0.6947653
107	0xbeb02d09	-0.3440936
108	0xbe810376	-0.25197953
109	0x3e96f641	0.29484752
110	0xbf4d8c3b	-0.802921
111	0xbf0aedfb	-0.5426938
112	0xbe861968	-0.26191258
113	0x3ec5d5d8	0.38639712
114	0xbe441962	-0.19150308
115	0x3ed225cd	0.41044465
116	0xbe03676b	-0.1283242
117	0xbe4dc1b8	-0.20093429
118	0xbf042c9d	-0.51630574
119	0xbee1eb73	-0.44124946
120	0xbe93552c	-0.28775918
121	0xbe968d1a	-0.29404527
122	0xbf60dcac	-0.8783672
123	0xbe7a3524	-0.24434334
124	0x3edba7b1	0.42901376
125	0xbe662a8c	-0.22477168
126	0xbeaef387	-0.34170172
127	0x3e7e8114	0.24853927
128	0x3ed25fb2	0.41088635
129	0xbecf55db	-0.4049519
130	0x3eaabb0e	0.33345836
131	0xbeb1ed1d	-0.34751216
132	0xbe03361e	-0.12813613
133	0xbe1f3dba	-0.1555089
134	0xbddf6fcc	-0.109099954
135	0xbefc6e07	-0.49302694
136	0xbedce1e9	-0.43141106
137	0x3e3b2132	0.18274382
138	0xbc6a6906	-0.014307266
139	0xbf0bf3db	-0.5466897
140	0x3eaae9ef	0.33381602
141	0x3e7c9d88	0.24669468
142	0x3e920283	0.2851754
143	0x3dc082ab	0.09399923
144	0xbe6bb9c5	-0.23020084
145	0xbece2823	-0.40264997
146	0xbdcd2738	-0.10017246
147	0xbf6b0df8	-0.9181819
148	0xbbb4719d	-0.005506708
149	0x3d82da54	0.06389299
150	0x3f0864ec	0.53278995
151	0x3dc34fdb	0.095367156
152	0x3d1a7f6f	0.037719186
153	0x3eab62b3	0.3347374
154	0x3d7e509f	0.062088605
155	0xbe46adef	-0.19402288
156	0x3d65b366	0.05607929
157	0x3f2091a1	0.6272221
158	0xbe6c0c60	-0.23051596
159	0xbd9d8d69	-0.076929875
160	0xbede242c	-0.43386972
161	0x3e92e1f2	0.28688008
162	0xbd22dcaa	-0.039761223
163	0x3e5604b7	0.20900236
164	0xbe873ffd	-0.26416007
165	0x3bfe9791	0.007769533
166	0x3e50855a	0.2036337
167	0x3f0e4bbe	0.55584323
168	0x3ebdb10d	0.37049142
169	0xbe8d473c	-0.2759341
170	0x3e41fbb3	0.18943672
171	0xbee229f5	-0.44172636
172	0x3e742d7e	0.23845479
173	0xbe692787	-0.22768985
174	0xbe8a3c00	-0.269989
175	0x3ec0f83d	0.3768939
176	0x3ebf37cf	0.37347266
177	0xbd11578c	-0.03548388
178	0x3f0a335f	0.53984636
179	0x3f199ed9	0.6000801
180	0xbd452672	-0.048132367
181	0x3ee50e1c	0.44737327
182	0x3e6c9de1	0.23107101
183	0x3e8a48f3	0.2700878
184	0x3eacd391	0.33755162
185	0x3ed7ab0f	0.42122695
186	0xbf4929bb	-0.785793
187	0x3f07b3b1	0.5300856
188	0xbddddd6b	-0.10833248
189	0x3e36ecd4	0.1786378
190	0x3eb688d7	0.35651276
191	0xbd9888e9	-0.074479885
192	0xbde302d6	-0.11084525
193	0x3f335268	0.70047617
194	0xbdd85512	-0.10563101
195	0x3ca00fe1	0.019538822
196	0xbe1cb459	-0.15303172
197	0xbf44c62f	-0.76864904
198	0x3f023eba	0.50876963
199	0x3e50b510	0.2038157
200	0x3f3a6060	0.72803307
201	0x3e54184f	0.20712398
202	0x3e424a36	0.18973622
203	0x3e94ef08	0.29088616
204	0x3e75bdf4	0.23998243
205	0x3d8c180c	0.06840524
206	0x3d9d8a2d	0.076923706
207	0x3ea892d4	0.3292452
208	0x3c85c913	0.016331231
209	0x3e2af24a	0.16693988
210	0x3eeb4551	0.45951322
211	0xbe3f2c52	-0.1866925
212	0xbe52a083	-0.20569043
213	0x3f6cc530	0.92488384
214	0xbda65547	-0.08121734
215	0xbe3c5cde	-0.18394801
216	0x3f837062	1.0268672
217	0x3f0385cf	0.5137605
218	0xbece70e5	-0.40320507
219	0xbd750e71	-0.059828226
220	0x3e41dcbb	0.18931858
221	0xbebf53ea	-0.3736871
222	0x3ec84477	0.39114735
223	0xbdc24808	-0.09486395
224	0x3ea3de69	0.32005623
225	0x3f1572d5	0.58378345
226	0x3eb39f9a	0.35082704
227	0xbf1fa3bd	-0.6235922
228	0x3e3e3bc3	0.18577485
229	0x3dc6205b	0.0967414
230	0x3f321b56	0.6957296
231	0xbe080af7	-0.13285433
232	0x3ef2e388	0.47439218
233	0xbee10f69	-0.4395707
234	0xbe615e81	-0.22008707
235	0xbeefdb08	-0.46846795
236	0x3c85bf3a	0.016326535
237	0x3dd0beba	0.10192628
238	0xbedb1afa	-0.4279402
239	0xbeed4a6d	-0.46345845
240	0x3e16748f	0.14692901
241	0xbe212a40	-0.15738773
242	0x3f30a6aa	0.6900431
243	0x3e0fdefd	0.14049907
244	0x3c316bc3	0.010828915
245	0xbe6d856b	-0.23195426
246	0x3ec21764	0.3790847
247	0xbe9525c4	-0.29130375
248	0x3e043193	0.12909536
249	0x3d10ed33	0.03538246
250	0x3e02a708	0.1275903
251	0xbec1368a	-0.37736923
252	0x3e5d8217	0.21631657
253	0xbd7d9877	-0.06191298
254	0xbde0f78b	-0.10984715
255	0xbe404e44	-0.18779856

network_body._body_endoder.seq_layers.0.bias f4 [128]
0	0x00000000	0.0
1	0x00000000	0.0
2	0x00000000	0.0
3	0x00000000	0.0
4	0x00000000	0.0
5	0x00000000	0.0
6	0x00000000	0.0
7	0x00000000	0.0
8	0x00000000	0.0
9	0x00000000	0.0
10	0x00000000	0.0
11	0x00000000	0.0
12	0x00000000	0.0
13	0x00000000	0.0
14	0x00000000	0.0
15	0x00000000	0.0
16	0x00000000	0.0
17	0x00000000	0.0
18	0x00000000	0.0
19	0x00000000	0.0
20	0x00000000	0.0
21	0x00000000	0.0
22	0x00000000	0.0
23	0x00000000	0.0
24	0x00000000	0.0
25	0x00000000	0.0
26	0x00000000	0.0
27	0x00000000	0.0
28	0x00000000	0.0
29	0x00000000	0.0
30	0x00000000	0.0
31	0x00000000	0.0
32	0x00000000	0.0
33	0x00000000	0.0
34	0x00000000	0.0
35	0x00000000	0.0
36	0x00000000	0.0
37	0x00000000	0.0
38	0x00000000	0.0
39	0x00000000	0.0
40	0x00000000	0.0
41	0x00000000	0.0
42	0x00000000	0.0
43	0x00000000	0.0
44	0x00000000	0.0
45	0x00000000	0.0
46	0x00000000	0.0
47	0x00000000	0.0
48	0x00000000	0.0
49	0x00000000	0.0
50	0x00000000	0.0
51	0x00000000	0.0
52	0x00000000	0.0
53	0x00000000	0.0
54	0x00000000	0.0
55	0x00000000	0.0
56	0x00000000	0.0
57	0x00000000	0.0
58	0x00000000	0.0
59	0x00000000	0.0
60	0x00000000	0.0
61	0x00000000	0.0
62	0x00000000	0.0
63	0x00000000	0.0
64	0x00000000	0.0
65	0x00000000	0.0
66	0x00000000	0.0
67	0x00000000	0.0
68	0x00000000	0.0
69	0x00000000	0.0
70	0x00000000	0.0
71	0x00000000	0.0
72	0x00000000	0.0
73	0x00000000	0.0
74	0x00000000	0.0
75	0x00000000	0.0
76	0x00000000	0.0
77	0x00000000	0.0
78	0x00000000	0.0
79	0x00000000	0.0
80	0x00000000	0.0
81	0x00000000	0.0
82	0x00000000	0.0
83	0x00000000	0.0
84	0x00000000	0.0
85	0x00000000	0.0
86	0x00000000	0.0
87	0x00000000	0.0
88	0x00000000	0.0
89	0x00000000	0.0
90	0x00000000	0.0
91	0x00000000	0.0
92	0x00000000	0.0
93	0x00000000	0.0
94	0x00000000	0.0
95	0x00000000	0.0
96	0x00000000	0.0
97	0x00000000	0.0
98	0x00000000	0.0
99	0x00000000	0.0
100	0x00000000	0.0
101	0x00000000	0.0
102	0x00000000	0.0
103	0x00000000	0.0
104	0x00000000	0.0
105	0x00000000	0.0
106	0x00000000	0.0
107	0x00000000	0.0
108	0x00000000	0.0
109	0x00000000	0.0
110	0x00000000	0.0
111	0x00000000	0.0
112	0x00000000	0.0
113	0x00000000	0.0
114	0x00000000	0.0
115	0x00000000	0.0
116	0x00000000	0.0
117	0x00000000	0.0
118	0x00000000	0.0
119	0x00000000	0.0
120	0x00000000	0.0
121	0x00000000	0.0
122	0x00000000	0.0
123	0x00000000	0.0
124	0x00000000	0.0
125	0x00000000	0.0
126	0x00000000	0.0
127	0x00000000	0.0

network_body._body_endoder.seq_layers.2.weight f4 [128, 128]
0	0xbd82dda1	-0.063899286
1	0x3de0c64a	0.10975321
2	0x3c8188ab	0.015812239
3	0xbcdcea44	-0.026967175
4	0x3ce94814	0.028476752
5	0xbbcaf528	-0.0061937757
6	0x3d6f813c	0.058472857
7	0x3c9a7bcc	0.01885786
8	0xbda2e437	-0.07953685
9	0x3db25b5b	0.08708831
10	0xbd83b1ff	-0.064304344
11	0xbd5108c3	-0.051033746
12	0x3d93f72a	0.07224877
13	0x3c96c9a8	0.018406704
14	0xbc6477ce	-0.013944579
15	0xbdb59870	-0.08866966
16	0x3dc7fb92	0.0976478
17	0xbd837c90	-0.06420243
18	0x3e630bd7	0.22172485
19	0x3b87914d	0.0041371942
20	0x3d4f42ec	0.05060093
21	0x3e0a1305	0.13483818
22	0xbd02c667	-0.031927492
23	0x3dc965e4	0.09833887
24	0x3d1199fe	0.03554725
25	0xbda233a3	-0.07920005
26	0x3e31b42b	0.17353885
27	0xbd541212	-0.051775046
28	0x3db95d62	0.090510145
29	0xbdefe023	-0.117126726
30	0x3c7c2db4	0.015391756
31	0xbccd21f2	-0.0250406
32	0x3e29f10e	0.16595861
33	0x3d8821a6	0.06647043
34	0xbd08e28a	-0.03341917
35	0xbd8ce6eb	-0.068799816
36	0xbde841fc	-0.113407105
37	0xbd1d48dd	-0.038399566
38	0xbd8d2528	-0.068918526
39	0xbd5c6b6b	-0.05381338
40	0xbd51e30b	-0.051241916
41	0xbd4f7669	-0.050650034
42	0xbda5be6e	-0.08092962
43	0x3cd93eb4	0.026519157
44	0xbd75feae	-0.060057335
45	0x3d5f9622	0.054586537
46	0x3ccdb73c	0.025111787
47	0xbdbcbcb6	-0.09215681
48	0xbc7f3e8a	-0.015578875
49	0xbd0f7252	-0.035021134
50	0x3e18b173	0.14911442
51	0xbd8728b4	-0.065995604
52	0x3d0c89fd	0.034311283
53	0xbde7f8b4	-0.11326733
54	0xbd9e9e01	-0.077449806
55	0xbc741098	-0.014896534
56	0x3c2974c2	0.010342779
57	0xbcc52bb6	-0.024068695
58	0x3dad18b6	0.08451979
59	0x3b8adee7	0.004237998
60	0xbc8c2a92	-0.017110143
61	0xbe07270d	-0.1319849
62	0xbdbedfdd	-0.09320042
63	0x3de0084b	0.10939082
64	0x3d6f2e31	0.05839366
65	0xbdd68a8d	-0.10475645
66	0xbe1d603f	-0.15368746
67	0xbe07a19c	-0.13245243
68	0xbd3aa6a7	-0.04556909
69	0x3d64cdf5	0.05586048
70	0xbd7beb19	-0.061503503
71	0x3dc365b7	0.09540885
72	0xbca7c8f2	-0.02048156
73	0x3cf302de	0.029664453
74	0x3ba696cc	0.0050838944
75	0xbdd0ccc6	-0.101953074
76	0xbd51eddb	-0.051252227
77	0x3da3cf07	0.07998472
78	0x3d9b481d	0.07582114
79	0x3e4cf2dd	0.2001452
80	0x3e0602db	0.13087027
81	0xbe1517ac	-0.14559811
82	0x3d5319fa	0.051538445
83	0x3dfa31b8	0.12216514
84	0xbcc97fdd	-0.024597103
85	0xbd07cca3	-0.03315414
86	0x3ce3fc2b	0.027830204
87	0xbe03a9d0	-0.12857747
88	0x3dd883e5	0.10572032
89	0x3e30eb4a	0.17277256
90	0x3de35151	0.11099494
91	0xbd9d8d9a	-0.07693024
92	0x3d95efaa	0.07321103
93	0x3e0db8db	0.13840048
94	0x3d916581	0.070994385
95	0x3dd74006	0.105102584
96	0xbce33e7b	-0.027739754
97	0xbd1f2db5	-0.03886195
98	0xbe69733f	-0.22797869
99	0xbda8cbd6	-0.082420036
100	0x3d9e89c1	0.07741118
101	0xbddcf9d1	-0.10789836
102	0xbd1c6bdb	-0.038188796
103	0xbda971d6	-0.082736656
104	0xbde09915	-0.10966698
105	0x3e03cd5e	0.1287131
106	0xbddbc841	-0.10731555
107	0x3bbd56e3	0.00577818
108	0xbd7e5712	-0.062094755
109	0x3dafff95	0.0859367
110	0x3d967115	0.073457874
111	0x3d994bd3	0.074851654
112	0xbdc02be7	-0.09383374
113	0x3dffbf9a	0.12487717
114	0xbce03026	-0.027366709
115	0xbd5988e2	-0.053109057
116	0x3d374c69	0.044750605
117	0x3c4a8b8a	0.01236237
118	0xbdc86ab9	-0.09785981
119	0x3d8523f4	0.06500998
120	0x3e07e5aa	0.13271204
121	0xbd37ff07	-0.044920947
122	0xbdb62e4b	-0.088955484
123	0xbd74ff6e	-0.05981391
124	0xbdb00c0c	-0.08596048
125	0xbda7fd7a	-0.08202644
126	0xbd7973f6	-0.060901605
127	0x3dcd7263	0.10031583
128	0xbd35fc5b	-0.044430118
129	0x3e6ad66d	0.2293336
130	0x3c0d1e8a	0.008613238
131	0x3d09cf4b	0.033644956
132	0xbd3dc6a5	-0.04633202
133	0x3d7e57ed	0.06209557
134	0xbe2a2d01	-0.1661873
135	0xbc68abe7	-0.014201141
136	0x3d4f7a15	0.050653536
137	0xbc8776a7	-0.01653607
138	0xbdd3d15b	-0.10342666
139	0xbd87a35b	-0.066229545
140	0xbdda78d8	-0.1066758
141	0xbcf9cab0	-0.030492157
142	0x3db39042	0.08767749
143	0x3cc65c58	0.024213955
144	0xbe25a97e	-0.16177937
145	0x3e21597f	0.15756796
146	0x3d9ec081	0.07751561
147	0xbd90c569	-0.07068903
148	0xbde4534f	-0.11148702
149	0xbc47dd42	-0.012198748
150	0xbd785e5a	-0.060636856
151	0x3cc9e646	0.024645936
152	0xbda266e4	-0.07929781
153	0x3c5f57d5	0.013631781
154	0x3d24af98	0.04020652
155	0xbdd3f5cf	-0.10349619
156	0x3d089e7b	0.033354264
157	0xbc2f955e	-0.010716764
158	0x3bd6e547	0.0065580937
159	0xbd1a8171	-0.0377211
160	0xbd16df04	-0.036833778
161	0xbd6d04ca	-0.057865895
162	0xbe16dcca	-0.14732662
163	0x3da1f9fb	0.07909008
164	0x3d6df304	0.058093086
165	0xbda8170c	-0.08207521
166	0xbe3d18fb	-0.1846656
167	0xbcf95510	-0.030436069
168	0x3d532416	0.051548086
169	0xbd48aa8d	-0.048990775
170	0xbdc78ce8	-0.097436726
171	0xbd2bc662	-0.04193724
172	0xbd0c1d4c	-0.034207627
173	0xbe4a63d6	-0.19764647
174	0xbcaae15c	-0.020859413
175	0xbdae20fe	-0.085023865
176	0xbde4cfec	-0.111724705
177	0xbdae1513	-0.08500113
178	0xbd30588f	-0.043053206
179	0x3de9f376	0.114233896
180	0x3b78060b	0.0037845399
181	0x3cda3a1a	0.026639033
182	0x3d9fd3ae	0.078040466
183	0x3b0a9a82	0.0021149223
184	0x3d88c77d	0.06678674
185	0x3e3569fd	0.17716213
186	0xbd5046f6	-0.050848924
187	0xbda04a0a	-0.07826622
188	0x3d76d5a7	0.06026235
189	0x3c955f70	0.018233985
190	0xbdeb8588	-0.115000784
191	0x3dc2f3c7	0.09519153
192	0xbd95c17a	-0.07312293
193	0x3d6952bb	0.056963664
194	0xbc28853b	-0.010285671
195	0xbcabafa9	-0.020957785
196	0x3df9a29a	0.12189217
197	0xbcc894c3	-0.024484998
198	0xbb1355ff	-0.0022481678
199	0xbda2562c	-0.07926592
200	0x3d43bf59	0.047789905
201	0x3db98a58	0.0905959
202	0x3ca93940	0.020657182
203	0xbcad9ef2	-0.021193955
204	0xbe1e7d29	-0.15477432
205	0xbd9f3d4e	-0.07775365
206	0x3dd28b10	0.1028043
207	0x3e8f7a10	0.28022814
208	0x3d6d99b6	0.05800792
209	0xbdbce07c	-0.092225045
210	0x3dc31b32	0.095266715
211	0x3d9aa140	0.07550287
212	0x3cc16f50	0.023612648
213	0xbd84abbf	-0.064780705
214	0x3dd3e225	0.10345868
215	0x3d88fd2c	0.06688914
216	0xbcf01d5f	-0.02931088
217	0x3d2b8470	0.04187435
218	0x3c6f20a6	0.014595186
219	0x3cbf1f24	0.023330279
220	0xbd0f907b	-0.035049897
221	0x3b343762	0.002749883
222	0x3e040d55	0.12895711
223	0x3daad687	0.08341699
224	0xbe158aef	-0.1460378
225	0xbdd079f7	-0.10179513
226	0xbdc2b014	-0.095062405
227	0xbc1799cc	-0.009252977
228	0xbdc73b00	-0.0972805
229	0x3d01be8c	0.03167586
230	0xbe31f0c2	-0.17376998
231	0xbe18b5be	-0.14913079
232	0xbd74569d	-0.059652913
233	0xbe1329ec	-0.1437146
234	0x3dd4c7fd	0.10389707
235	0x3bd2d4b1	0.006434046
236	0xbc2d96ca	-0.010595033
237	0xbcde463c	-0.0271331
238	0xbb17b4aa	-0.0023148456
239	0xbd47e52f	-0.04880255
240	0x3dad0f93	0.08450236
241	0xbcb6d8c4	-0.022320159
242	0xbd807514	-0.06272331
243	0xbcc8b11d	-0.024498517
244	0x3cf48ba0	0.029851735
245	0xbe089672	-0.1333864
246	0xbdd48149	-0.10376222
247	0xbce9e11e	-0.028549727
248	0x3da4a3b8	0.080390394
249	0xbd8f356b	-0.069926105
250	0x3db09fd9	0.086242385
251	0x3dbcf702	0.092268005
252	0x3d1a0495	0.037602026
253	0x3dee66e0	0.116407156
254	0xbbb44313	-0.00550116
255	0xbdaf4915	-0.08558861

network_body._body_endoder.seq_layers.2.bias f4 [128]
0	0x00000000	0.0
1	0x00000000	0.0
2	0x00000000	0.0
3	0x00000000	0.0
4	0x00000000	0.0
5	0x00000000	0.0
6	0x00000000	0.0
7	0x00000000	0.0
8	0x00000000	0.0
9	0x00000000	0.0
10	0x00000000	0.0
11	0x00000000	0.0
12	0x00000000	0.0
13	0x00000000	0.0
14	0x00000000	0.0
15	0x00000000	0.0
16	0x00000000	0.0
17	0x00000000	0.0
18	0x00000000	0.0
19	0x00000000	0.0
20	0x00000000	0.0
21	0x00000000	0.0
22	0x00000000	0.0
23	0x00000000	0.0
24	0x00000000	0.0
25	0x00000000	0.0
26	0x00000000	0.0
27	0x00000000	0.0
28	0x00000000	0.0
29	0x00000000	0.0
30	0x00000000	0.0
31	0x00000000	0.0
32	0x00000000	0.0
33	0x00000000	0.0
34	0x00000000	0.0
35	0x00000000	0.0
36	0x00000000	0.0
37	0x00000000	0.0
38	0x00000000	0.0
39	0x00000000	0.0
40	0x00000000	0.0
41	0x00000000	0.0
42	0x00000000	0.0
43	0x00000000	0.0
44	0x00000000	0.0
45	0x00000000	0.0
46	0x00000000	0.0
47	0x00000000	0.0
48	0x00000000	0.0
49	0x00000000	0.0
50	0x00000000	0.0
51	0x00000000	0.0
52	0x00000000	0.0
53	0x00000000	0.0
54	0x00000000	0.0
55	0x00000000	0.0
56	0x00000000	0.0
57	0x00000000	0.0
58	0x00000000	0.0
59	0x00000000	0.0
60	0x00000000	0.0
61	0x00000000	0.0
62	0x00000000	0.0
63	0x00000000	0.0
64	0x00000000	0.0
65	0x00000000	0.0
66	0x00000000	0.0
67	0x00000000	0.0
68	0x00000000	0.0
69	0x00000000	0.0
70	0x00000000	0.0
71	0x00000000	0.0
72	0x00000000	0.0
73	0x00000000	0.0
74	0x00000000	0.0
75	0x00000000	0.0
76	0x00000000	0.0
77	0x00000000	0.0
78	0x00000000	0.0
79	0x00000000	0.0
80	0x00000000	0.0
81	0x00000000	0.0
82	0x00000000	0.0
83	0x00000000	0.0
84	0x00000000	0.0
85	0x00000000	0.0
86	0x00000000	0.0
87	0x00000000	0.0
88	0x00000000	0.0
89	0x00000000	0.0
90	0x00000000	0.0
91	0x00000000	0.0
92	0x00000000	0.0
93	0x00000000	0.0
94	0x00000000	0.0
95	0x00000000	0.0
96	0x00000000	0.0
97	0x00000000	0.0
98	0x00000000	0.0
99	0x00000000	0.0
100	0x00000000	0.0
101	0x00000000	0.0
102	0x00000000	0.0
103	0x00000000	0.0
104	0x00000000	0.0
105	0x00000000	0.0
106	0x00000000	0.0
107	0x00000000	0.0
108	0x00000000	0.0
109	0x00000000	0.0
110	0x00000000	0.0
111	0x00000000	0.0
112	0x00000000	0.0
113	0x00000000	0.0
114	0x00000000	0.0
115	0x00000000	0.0
116	0x00000000	0.0
117	0x00000000	0.0
118	0x00000000	0.0
119	0x00000000	0.0
120	0x00000000	0.0
121	0x00000000	0.0
122	0x00000000	0.0
123	0x00000000	0.0
124	0x00000000	0.0
125	0x00000000	0.0
126	0x00000000	0.0
127	0x00000000	0.0

value_heads.value_heads.extrinsic.weight f4 [1, 128]
0	0xbe49f504	-0.19722372
1	0x3e0a9bcc	0.13535994
2	0x3c7835dd	0.015149561
3	0xbcd95ae6	-0.026532602
4	0x3e33dbe1	0.17564346
5	0x3d0d8f48	0.03456047
6	0x3d80507e	0.06265353
7	0xbe43eb27	-0.19132672
8	0xbe4b49c1	-0.19852354
9	0x3dd6f4b2	0.10495891
10	0x3e4a07c8	0.19729531
11	0x3e41f767	0.18942033
12	0x3a442e78	0.0007483731
13	0xbe3c733b	-0.18403332
14	0xbe2e6c04	-0.17033392
15	0x3da5c44f	0.080940835
16	0x3e510fa0	0.20416117
17	0x3dbfb1fb	0.09360119
18	0xbdea404d	-0.11438046
19	0xbe315cf9	-0.17320623
20	0x3d12587a	0.03572891
21	0x3df62071	0.120179065
22	0xbdeec119	-0.11657924
23	0xbe1b9a67	-0.15195619
24	0xba1c7722	-0.000596868
25	0xbcc57e5e	-0.024108108
26	0x3d9f14ae	0.07767616
27	0x3da263d0	0.07929194
28	0x3e2506c6	0.16115865
29	0xbb7c1ba4	-0.0038468624
30	0xbbf2012a	-0.0073853927
31	0x3bf56c8d	0.007489747
32	0x3cd0a9d3	0.025471603
33	0x3e3e424b	0.18579976
34	0x3ce024d7	0.027361317
35	0x3e1f62f4	0.15565091
36	0xbe551c7c	-0.20811647
37	0xbe2010c0	-0.1563139
38	0xbc012d14	-0.007884283
39	0x3bb4f90f	0.005522854
40	0x3de8ac4e	0.113609895
41	0x3b067e93	0.0020522221
42	0xbdc23f01	-0.09484673
43	0xbdd8bdcd	-0.105830766
44	0x3de80f20	0.1133101
45	0x3d076724	0.033057347
46	0x3dbfe04f	0.09368955
47	0xbd29d206	-0.04146006
48	0x3df711e5	0.1206396
49	0xbe056853	-0.13028078
50	0x3d411028	0.04713455
51	0x3e327d48	0.17430604
52	0x3ca7c968	0.02048178
53	0x3e0e6ec9	0.13909449
54	0x3e58e87d	0.21182437
55	0xbe0dfd0a	-0.13866058
56	0x3d22ca1b	0.039743524
57	0xbddcdd03	-0.10784342
58	0x3d55a728	0.052161366
59	0x3e4471b2	0.19183996
60	0xbe29568c	-0.16536921
61	0x3e1eb2d9	0.15497912
62	0x3df591e3	0.11990716
63	0xbde65be2	-0.11247994
64	0x3d7d2e44	0.0618117
65	0x3e1df66a	0.15426031
66	0x3df0de3b	0.11761137
67	0xbc514c61	-0.012774558
68	0xbccb0a18	-0.024785087
69	0xbe2299ad	-0.15878935
70	0x3e27691b	0.16348688
71	0x3ba36f1e	0.0049876114
72	0xbe149949	-0.14511599
73	0xbd14e781	-0.03635359
74	0x3dc1b3a1	0.094580896
75	0x3d85d23e	0.06534241
76	0xbe4bca93	-0.19901495
77	0x3e4d2965	0.20035322
78	0x3caa42c3	0.020783788
79	0xbe01ac60	-0.12663412
80	0x3b67dfc9	0.003538119
81	0xbc00588a	-0.007833609
82	0xbe5215d0	-0.20516133
83	0x3e0c1074	0.13678151
84	0xbda421fc	-0.080142945
85	0xbd42ca53	-0.047556233
86	0x3e0d3203	0.13788609
87	0x3e247ac2	0.16062453
88	0xbe4cecfa	-0.20012274
89	0xbe3796a7	-0.17928563
90	0xbc4369ac	-0.01192705
91	0xbe5040cb	-0.20337217
92	0xbd5d20dd	-0.05398642
93	0xbcaa1ab4	-0.020764686
94	0xbe307bf7	-0.17234789
95	0x3dc29c1a	0.0950243
96	0x3d42620c	0.047456786
97	0xbe395115	-0.18097337
98	0x3e049d3c	0.12950605
99	0xbe242eed	-0.16033526
100	0xb9c5dc13	-0.00037738736
101	0x3d0b39fe	0.033990853
102	0xbd2a6ef2	-0.041609712
103	0xbe3afb04	-0.18259817
104	0xbdf2b7af	-0.11851441
105	0xbe54c282	-0.20777324
106	0xbdd84166	-0.10559349
107	0xbe50bf7d	-0.20385547
108	0xbe3f61e2	-0.18689683
109	0x3e16a9b2	0.14713171
110	0xbdd2fa79	-0.1030168
111	0xbd431a94	-0.04763277
112	0xbe41dbe9	-0.18931545
113	0xbe05b715	-0.13058122
114	0xbe0fced6	-0.14043745
115	0x3ccac8a3	0.024753874
116	0xbd84c567	-0.06482964
117	0x3e37ed6e	0.17961666
118	0x3e4ffe11	0.20311762
119	0xbdc2ab2c	-0.09505305
120	0xbdc0cbf0	-0.09413898
121	0x3e1b2598	0.1515106
122	0xbd1e8c72	-0.038708158
123	0xbdbb0e80	-0.09133625
124	0xbd964fd1	-0.073394425
125	0x3d2bc78e	0.041938357
126	0xbcfe727d	-0.031060452
127	0xbcf57f0b	-0.029967805
