results/Shoot_v1/Shooter/Shooter-16499.pt (torch, 153303 bytes, 20 tensors)

network_body.observation_encoder.processors.0.normalizer.running_mean f4 [7]
000000 f3 33 3e ba 9a 73 f6 3b 00 00 00 00 58 0d 6c 3f
       -0.0007255666 0.007521105 0.0 0.9220786
000010 07 fc 7f 3f 98 a9 52 3e 4d 0e c7 bd
       0.9999394 0.20572507 -0.097195245

network_body.observation_encoder.processors.0.normalizer.running_variance f4 [7]
000000 7d 68 90 40 59 a6 a7 40 00 00 80 3f c7 92 9e 43
       4.512755 5.239056 1.0 317.1467
000010 0f ff ff 3f ab e2 0b 46 12 31 d1 45
       1.9999713 8952.667 6694.134

network_body.processors.0.normalizer.running_mean f4 [7]
000000 f3 33 3e ba 9a 73 f6 3b 00 00 00 00 58 0d 6c 3f
       -0.0007255666 0.007521105 0.0 0.9220786
000010 07 fc 7f 3f 98 a9 52 3e 4d 0e c7 bd
       0.9999394 0.20572507 -0.097195245

network_body.processors.0.normalizer.running_variance f4 [7]
000000 7d 68 90 40 59 a6 a7 40 00 00 80 3f c7 92 9e 43
       4.512755 5.239056 1.0 317.1467
000010 0f ff ff 3f ab e2 0b 46 12 31 d1 45
       1.9999713 8952.667 6694.134

network_body._body_endoder.seq_layers.0.weight f4 [128, 7]
000000 d2 2d 21 bf 5a 47 19 bc b6 ca 82 3e 28 48 b7 be
       -0.6296054 -0.00935539 0.2554528 -0.35797238
000010 b0 44 3d 3e 05 76 3d bf d2 43 ac bd c8 3d 74 be
       0.18483233 -0.7400821 -0.08411373 -0.23851693
000020 90 cf 40 3e c2 26 ab 3f 65 63 d3 3e 5a 34 16 be
       0.18829179 1.3371203 0.4128677 -0.14668408
000030 9d 7a d1 3d 7b 0d 1f bc 8d 1e 38 3f 8d f2 17 be
       0.10228465 -0.009707804 0.71921617 -0.1483862
000040 c6 90 43 be 59 9e 22 3e 99 60 15 bf d3 9f fa 3e
       -0.19098195 0.15880717 -0.5835052 0.4895006
000050 95 be a9 3c 1a 73 20 3f 5b 53 62 be 02 27 38 be
       0.02072076 0.6267563 -0.2210211 -0.1798363
000060 78 22 7a 3e 2e 59 b3 3e d1 5a 9c be d9 6d 06 3f
       0.24427211 0.35028976 -0.30538037 0.52511364
000070 4b 3e 54 3c a9 57 90 3e c7 9a 3d 3d 08 b6 04 3f
       0.012954305 0.2819188 0.046290185 0.5184026
000080 f4 72 13 bd 71 47 b9 3d ab 24 a1 3e 22 c5 b9 be
       -0.0359983 0.090468295 0.31473288 -0.36283213
000090 e7 a4 fe bd 63 eb fb 3e 56 34 e7 3e 0a c8 ee be
       -0.124337964 0.49203023 0.45157117 -0.46636993
0000a0 15 44 86 3e 9a 1e 07 3e ca fc ca bd 0b 37 d2 be
       0.26223817 0.13195267 -0.09911497 -0.4105762
0000b0 e5 c5 6d 3f 08 c2 2b 3f ac 1d d4 be 87 9e 05 3e
       0.9288009 0.67092943 -0.41428888 0.13048755
0000c0 a6 f8 4b bf 38 a8 a3 be fb 04 f2 3d 51 38 01 3f
       -0.7967628 -0.31964278 0.11817356 0.50476557
0000d0 44 a0 00 3f 88 76 17 3c 5d db 8b 3c 3a 07 93 3d
       0.50244546 0.009244569 0.017072374 0.07179113
0000e0 0e fe ae 3e 15 6a 2b 3f d4 2e 27 3f a3 72 d8 be
       0.34178203 0.66958743 0.6530583 -0.4227496
0000f0 e4 9b 8b 3e ff 9d 0d 3f ff 80 f2 bd 47 30 22 be
       0.27267373 0.5531921 -0.1184101 -0.15838729
000100 94 2b 8d be 02 a8 f0 3e b6 08 3d bc 40 98 51 ba
       -0.2757231 0.4700318 -0.011537721 -0.00079954043
000110 0e b6 59 be 70 66 eb be df 68 75 3e 2b 2f ac bd
       -0.21260855 -0.4597659 0.23965786 -0.08407434
000120 00 3b d4 3e 45 fc db bc b4 ef ff bc a3 6b b3 3e
       0.41451263 -0.02685369 -0.031242229 0.35043058
000130 36 22 1f 3f 9a e2 d8 be 8f 47 45 3d 66 0a 9a 3e
       0.62161577 -0.42360383 0.048163947 0.30086058
000140 6e f4 85 3f 3f 5f 1f bf 68 cd 2f bd 5c 1d 7b be
       1.0465219 -0.6225471 -0.0429205 -0.24522918
000150 e8 fc d4 3d c1 dd 4b bf 6e 29 f5 be 62 99 68 3f
       0.103998005 -0.79635245 -0.4788317 0.90859044
000160 9c dc d9 be cd 76 60 be e5 27 17 bd 31 51 d9 3e
       -0.42551124 -0.21920319 -0.03690328 0.42444757
000170 4e 61 a4 3e 4d 8d c4 3d fd ca 2d 3e 15 6a ac 3e
       0.32105488 0.095972635 0.16971965 0.33674684
000180 47 2e d8 bc 54 65 46 3e e1 7d 05 3f 0c be 9e bd
       -0.026389254 0.19374591 0.521452 -0.07751092
000190 61 a3 aa be fa cd 0f 3e 08 fb 0f 3e b2 17 81 be
       -0.33327773 0.14043418 0.14060605 -0.2521339
0001a0 82 b4 ae bc d9 fe 4a 3c aa ce b4 be 33 41 49 be
       -0.021326307 0.012389862 -0.35313922 -0.19653778
0001b0 f5 42 15 bf 6f 4b 8c 3d ef 66 6f bd 53 b7 60 be
       -0.58305293 0.06850325 -0.058447774 -0.21944933
0001c0 56 e5 c7 3e 3d 15 90 3e 38 10 d6 be 16 ab 11 3c
       0.39042157 0.28141204 -0.4180925 0.008890888
0001d0 8c 18 96 3e fc bb a3 3e 46 74 d6 be c0 84 03 3f
       0.29315603 0.31979358 -0.41885585 0.51374435
0001e0 7a 11 33 be 51 32 cd be c9 50 8c 3e d4 3e fa 3e
       -0.17487136 -0.4007745 0.27405384 0.4887606
0001f0 d3 40 2a 3f 0a 6e a4 3e 8f bf 18 3e 9a 3c 8c 3f
       0.66505164 0.32115203 0.14916824 1.0955994
000200 db 0e 9d be 3f d1 20 3e 2f 0f d3 3d 43 73 aa 3e
       -0.30675396 0.15704821 0.103056304 0.33291063
000210 7e 00 15 3e b3 0b 9c be 7d 65 c4 be 66 79 c3 3e
       0.14550969 -0.30477676 -0.3835868 0.38178557
000220 d4 2c 97 be c4 02 ea 3d f0 0a 68 bf 65 2f 12 bf
       -0.2952639 0.11426309 -0.9064169 -0.5710357
000230 a9 17 f3 bd 99 d8 eb 3e ae 80 bb 3e 92 24 32 be
       -0.11869747 0.46063688 0.36621612 -0.17396763
000240 35 43 99 3e a4 d5 dc 3e a5 93 ec be 31 b0 e3 3e
       0.29934087 0.43131745 -0.46206394 0.4447036
000250 d6 81 4b be d3 85 69 be 2b 24 19 bf 1d 01 80 3e
       -0.19873747 -0.22804956 -0.5982081 0.2500085
000260 94 da f3 bd e2 11 35 3d a8 76 5a 3e f9 b2 1d 3f
       -0.11906925 0.044206508 0.21334326 0.61601216
000270 ae 25 ed be 1c 88 65 bc 3b 08 8c 3d 04 51 e5 be
       -0.4631781 -0.014009502 0.06837507 -0.44788373
000280 e8 38 a7 3d 46 92 f5 3e a1 65 40 be c9 a3 2e 3e
       0.08165151 0.4796316 -0.18788768 0.17054667
000290 9e 3f 3d bc dc d4 c7 3e 2b f0 fb 3d 44 06 19 bf
       -0.011550812 0.39029586 0.12301668 -0.59775186
0002a0 3e 8f 11 3f 20 c2 12 3f dd 96 5d 3d 4a 5a e9 3e
       0.56859195 0.5732746 0.054098953 0.45576698
0002b0 eb b4 1d 3f fa dc 05 bf 37 1b c5 3e 47 ef 5d be
       0.61604184 -0.5229031 0.38497326 -0.21673308
0002c0 ff 51 e8 3e 6e 51 17 3f 60 4d 42 3e a0 09 cc bd
       0.45375058 0.59108627 0.18974829 -0.09962773
0002d0 f3 dd 2c 3f ee 42 32 3f 2c 37 56 3f 61 ce a9 3e
       0.6752617 0.69633377 0.83677936 0.33165267
0002e0 79 56 78 be 02 d5 73 3e 75 7c 5d bc 6c cb dd bc
       -0.24251737 0.23811725 -0.013518442 -0.027074538
0002f0 2c ec 24 3f 41 e0 01 be 2c f6 1a 3e b0 1d a7 be
       0.6442287 -0.12683202 0.1513297 -0.32639837
000300 63 f0 66 be 4d c0 14 3f 18 49 d4 3e 8a 79 a6 bd
       -0.22552638 0.5810593 0.41462016 -0.081286505
000310 4a 4c d8 bb 93 35 b7 3e b0 e8 40 3f ff f3 63 bc
       -0.0066008912 0.3578306 0.7535505 -0.013913154
000320 ad fb 52 3d 03 1d e4 3e 27 00 10 3e 01 b1 25 bc
       0.051509548 0.44553384 0.14062558 -0.010113002
000330 91 7c b6 bd 06 3c 0a bf aa 00 60 3c 09 4b a8 3e
       -0.08910478 -0.5399784 0.013672033 0.32869747
000340 c0 4b a0 be 8e f8 19 be 47 23 e0 3d b9 f3 b5 be
       -0.31307793 -0.15036222 0.109442286 -0.35537508
000350 35 5c c9 be c4 9a a0 bd 55 a4 81 be cd e0 e7 be
       -0.3932816 -0.07842019 -0.25320688 -0.45288697
000360 83 48 4c bf 25 36 a6 be c1 9e b0 be 59 75 75 bd
       -0.79798144 -0.32463184 -0.3449612 -0.059926365
000370 ce 3b 72 3c 3b 74 6b 3e 10 60 e2 be 52 8c 02 be
       0.014784766 0.22993557 -0.44213915 -0.1274884
000380 1e 65 83 3e 50 5f 28 bf 63 a6 92 3e ec f8 3b bf
       0.25663084 -0.65770435 0.28642568 -0.734267
000390 e6 ec 87 3e 43 5e d7 3d e5 84 cd be 92 85 d0 bd
       0.26547927 0.10516026 -0.40140453 -0.101817265
0003a0 29 aa 4b 3e 07 2e fd 3e 45 d0 07 3f 23 17 fb bb
       0.1988913 0.4944918 0.5305217 -0.00766267
0003b0 03 aa 88 be 2a 4d 8f 3e 9c 15 cb bd 43 2b 24 bf
       -0.2669221 0.2798856 -0.09916231 -0.6412851
0003c0 3b e5 be be e0 34 5e 3d bf 2b 92 3d 8f cf b8 be
       -0.37284264 0.054249644 0.0713725 -0.36095855
0003d0 6e 5c 54 be 97 2e c2 3d 7c da a1 3d ec cc 1e 3e
       -0.20738384 0.094815426 0.07903001 0.15507859
0003e0 9e c3 1f be b7 3b b8 3d 34 c9 d8 be 14 7e 82 bd
       -0.15601966 0.08995765 -0.42341006 -0.06371704
0003f0 14 f7 e6 be dc eb 04 3f ba d6 e2 be 20 0b 8a 3d
       -0.4511038 0.5192239 -0.44304448 0.06740403

network_body._body_endoder.seq_layers.0.bias f4 [128]
000000 00 00 00 00 00 00 00 00 00 00 00 00 00 00 00 00
       0.0 0.0 0.0 0.0
000010 00 00 00 00 00 00 00 00 00 00 00 00 00 00 00 00
       0.0 0.0 0.0 0.0
000020 00 00 00 00 00 00 00 00 00 00 00 00 00 00 00 00
       0.0 0.0 0.0 0.0
000030 00 00 00 00 00 00 00 00 00 00 00 00 00 00 00 00
       0.0 0.0 0.0 0.0
000040 00 00 00 00 00 00 00 00 00 00 00 00 00 00 00 00
       0.0 0.0 0.0 0.0
000050 00 00 00 00 00 00 00 00 00 00 00 00 00 00 00 00
       0.0 0.0 0.0 0.0
000060 00 00 00 00 00 00 00 00 00 00 00 00 00 00 00 00
       0.0 0.0 0.0 0.0
000070 00 00 00 00 00 00 00 00 00 00 00 00 00 00 00 00
       0.0 0.0 0.0 0.0
000080 00 00 00 00 00 00 00 00 00 00 00 00 00 00 00 00
       0.0 0.0 0.0 0.0
000090 00 00 00 00 00 00 00 00 00 00 00 00 00 00 00 00
       0.0 0.0 0.0 0.0
0000a0 00 00 00 00 00 00 00 00 00 00 00 00 00 00 00 00
       0.0 0.0 0.0 0.0
0000b0 00 00 00 00 00 00 00 00 00 00 00 00 00 00 00 00
       0.0 0.0 0.0 0.0
0000c0 00 00 00 00 00 00 00 00 00 00 00 00 00 00 00 00
       0.0 0.0 0.0 0.0
0000d0 00 00 00 00 00 00 00 00 00 00 00 00 00 00 00 00
       0.0 0.0 0.0 0.0
0000e0 00 00 00 00 00 00 00 00 00 00 00 00 00 00 00 00
       0.0 0.0 0.0 0.0
0000f0 00 00 00 00 00 00 00 00 00 00 00 00 00 00 00 00
       0.0 0.0 0.0 0.0
000100 00 00 00 00 00 00 00 00 00 00 00 00 00 00 00 00
       0.0 0.0 0.0 0.0
000110 00 00 00 00 00 00 00 00 00 00 00 00 00 00 00 00
       0.0 0.0 0.0 0.0
000120 00 00 00 00 00 00 00 00 00 00 00 00 00 00 00 00
       0.0 0.0 0.0 0.0
000130 00 00 00 00 00 00 00 00 00 00 00 00 00 00 00 00
       0.0 0.0 0.0 0.0
000140 00 00 00 00 00 00 00 00 00 00 00 00 00 00 00 00
       0.0 0.0 0.0 0.0
000150 00 00 00 00 00 00 00 00 00 00 00 00 00 00 00 00
       0.0 0.0 0.0 0.0
000160 00 00 00 00 00 00 00 00 00 00 00 00 00 00 00 00
       0.0 0.0 0.0 0.0
000170 00 00 00 00 00 00 00 00 00 00 00 00 00 00 00 00
       0.0 0.0 0.0 0.0
000180 00 00 00 00 00 00 00 00 00 00 00 00 00 00 00 00
       0.0 0.0 0.0 0.0
000190 00 00 00 00 00 00 00 00 00 00 00 00 00 00 00 00
       0.0 0.0 0.0 0.0
0001a0 00 00 00 00 00 00 00 00 00 00 00 00 00 00 00 00
       0.0 0.0 0.0 0.0
0001b0 00 00 00 00 00 00 00 00 00 00 00 00 00 00 00 00
       0.0 0.0 0.0 0.0
0001c0 00 00 00 00 00 00 00 00 00 00 00 00 00 00 00 00
       0.0 0.0 0.0 0.0
0001d0 00 00 00 00 00 00 00 00 00 00 00 00 00 00 00 00
       0.0 0.0 0.0 0.0
0001e0 00 00 00 00 00 00 00 00 00 00 00 00 00 00 00 00
       0.0 0.0 0.0 0.0
0001f0 00 00 00 00 00 00 00 00 00 00 00 00 00 00 00 00
       0.0 0.0 0.0 0.0

network_body._body_endoder.seq_layers.2.weight f4 [128, 128]
000000 64 d9 c4 3d 5a da 93 3d c0 d2 b9 bc 6f f1 60 bb
       0.096117765 0.07219382 -0.022683501 -0.0034323593
000010 25 9b c9 bc 3a 22 71 bd b3 99 16 3e 75 c3 fb 3d
       -0.024610111 -0.05887053 0.14707069 0.1229314
000020 81 47 d7 3d d5 d3 5f bc 10 09 d7 bd 1b e5 88 bd
       0.10511685 -0.013661345 -0.104997754 -0.066843234
000030 2c a1 24 3d d3 df 1f 3e d7 d8 0b 3e 87 35 9c 3d
       0.040192768 0.15612726 0.13656937 0.07627397
000040 ca 74 c8 bc a3 b6 a4 bd 23 64 46 be 36 ad d4 3c
       -0.024469752 -0.08042648 -0.19374137 0.0259615
000050 c3 fe 32 bd 02 04 69 3e 49 9d ea 3d 3a 05 dd bd
       -0.04369999 0.22755435 0.11455781 -0.107920125
000060 95 c2 20 3d 8d d3 89 3d 51 df d7 3d 00 ae 4e bd
       0.039248068 0.06729803 0.10540641 -0.050458908
000070 2a ad dd 3c 86 22 87 be bf 75 6b bd 48 ba 33 3e
       0.02706011 -0.26393527 -0.05748534 0.1755153
000080 c0 96 15 bc 98 61 55 3d e9 b2 e3 3c 51 82 58 bd
       -0.00913018 0.052095026 0.027795272 -0.052858654
000090 46 c4 1f be 31 cc ee 3d f2 ab 1f 3e 01 06 c8 3c
       -0.15602216 0.1166004 0.15592936 0.024416925
0000a0 6b 9c 2a bd 04 74 75 bd 38 1c 1c bd 8f 37 60 bd
       -0.041653078 -0.059925094 -0.03811285 -0.054740485
0000b0 f8 40 ab 3c f1 bb 52 bd f3 20 ea bd cd d9 8f 3c
       0.020905003 -0.051448766 -0.11432066 0.01755991
0000c0 20 13 e2 3c 8f e1 6c bd 20 1e 82 3c 5b 24 2c bd
       0.02759701 -0.057832297 0.015883505 -0.04202686
0000d0 ca 57 ed 3d 65 ba 83 bd d2 ab 85 bd 55 36 99 bc
       0.1158901 -0.06432036 -0.06526913 -0.018702665
0000e0 0b 66 0f 3d 40 3a 3a 3d f9 b2 82 3e 9e 23 1a bc
       0.035009425 0.045465708 0.2552717 -0.009407906
0000f0 22 f4 b9 38 9d ab 97 bc 82 16 7e be 72 b0 2a 3d
       8.866961e-05 -0.018514449 -0.24813274 0.041672178
000100 e6 33 ed bb 99 aa e3 bd 59 ba 80 bd c2 9f fa 3c
       -0.007238853 -0.11116523 -0.06285543 0.030593757
000110 c4 ab 62 3d 96 1c 0a be dc e6 ce 3d df c2 93 3d
       0.05533959 -0.13487467 0.10102627 0.07214903
000120 21 9c d7 bd 6b a3 f2 ba d5 19 3b bc c6 55 28 3d
       -0.10527826 -0.0018511837 -0.011419733 0.041097425
000130 41 9e 0a 3d 34 fe 2f 3d ab cb 96 3b d6 21 cd 3c
       0.03384233 0.042967036 0.004601916 0.025040548
000140 ba 8c bf 3d a1 e8 3c 3d 8f 3f fd 3c 7f 08 79 3d
       0.09353013 0.04612029 0.030914096 0.060799118
000150 05 f8 67 3d 5d eb 21 bd 96 b1 1b 3d ba 03 92 3d
       0.056633014 -0.0395311 0.038011156 0.07129617
000160 02 c9 e9 bc 64 28 1e 3d ff 43 34 be 57 5f c2 3d
       -0.02853823 0.03861274 -0.17604063 0.09490841
000170 2c 3b 91 3c e7 8e fb bd 33 3d 2f be f8 30 78 bd
       0.01772841 -0.12283116 -0.1711319 -0.060593575
000180 f2 ae c2 3c a6 97 c4 bd d0 c8 a7 3d c5 47 db 3d
       0.023765061 -0.09599237 0.08192599 0.10707048
000190 54 d3 d9 bc 78 06 61 bd 62 9b b6 3b 90 cc 6c be
       -0.026590027 -0.05493781 0.0055727223 -0.2312491
0001a0 6c e0 22 3e e8 ca a6 bd 7c b5 52 3d 4f ba 2a 3d
       0.15905923 -0.0814417 0.05144261 0.041681584
0001b0 f4 0a 1c 3c 77 49 27 3d 08 a4 5b 3d 37 94 92 3b
       0.009524096 0.040841546 0.05362323 0.004473235
0001c0 3d 75 a2 3b c5 84 6f bb 0e f6 a5 bd ef 62 06 be
       0.0049578235 -0.0036547643 -0.08103572 -0.13123678
0001d0 1a 35 40 be bf 42 93 3b 5d 8e 7c bd 9c d6 21 3e
       -0.18770257 0.0044940407 -0.061659206 0.15804523
0001e0 db 9e 43 bd aa 09 39 bd 28 93 0a 3e cf 5f e3 ba
       -0.04775892 -0.045175232 0.13532698 -0.0017347279
0001f0 44 8e 93 bb c7 06 ed bd 38 d0 6a 3d e2 12 c1 bd
       -0.0045030434 -0.11573558 0.05732748 -0.0942743
000200 9b 06 29 3e 85 08 72 bd d4 d6 63 3c df c3 8c 3c
       0.16506426 -0.059090156 0.0139061995 0.017183242
000210 ca b6 17 be b1 4c 40 3d ea 57 01 3e 83 d2 5e 3d
       -0.14815822 0.04694814 0.12631193 0.05439998
000220 31 f2 f5 3d 1d 99 54 bd 3f 41 32 3e 5c 10 ea 3d
       0.12009085 -0.051903833 0.17407702 0.114289016
000230 bd b0 8b 3d 09 06 d8 bd e0 04 f8 3a 11 ca 64 bd
       0.068208195 -0.10548026 0.0018922351 -0.055856768
000240 de b1 fc 3b dd a5 a8 3d c8 7a 0f be a3 de 15 3e
       0.007711633 0.08234761 -0.14011681 0.1463571
000250 5f cd 3d 3d ed fd 9c 3c 25 10 af 3d 53 ba f7 3c
       0.046338435 0.01916405 0.08548001 0.030240213
000260 ca e1 e6 bd ea 23 ab bc 82 cb f4 bd 37 20 b0 3d
       -0.112735346 -0.020891149 -0.119528785 0.085998945
000270 3a 33 16 be 54 2d 9a ba 20 b8 65 3d b4 6b 9c 3e
       -0.14667979 -0.0011762776 0.0560838 0.3055092
000280 4e 9c a3 3d 60 f4 1c 3d c6 c3 10 3d ae 49 76 bd
       0.07988797 0.03831899 0.035342954 -0.06012886
000290 84 27 3f 3c 54 fd a3 3d 40 18 15 bd 42 16 5d 3d
       0.011667136 0.08007303 -0.03640008 0.053976305
0002a0 84 31 00 3d 8f db ad 3c 4f 33 11 3e 79 d2 52 bd
       0.03129722 0.021222858 0.14179729 -0.051470254
0002b0 a2 85 35 3d 03 a9 3c bd dd 14 56 bc 94 7f 94 bd
       0.044316895 -0.04605962 -0.013066498 -0.07250896
0002c0 76 73 a2 bc 36 ce 8d bc c1 21 fb ba f8 d6 fc bc
       -0.019830447 -0.017310243 -0.001915984 -0.030864224
0002d0 c2 b4 22 bc f1 72 f2 bc ac 4a b9 3c 37 1b 6b bd
       -0.009930791 -0.029595824 0.022618614 -0.057399
0002e0 78 9a ba bd 92 4a 0b be dc 88 42 bd b5 68 3d 3c
       -0.09111494 -0.13602665 -0.0474938 0.011560609
0002f0 5c 0a 83 3d be b2 a0 bd b3 aa 5d bc 1a 0a c0 bd
       0.0639846 -0.07846592 -0.013529467 -0.09376927
000300 e3 4c cc 3c 6d be 4d 3d 10 a6 1f bd f0 ef c4 3d
       0.024939006 0.050230432 -0.03897673 0.09616077
000310 8e c2 03 bc b4 82 2e 3e 91 cd a0 bd 77 41 69 bd
       -0.008041991 0.17042047 -0.07851709 -0.056947198
000320 78 44 77 3c 70 6d a4 3d 82 63 da 3d 9c 2c 3f 3e
       0.015092008 0.08028686 0.10663511 0.18669361
000330 40 dc bf bd ed e0 1a be 31 91 d0 bd a9 4e 0b 3d
       -0.09368181 -0.15124865 -0.10183943 0.034010563
000340 84 38 d3 bd c7 5c 3a 3d 5e 02 e6 bd 18 34 f9 3d
       -0.10313514 0.045498636 -0.1123092 0.12168139
000350 97 e4 1f 3d f4 4c 2e bd 3b 60 67 bd b3 4d 2f 3d
       0.03903636 -0.042553857 -0.056488257 0.04279871
000360 9c fa 22 3c 56 45 92 bd c3 ad b3 bd 5a b5 66 be
       0.009947445 -0.07142131 -0.08773377 -0.22530118
000370 2b c6 4e 3d dc f1 fc bc 44 b3 a7 3d e9 cb 72 bd
       0.050481956 -0.030877046 0.08188489 -0.059276495
000380 fa 7f 2d 3e 85 f9 7f 3d e9 8d 28 3d 58 dd 9d bd
       0.1694335 0.06249382 0.04115096 -0.077082336
000390 4f 16 b8 3d 47 35 21 be 18 9c db bd 36 be f3 3d
       0.0898863 -0.1574298 -0.10723132 0.11901514
0003a0 1a fc 9e 3d e5 42 6a bd 5e dd f3 3d cd 3b 8e 3d
       0.07762928 -0.0571927 0.11907457 0.06945
0003b0 7a c1 22 bd 1c e9 65 bd 42 c1 83 bd 93 50 e6 3d
       -0.039735295 -0.056130514 -0.064333454 0.11245837
0003c0 12 87 32 be 24 e0 6d bd 25 c4 8c bd 4d 1e 70 3d
       -0.17434338 -0.058075085 -0.06873349 0.058622647
0003d0 8f 7d 8f bd a3 45 c7 bc 64 25 10 3e bd a8 c5 bc
       -0.0700637 -0.024325198 0.14076763 -0.024128312
0003e0 78 f3 27 bd 41 87 c8 bc 38 fc a4 3d a9 49 45 bd
       -0.041003674 -0.024478557 0.080559194 -0.04816595
0003f0 43 26 14 3d de 1b bc bd f8 af 43 3c 9f 97 9f bc
       0.0361693 -0.09185003 0.01194381 -0.019481478

network_body._body_endoder.seq_layers.2.bias f4 [128]
000000 00 00 00 00 00 00 00 00 00 00 00 00 00 00 00 00
       0.0 0.0 0.0 0.0
000010 00 00 00 00 00 00 00 00 00 00 00 00 00 00 00 00
       0.0 0.0 0.0 0.0
000020 00 00 00 00 00 00 00 00 00 00 00 00 00 00 00 00
       0.0 0.0 0.0 0.0
000030 00 00 00 00 00 00 00 00 00 00 00 00 00 00 00 00
       0.0 0.0 0.0 0.0
000040 00 00 00 00 00 00 00 00 00 00 00 00 00 00 00 00
       0.0 0.0 0.0 0.0
000050 00 00 00 00 00 00 00 00 00 00 00 00 00 00 00 00
       0.0 0.0 0.0 0.0
000060 00 00 00 00 00 00 00 00 00 00 00 00 00 00 00 00
       0.0 0.0 0.0 0.0
000070 00 00 00 00 00 00 00 00 00 00 00 00 00 00 00 00
       0.0 0.0 0.0 0.0
000080 00 00 00 00 00 00 00 00 00 00 00 00 00 00 00 00
       0.0 0.0 0.0 0.0
000090 00 00 00 00 00 00 00 00 00 00 00 00 00 00 00 00
       0.0 0.0 0.0 0.0
0000a0 00 00 00 00 00 00 00 00 00 00 00 00 00 00 00 00
       0.0 0.0 0.0 0.0
0000b0 00 00 00 00 00 00 00 00 00 00 00 00 00 00 00 00
       0.0 0.0 0.0 0.0
0000c0 00 00 00 00 00 00 00 00 00 00 00 00 00 00 00 00
       0.0 0.0 0.0 0.0
0000d0 00 00 00 00 00 00 00 00 00 00 00 00 00 00 00 00
       0.0 0.0 0.0 0.0
0000e0 00 00 00 00 00 00 00 00 00 00 00 00 00 00 00 00
       0.0 0.0 0.0 0.0
0000f0 00 00 00 00 00 00 00 00 00 00 00 00 00 00 00 00
       0.0 0.0 0.0 0.0
000100 00 00 00 00 00 00 00 00 00 00 00 00 00 00 00 00
       0.0 0.0 0.0 0.0
000110 00 00 00 00 00 00 00 00 00 00 00 00 00 00 00 00
       0.0 0.0 0.0 0.0
000120 00 00 00 00 00 00 00 00 00 00 00 00 00 00 00 00
       0.0 0.0 0.0 0.0
000130 00 00 00 00 00 00 00 00 00 00 00 00 00 00 00 00
       0.0 0.0 0.0 0.0
000140 00 00 00 00 00 00 00 00 00 00 00 00 00 00 00 00
       0.0 0.0 0.0 0.0
000150 00 00 00 00 00 00 00 00 00 00 00 00 00 00 00 00
       0.0 0.0 0.0 0.0
000160 00 00 00 00 00 00 00 00 00 00 00 00 00 00 00 00
       0.0 0.0 0.0 0.0
000170 00 00 00 00 00 00 00 00 00 00 00 00 00 00 00 00
       0.0 0.0 0.0 0.0
000180 00 00 00 00 00 00 00 00 00 00 00 00 00 00 00 00
       0.0 0.0 0.0 0.0
000190 00 00 00 00 00 00 00 00 00 00 00 00 00 00 00 00
       0.0 0.0 0.0 0.0
0001a0 00 00 00 00 00 00 00 00 00 00 00 00 00 00 00 00
       0.0 0.0 0.0 0.0
0001b0 00 00 00 00 00 00 00 00 00 00 00 00 00 00 00 00
       0.0 0.0 0.0 0.0
0001c0 00 00 00 00 00 00 00 00 00 00 00 00 00 00 00 00
       0.0 0.0 0.0 0.0
0001d0 00 00 00 00 00 00 00 00 00 00 00 00 00 00 00 00
       0.0 0.0 0.0 0.0
0001e0 00 00 00 00 00 00 00 00 00 00 00 00 00 00 00 00
       0.0 0.0 0.0 0.0
0001f0 00 00 00 00 00 00 00 00 00 00 00 00 00 00 00 00
       0.0 0.0 0.0 0.0

action_model._continuous_distribution.log_sigma f4 [1, 3]
000000 00 00 00 00 00 00 00 00 00 00 00 00
       0.0 0.0 0.0

action_model._continuous_distribution.mu.weight f4 [3, 128]
000000 44 0c c2 3c 5f 6d 12 bd f7 58 f2 3c 0d 0f bc bc
       0.02368749 -0.035748836 0.029583437 -0.022956396
000010 d4 60 0a bc 09 cc 07 3d b6 9e 2f 3d 63 2f ec 3c
       -0.008445937 0.033153567 0.042875968 0.02883119
000020 80 5b b8 3c a6 75 86 3c 47 e7 14 bd 88 cc 50 bc
       0.022504568 0.016413521 -0.036353376 -0.012744077
000030 6c 56 8b bc 95 43 4d bb 23 b3 bd 3b 61 67 85 bc
       -0.017008983 -0.00313208 0.005789177 -0.016284646
000040 cd 6c c2 3c a1 e7 3e bc a3 7a 5f bc 5f f5 f5 3c
       0.02373352 -0.011651904 -0.013640079 0.030024229
000050 03 e7 b8 bc eb 30 0c 3d 3b 03 26 3c c7 96 40 3b
       -0.022571092 0.03422634 0.010132606 0.0029386745
000060 49 b3 28 bb 1f 19 ad bc f0 44 5e bc 2e 01 1c 3c
       -0.0025741628 -0.021130143 -0.013566241 0.009521766
000070 b7 39 15 bd f1 36 a0 b9 b5 5a 04 3d d7 12 8c bb
       -0.036431994 -0.00030558513 0.032313067 -0.004274707
000080 e3 da b6 bb e7 02 3a 3c cc 60 9c 3c d5 b8 0a 3c
       -0.0055802925 0.011353231 0.019089125 0.008466919
000090 3b 74 92 bc e0 b1 07 3c 95 f6 69 3c c3 bc e7 3a
       -0.017877689 0.008282155 0.014279981 0.0017680157
0000a0 82 46 52 3c dc 45 c8 bb 70 55 13 3c 02 d4 65 bb
       0.012834193 -0.0061118435 0.008992538 -0.0035068993
0000b0 2e f8 92 3c 1a 0b 3f 3c b7 d9 3b 3c af 32 d3 3c
       0.017940607 0.011660362 0.0114654815 0.025781004
0000c0 95 26 39 3c 48 e0 1d 3b e2 16 f7 bc 60 f4 12 bc
       0.011300703 0.002408998 -0.030162279 -0.008969396
0000d0 bd 4f 5e bc 69 0d 88 ba eb eb d6 bc 07 63 46 3b
       -0.013568816 -0.0010379973 -0.026235541 0.0030271427
0000e0 23 f4 6c bc 87 1c 70 3b 75 7f 7c 3d 19 27 a7 bc
       -0.014462504 0.0036638097 0.06164499 -0.020404385
0000f0 8d a8 ec bb 6a e4 99 3c ea 61 fe 3c 9d cc 45 bc
       -0.0072222413 0.018785674 0.031052548 -0.012072709
000100 e5 a8 3d 3c 85 06 ab 3c af ac 86 bc c3 bd f7 ba
       0.011575912 0.020877132 -0.016439764 -0.0018901158
000110 0a fd 84 bc f3 0c 0a 3c 27 3a 67 3c 98 e7 5f bc
       -0.01623394 0.008425939 0.014112986 -0.013666056
000120 c0 26 87 3b 55 33 76 bc 8a 6a d9 bc 38 10 84 bb
       0.0041244924 -0.015026887 -0.02654006 -0.0040302537
000130 c7 63 64 3c 1a e3 fd bc a2 ed 8a bc dd ba e2 bb
       0.013939804 -0.03099208 -0.016959015 -0.0069192485
000140 5a 91 f0 bb 4b 7d 86 bb 2a 9a 53 3c bf 7f 48 3c
       -0.007341546 -0.0041042916 0.012915174 0.012237488
000150 87 8b 11 3c d4 f1 27 bd f0 c9 ac bc b4 5d 41 3c
       0.008883364 -0.04100211 -0.021092385 0.011802126
000160 17 44 18 3c 6a 45 6b 3c af b8 6a bb 3f ba 31 bc
       0.009293578 0.014359811 -0.0035815646 -0.010847627
000170 6b 1b fb 3c 27 5d 9d bc 8a 56 c8 bc 7a 09 a1 bc
       0.030652722 -0.019209458 -0.024455328 -0.01965784
000180 27 1f 92 bc b0 d1 65 bc cb 4f 82 ba b0 53 5c bb
       -0.01783712 -0.014027044 -0.0009941993 -0.0033619218
000190 a0 46 4a 3b 58 6e a3 ba a3 16 d1 3b f2 f1 4f bb
       0.003086485 -0.0012468798 0.0063808723 -0.0031729904
0001a0 df 82 d0 3b 15 6d de 3c cd 06 e8 bc ff a6 be 3c
       0.0063632573 0.027151624 -0.028323555 0.02327299
0001b0 03 66 9c 3c bb cb 4f 3c 86 0a 25 3d c0 64 c2 bc
       0.019091612 0.0126828505 0.04029324 -0.023729682
0001c0 97 c6 9c bc 28 0c 54 3c df 10 68 bb 38 a8 35 bb
       -0.019137664 0.012942351 -0.0035410447 -0.0027718674
0001d0 6f 29 37 3d 1e ac 9e b8 a2 cd 54 bc 07 fc 65 3b
       0.04471725 -7.5660864e-05 -0.01298848 0.0035092847
0001e0 af d7 d9 3b 15 7b 14 3d b2 e4 9c 3b 87 be 2c bc
       0.006648026 0.036250193 0.004788005 -0.010543472
0001f0 a7 50 cb 3c f6 df 0d 3c b3 ab bc bb ac f8 23 3b
       0.024818731 0.0086593535 -0.005757773 0.0025020046
000200 a8 94 d3 bc a6 c4 8b bb 0f 20 96 bc df 3e c7 bb
       -0.02582772 -0.0042653857 -0.018325834 -0.006080493
000210 ff 87 85 bc 92 2e 7e bc cd b2 db bc 7b bf 70 3c
       -0.0163002 -0.015514033 -0.026818657 0.01469409
000220 52 0f bf bb 08 e7 d4 bc eb b5 c0 3c 82 98 7c 3c
       -0.0058306837 -0.02598907 0.023524245 0.01541722
000230 b2 bd 11 bb 57 59 11 bd 65 d9 c0 3b 20 65 51 bb
       -0.0022238311 -0.03548559 0.0058852904 -0.0031951144
000240 9f 2f 8f 3b 42 bf a8 3c a3 fc 98 3b 56 52 24 bd
       0.0043696905 0.020599011 0.0046687885 -0.040117584
000250 1f 95 96 bb 5d 01 7c 3c 06 25 25 bc 1e 53 0a ba
       -0.0045954133 0.015381184 -0.010079628 -0.00052766677
000260 c2 aa 4e 3b 8b 11 64 bc fd a8 ae bc 5b 5f 38 3b
       0.0031534885 -0.013920198 -0.021320814 0.0028133008
000270 df 78 82 bb d5 24 0b bc 50 6c 61 bc 15 a6 f0 bc
       -0.003981694 -0.008492668 -0.013758734 -0.02937607
000280 87 32 a1 bb 60 3e f3 3c 3b 20 90 bb 35 dc a1 3c
       -0.0049193534 0.029692829 -0.0043983734 0.019758323
000290 eb ca 6d 3c 7b d4 e1 3c 3e 0d 23 bd 38 c2 03 3c
       0.014513711 0.027567139 -0.03980755 0.008041911
0002a0 a0 5a 54 bb 65 9d d3 3c 8a 67 45 3c cd 00 fb bb
       -0.003240265 0.025831887 0.012048611 -0.0076600076
0002b0 3f cc 23 3c 83 5c e3 3b 94 9f 93 bb 67 b6 07 bb
       0.0099974265 0.0069385185 -0.004505107 -0.0020708086
0002c0 a2 a0 27 3c 5f 68 37 bc bb f0 81 bc 37 09 d5 3c
       0.010231169 -0.011194318 -0.01586186 0.02600537
0002d0 3e c0 b5 3c 9d 34 69 3c 10 89 8d 3a af e4 df bb
       0.022186395 0.014233735 0.0010798294 -0.006832681
0002e0 9b bd 12 3c 76 2d be bc 64 e7 90 3c 47 33 b4 3c
       0.008956338 -0.023215037 0.01768846 0.021997107
0002f0 03 c7 0a bc 0d 2b 94 3c ed 01 2d bc e7 7b 54 3c
       -0.0084703 0.018086934 -0.010559541 0.012968994
000300 fe 91 83 3c 61 09 24 bc d5 5b a6 3c df 83 82 3c
       0.016060825 -0.010012002 0.02030746 0.015932022
000310 bf 71 6d 3b 30 b5 86 bc 9e 38 10 bc 5d 92 06 bc
       0.0036231128 -0.016443819 -0.008802561 -0.008213607
000320 9f 4d 42 bc 4e 79 17 3c 47 79 3d 3c 01 6c 22 3d
       -0.011859327 0.00924523 0.011564559 0.03965378
000330 75 4d 75 3c ab b4 47 bc a3 3e 89 bc 88 32 00 3c
       0.0149720805 -0.012189071 -0.0167535 0.007824548
000340 4b cb 81 bb 1f 87 a5 3b 3f 1d 15 3c 6d 86 8a bc
       -0.003961002 0.005051508 0.009101211 -0.016909802
000350 eb e2 98 bc 56 a7 11 bd dd a5 eb ba 14 04 46 3c
       -0.01866289 -0.035559975 -0.0017978508 0.012085933
000360 43 d6 04 3d ef 02 14 3c 84 8a 86 bc 7d 94 8e bb
       0.0324309 0.009033903 -0.016423471 -0.0043511973
000370 0f e1 fc 3b cb 68 e4 bb 8d e3 0b bd c0 08 94 bb
       0.0077172588 -0.0069705 -0.034152556 -0.0045176446
000380 cd 8f f5 bb 2b eb 64 3c d9 b2 93 bb 77 ce c3 bc
       -0.007493949 0.013972084 -0.0045074043 -0.023902161
000390 05 39 2c b9 e2 02 77 3b 58 9b 1c 3c 2b 75 95 ba
       -0.0001642444 0.0037690927 0.009558521 -0.0011402717
0003a0 95 35 94 3b 97 ca 1b bc 45 89 36 bc 62 79 be bb
       0.004522989 -0.00950875 -0.011141126 -0.00581281
0003b0 b8 73 eb 3b 5d 01 ff ba 77 6f 0f bc 73 6f ea 3c
       0.0071854256 -0.0019455362 -0.008754603 0.028617596
0003c0 3f be b7 3a 93 2f 86 bc ed fd f8 3c 71 aa a4 3c
       0.001401849 -0.016380107 0.030394519 0.020100804
0003d0 0a ba 3c 3c 04 c4 27 3c bf d1 56 ba fa 86 8e bb
       0.011518965 0.010239605 -0.0008194707 -0.0043495866
0003e0 47 16 aa bb 3f 0e a6 bc 0e fe c5 ba 3a 47 1e 3c
       -0.005190644 -0.020270465 -0.0015105621 0.009660536
0003f0 1b 21 08 3d 59 d0 cb 3c 6f 83 d3 bc 0f 37 10 bd
       0.033234697 0.024879621 -0.025819508 -0.035208758

action_model._continuous_distribution.mu.bias f4 [3]
000000 00 00 00 00 00 00 00 00 00 00 00 00
       0.0 0.0 0.0

network_body.observation_encoder.processors.0.normalizer.running_mean f4 [7]
000000 f3 33 3e ba 9a 73 f6 3b 00 00 00 00 58 0d 6c 3f
       -0.0007255666 0.007521105 0.0 0.9220786
000010 07 fc 7f 3f 98 a9 52 3e 4d 0e c7 bd
       0.9999394 0.20572507 -0.097195245

network_body.observation_encoder.processors.0.normalizer.running_variance f4 [7]
000000 7d 68 90 40 59 a6 a7 40 00 00 80 3f c7 92 9e 43
       4.512755 5.239056 1.0 317.1467
000010 0f ff ff 3f ab e2 0b 46 12 31 d1 45
       1.9999713 8952.667 6694.134

network_body.processors.0.normalizer.running_mean f4 [7]
000000 f3 33 3e ba 9a 73 f6 3b 00 00 00 00 58 0d 6c 3f
       -0.0007255666 0.007521105 0.0 0.9220786
000010 07 fc 7f 3f 98 a9 52 3e 4d 0e c7 bd
       0.9999394 0.20572507 -0.097195245

network_body.processors.0.normalizer.running_variance f4 [7]
000000 7d 68 90 40 59 a6 a7 40 00 00 80 3f c7 92 9e 43
       4.512755 5.239056 1.0 317.1467
000010 0f ff ff 3f ab e2 0b 46 12 31 d1 45
       1.9999713 8952.667 6694.134

network_body._body_endoder.seq_layers.0.weight f4 [128, 7]
000000 b6 db 3c 3e b0 33 b2 bd 8f fe e3 be 00 19 9c bd
       0.18443188 -0.08701265 -0.4453015 -0.07621956
000010 ef 7a 36 be b2 98 45 3d ee 0b ea 3d c2 a8 ab bc
       -0.17820333 0.048241325 0.11428057 -0.020954493
000020 2b 14 9a bf 41 b1 56 3e a6 32 a1 3e 3c 2d eb be
       -1.2037405 0.20966054 0.31483954 -0.4593295
000030 57 3a 94 3e 41 b9 a0 3e 48 e8 8d be 8a 39 b0 3e
       0.2895076 0.31391338 -0.2771628 0.344189
000040 6f c3 5d 3e 1f 67 09 3f 2f fd 28 3f 1b 9a a5 3e
       0.21656583 0.53672975 0.6601133 0.32344136
000050 ef 4b 98 be 62 6d 02 3e b6 21 f0 be 95 6d 07 be
       -0.29745433 0.12737039 -0.4690072 -0.13225396
000060 aa 86 d9 3b 76 d5 14 bf 00 49 ab be 6c 0e cf 3e
       0.0066383677 -0.58138216 -0.33454132 0.4044069
000070 20 84 9b be 44 14 a2 be af a1 ac 3e 92 f0 3f 3f
       -0.3037424 -0.31656086 0.33717105 0.74976456
000080 5a 2d d1 3e de e1 17 3b cc d5 81 3e 28 28 01 bf
       0.40854913 0.0023175399 0.25358427 -0.504519
000090 b1 18 af 3c 54 ac 93 3c 8b 67 be 3e 24 47 e4 bd
       0.021374078 0.018026508 0.37188372 -0.111463815
0000a0 c1 24 bd be 7e 80 9f be f2 1e 20 3e 19 5c 51 bc
       -0.36942104 -0.3115272 0.15636805 -0.012778305
0000b0 26 9b 81 3e a3 a5 d6 3d c2 8b a7 bd ab 39 1a be
       0.2531368 0.104808114 -0.081809536 -0.15061061
0000c0 c8 51 14 bc ae 90 b6 3e d8 76 06 3e 07 1a 48 bf
       -0.009052701 0.35657257 0.13131273 -0.78164715
0000d0 6f 04 c0 3e 4b 57 56 3d 16 86 b2 3e c3 bd bf be
       0.37503383 0.052329343 0.34867924 -0.37449464
0000e0 51 37 c3 be 0c e0 e7 be ed 10 8e be 70 c8 1a 3e
       -0.3812814 -0.45288122 -0.27747288 0.15115523
0000f0 08 f8 c1 bd 79 46 66 be 10 55 b5 3e 95 d6 b4 3e
       -0.09471136 -0.2248782 0.3541646 0.35319963
000100 41 31 00 3d 17 9e ef bd b9 94 a8 be 2a 4e ad 3e
       0.031296972 -0.11700075 -0.32925966 0.33848697
000110 7e 43 17 be 37 8b 4f 3d b8 84 de be 0f 6f 9c 3d
       -0.1477184 0.050669875 -0.4346063 0.0763837
000120 a3 03 91 bf 40 b3 d6 be a4 0a 99 3e e9 7d 85 3d
       -1.1329235 -0.41933632 0.2989093 0.06518156
000130 81 3f 8f 3d ca 8c be be 5d d5 b7 3e 20 25 52 be
       0.06994534 -0.3721679 0.3590497 -0.20521975
000140 ad d7 6a 3f fc e1 00 3e 2b aa 32 3e e9 d3 8d be
       0.91735345 0.12586206 0.17447726 -0.27700737
000150 82 88 07 be 24 f5 71 be d7 5c 34 bf 9b 5a 8c 3e
       -0.13235667 -0.2362867 -0.7045416 0.27412876
000160 7a 46 10 bf e6 ef 08 bf 7e 39 e6 be 20 93 70 3e
       -0.5635754 -0.53491056 -0.44965738 0.23493624
000170 f3 e9 49 be 34 3c 38 3d 94 a7 45 be 0c ff 93 be
       -0.19718151 0.04497929 -0.19302207 -0.28905523
000180 b2 d0 d7 be 07 12 25 bf 29 1b 4f bc 93 1b cd 3e
       -0.4215141 -0.6448063 -0.012640753 0.400601
000190 27 13 49 be cb 1c 05 bf 3f ce 7a be ff 80 6f bd
       -0.19636212 -0.5199706 -0.24492739 -0.05847263
0001a0 74 bf e8 b9 e1 fd d2 3e d3 a7 26 3e c0 e8 ee bc
       -0.00044393132 0.4120932 0.16274957 -0.029163718
0001b0 f7 ba 34 3d 44 77 88 be 49 8d 89 3e c4 68 7e bd
       0.044123616 -0.26653492 0.26865605 -0.06211163
0001c0 ba 39 94 be 1c 8c 80 be dc 70 50 3e b0 83 b5 3e
       -0.28950292 -0.25106895 0.20355552 0.35452032
0001d0 f9 74 2e bd f0 d1 91 3e e2 4b 72 be df 39 64 3e
       -0.042592023 0.28480482 -0.2366176 0.22287701
0001e0 99 12 90 3e 7f 83 c5 bc 77 4c fa b8 7a 74 1e bd
       0.2813919 -0.024110554 -0.00011935172 -0.0386853
0001f0 a6 d7 7b 3d 5d ad 87 bd 72 8b 00 bf 1c d7 a6 3e
       0.061484955 -0.06624863 -0.50212777 0.3258599
000200 4a 6c f3 be 52 7f c3 be 6c ac 0c bf e5 7b 57 3d
       -0.47543555 -0.38183075 -0.54950595 0.05260839
000210 19 90 c4 3e ed 1c 4b 3f 13 48 27 bf 4c e0 3f be
       0.38391188 0.7934101 -0.6534435 -0.18737906
000220 2f 3e a4 3c cf ed 42 3c 3e 48 07 bd 60 61 9e 3e
       0.020049183 0.011897518 -0.03302788 0.30933666
000230 59 0c a2 3e 46 14 2c bf fa 70 41 bd 94 b3 73 3e
       0.31650046 -0.67218435 -0.047226883 0.23798972
000240 4b 53 0d be c5 b2 3b 3f 4c 30 01 bf f2 3d e4 be
       -0.13801305 0.73319656 -0.5046432 -0.4457851
000250 59 17 5d be a0 66 e2 be e3 03 f4 3c e7 b8 9c 3e
       -0.21590938 -0.44218922 0.02978701 0.3060982
000260 50 a7 9c be c1 75 d4 be d7 65 fc be e7 93 e8 bd
       -0.305964 -0.4149609 -0.49296448 -0.11356335
000270 b4 37 97 be 42 af 6f bd 7c 0f 9c 3e 8b 62 80 3e
       -0.29534686 -0.05851675 0.30480564 0.25075182
000280 bd 64 3e be 5c 41 c3 3e 53 31 e1 3e 84 34 d3 3e
       -0.18593116 0.38135803 0.43982944 0.41251004
000290 e2 bb 02 3f a4 7f dc be 9e 73 aa 3e b9 75 fc 3e
       0.51067936 -0.43066132 0.33291334 0.49308565
0002a0 c9 c2 9c be 42 3a 2d 3f 74 06 bd 3e 1a 3d 11 bf
       -0.3061736 0.6766702 0.36918986 -0.5673386
0002b0 bf 73 44 3d 6c 68 35 be 60 74 3e 3e cd d1 46 3f
       0.047961947 -0.17715615 0.18599081 0.7766388
0002c0 58 d0 64 be db 01 24 3e 5e de 05 3f b2 13 35 bf
       -0.22345102 0.16016333 0.5229243 -0.7073318
0002d0 bf b8 85 be 4c 12 97 3e 41 87 48 bf a7 b8 08 bd
       -0.26117513 0.29506147 -0.7833138 -0.033379223
0002e0 10 77 73 3f 49 9e 65 3e b8 89 1c 3e 63 85 f2 be
       0.9510355 0.22423662 0.1528691 -0.4736739
0002f0 7b 40 79 3d 95 79 17 bf 2f 56 b2 be 13 ac 56 bd
       0.06085251 -0.59169894 -0.34831378 -0.052410197
000300 b1 28 42 bb b1 62 d3 3e 70 26 74 bd d9 c7 97 3e
       -0.0029626305 0.41286233 -0.05960697 0.2964466
000310 c8 0d 21 be 8d cc f9 3d 27 1d 21 3e 53 51 be 3e
       -0.15727913 0.12197218 0.15733777 0.3717142
000320 00 93 95 be ee 8b 3a 3d 63 9e 00 3e 42 c7 bb 3e
       -0.29213715 0.045543604 0.1256042 0.3667546
000330 21 05 34 3e 63 54 44 be 7a 7e 61 3e 7f ee c2 be
       0.17580082 -0.19172816 0.22020903 -0.38072583
000340 aa 97 00 3f 2a 88 f5 be 6c b9 dc 3d 5c 65 ea 3e
       0.5023142 -0.47955447 0.10777554 0.45780456
000350 6b 0c c9 3e f7 0c 7f bf d2 4c 19 bf e5 33 8d be
       0.39267287 -0.9962916 -0.59882843 -0.27578655
000360 c2 b5 92 bd 4e 51 c0 be ec 6e 02 bf cd c5 42 3f
       -0.07163574 -0.3756203 -0.50950503 0.7608307
000370 be b3 91 be 81 92 5d 3e a6 50 a8 3e ed 1d 55 3f
       -0.28457445 0.21637918 0.3287403 0.8324879
000380 6f 8d 40 bd a1 e9 d2 be e3 44 61 3f 31 67 c7 be
       -0.04700988 -0.4119387 0.8799574 -0.38945916
000390 b9 c5 08 3e b9 f3 4e be f6 8a d9 3e 42 53 a8 be
       0.13356675 -0.2021016 0.4248883 -0.3287602
0003a0 d4 e2 dd ba b4 78 d7 bd 0a e6 f2 3e 95 b9 55 3d
       -0.0016928562 -0.10521069 0.4744113 0.052178938
0003b0 9b 98 d5 3c c8 b7 5a 3d 56 a1 9a 3e 63 96 84 be
       0.026073745 0.053397924 0.30201215 -0.25895986
0003c0 f2 b3 16 3e ee 48 3d 3f 2b bb bd 3d b9 db 99 bd
       0.14717081 0.73939407 0.09264215 -0.07512612
0003d0 0b 7c 00 bf f9 13 31 3f 9c 8c 37 bf bc 94 2d bf
       -0.50189275 0.691711 -0.7169893 -0.67805076
0003e0 f0 3d 19 be ea 55 0c 3e 87 b8 7e 3e 05 52 76 be
       -0.14965034 0.13704649 0.24875079 -0.24054725
0003f0 ca 3a 0d bf 32 4a ab be 87 2e 29 be a0 31 ac be
       -0.5516783 -0.33455044 -0.16521655 -0.3363161

network_body._body_endoder.seq_layers.0.bias f4 [128]
000000 00 00 00 00 00 00 00 00 00 00 00 00 00 00 00 00
       0.0 0.0 0.0 0.0
000010 00 00 00 00 00 00 00 00 00 00 00 00 00 00 00 00
       0.0 0.0 0.0 0.0
000020 00 00 00 00 00 00 00 00 00 00 00 00 00 00 00 00
       0.0 0.0 0.0 0.0
000030 00 00 00 00 00 00 00 00 00 00 00 00 00 00 00 00
       0.0 0.0 0.0 0.0
000040 00 00 00 00 00 00 00 00 00 00 00 00 00 00 00 00
       0.0 0.0 0.0 0.0
000050 00 00 00 00 00 00 00 00 00 00 00 00 00 00 00 00
       0.0 0.0 0.0 0.0
000060 00 00 00 00 00 00 00 00 00 00 00 00 00 00 00 00
       0.0 0.0 0.0 0.0
000070 00 00 00 00 00 00 00 00 00 00 00 00 00 00 00 00
       0.0 0.0 0.0 0.0
000080 00 00 00 00 00 00 00 00 00 00 00 00 00 00 00 00
       0.0 0.0 0.0 0.0
000090 00 00 00 00 00 00 00 00 00 00 00 00 00 00 00 00
       0.0 0.0 0.0 0.0
0000a0 00 00 00 00 00 00 00 00 00 00 00 00 00 00 00 00
       0.0 0.0 0.0 0.0
0000b0 00 00 00 00 00 00 00 00 00 00 00 00 00 00 00 00
       0.0 0.0 0.0 0.0
0000c0 00 00 00 00 00 00 00 00 00 00 00 00 00 00 00 00
       0.0 0.0 0.0 0.0
0000d0 00 00 00 00 00 00 00 00 00 00 00 00 00 00 00 00
       0.0 0.0 0.0 0.0
0000e0 00 00 00 00 00 00 00 00 00 00 00 00 00 00 00 00
       0.0 0.0 0.0 0.0
0000f0 00 00 00 00 00 00 00 00 00 00 00 00 00 00 00 00
       0.0 0.0 0.0 0.0
000100 00 00 00 00 00 00 00 00 00 00 00 00 00 00 00 00
       0.0 0.0 0.0 0.0
000110 00 00 00 00 00 00 00 00 00 00 00 00 00 00 00 00
       0.0 0.0 0.0 0.0
000120 00 00 00 00 00 00 00 00 00 00 00 00 00 00 00 00
       0.0 0.0 0.0 0.0
000130 00 00 00 00 00 00 00 00 00 00 00 00 00 00 00 00
       0.0 0.0 0.0 0.0
000140 00 00 00 00 00 00 00 00 00 00 00 00 00 00 00 00
       0.0 0.0 0.0 0.0
000150 00 00 00 00 00 00 00 00 00 00 00 00 00 00 00 00
       0.0 0.0 0.0 0.0
000160 00 00 00 00 00 00 00 00 00 00 00 00 00 00 00 00
       0.0 0.0 0.0 0.0
000170 00 00 00 00 00 00 00 00 00 00 00 00 00 00 00 00
       0.0 0.0 0.0 0.0
000180 00 00 00 00 00 00 00 00 00 00 00 00 00 00 00 00
       0.0 0.0 0.0 0.0
000190 00 00 00 00 00 00 00 00 00 00 00 00 00 00 00 00
       0.0 0.0 0.0 0.0
0001a0 00 00 00 00 00 00 00 00 00 00 00 00 00 00 00 00
       0.0 0.0 0.0 0.0
0001b0 00 00 00 00 00 00 00 00 00 00 00 00 00 00 00 00
       0.0 0.0 0.0 0.0
0001c0 00 00 00 00 00 00 00 00 00 00 00 00 00 00 00 00
       0.0 0.0 0.0 0.0
0001d0 00 00 00 00 00 00 00 00 00 00 00 00 00 00 00 00
       0.0 0.0 0.0 0.0
0001e0 00 00 00 00 00 00 00 00 00 00 00 00 00 00 00 00
       0.0 0.0 0.0 0.0
0001f0 00 00 00 00 00 00 00 00 00 00 00 00 00 00 00 00
       0.0 0.0 0.0 0.0

network_body._body_endoder.seq_layers.2.weight f4 [128, 128]
000000 b2 31 b2 3d fa a9 b8 bc 05 b3 97 3c 52 8c 89 3d
       0.08700885 -0.022541989 0.01851798 0.06716217
000010 7c 70 4a 3d f2 7c 54 bc a7 c8 17 3d ad 7a b5 3d
       0.04942368 -0.012969242 0.03705659 0.08861289
000020 81 a2 b9 bc 73 0d 32 be 44 9a 03 3d 88 fe 07 3e
       -0.022660496 -0.17387943 0.03212954 0.1328069
000030 cb 17 29 3e 89 b9 cf bd 0e 32 e0 3b 0a 1a 7d 3d
       0.16512983 -0.1014281 0.0068419045 0.06179241
000040 ef a1 9e bc 28 0f 8c bd 23 e7 4e 3b 5a c2 f7 3c
       -0.019364325 -0.06838828 0.0031570874 0.030244041
000050 1c 58 9b bd ea 03 cf 3d 2d a2 27 bc 2d d6 15 bc
       -0.07585165 0.101081684 -0.010231537 -0.009145302
000060 7d ca c0 3d 21 70 c6 bd 2b 66 aa 3c d1 92 3d 3b
       0.094136216 -0.09689356 0.02080067 0.002892662
000070 1a c4 5d 3d d3 fd 15 be 7a 05 41 bd 06 64 0f 3d
       0.054142095 -0.14647608 -0.047124363 0.0350075
000080 ac 66 eb bd 3d 69 e5 bd 96 65 51 bb af d8 24 bc
       -0.114941925 -0.11201713 -0.003195142 -0.010061427
000090 24 cf 79 3d 71 70 b0 bb 4a d8 88 3d 05 2c fe 3d
       0.06098856 -0.005384498 0.06681879 0.1241074
0000a0 5c ee ec 3b 2d 00 e3 bc 32 d3 31 3d 44 bc 11 3d
       0.007230563 -0.027710045 0.043414302 0.035579935
0000b0 f1 f9 6b 3d 21 b9 89 3d 1f 2a 86 bd 68 6a 57 bd
       0.05761141 0.06724764 -0.06551003 -0.05259171
0000c0 68 e0 75 bd 64 21 0d bd 76 06 52 bd 98 99 2f 3d
       -0.060028464 -0.034455672 -0.051275693 0.042871088
0000d0 f3 09 ad 3d a0 d8 a3 bd 02 89 80 3d 57 3a 4b 3e
       0.08449163 -0.08000302 0.06276132 0.19846474
0000e0 cb 5e 7b 3d a4 ab f7 bb a5 f3 08 3e df 24 c5 3d
       0.0613697 -0.007558303 0.13374193 0.09626173
0000f0 38 8a 11 3d 96 55 ca 3a ae f6 42 3e 57 50 fa 3c
       0.035532206 0.0015436884 0.19039413 0.030555887
000100 35 a0 b2 3d 6f 3e 46 3d 29 ab 4b bc 2c 61 88 3d
       0.08721963 0.048399385 -0.0124309445 0.06659159
000110 3a 77 8f bd 3e 52 45 bd cf 5a 81 3d 1d 4e da bd
       -0.070051625 -0.048174135 0.063161485 -0.1065943
000120 50 ac b1 bd 11 27 76 bd c9 16 7a bd 2e b8 48 3d
       -0.08675444 -0.06009585 -0.061056886 0.049003772
000130 db 70 73 3d f3 a9 02 3a 5d 30 a4 3d de 95 77 3d
       0.0594338 0.0004984431 0.08017037 0.06044566
000140 6f 42 2d be 9e 8e c6 3c 67 13 17 bd 64 5c 92 bc
       -0.16919874 0.024237927 -0.036883738 -0.01786632
000150 84 f8 5d bd 3c 21 4f be 24 00 aa bc 03 5f 94 3d
       -0.05419208 -0.20227522 -0.02075202 0.072446845
000160 57 03 9a bd 65 52 ef bd 2b 70 1b 3b ee ea d9 3b
       -0.07520168 -0.116856374 0.002371798 0.0066503203
000170 ff c4 2a 3e df fa 0f be 70 80 92 bd 3f f6 d6 bc
       0.1667671 -0.14060543 -0.07153404 -0.026240466
000180 7f 8b 9e bd 25 91 c6 bc ca 88 f0 3c a5 16 66 bd
       -0.077414505 -0.024239132 0.029362101 -0.05617394
000190 21 64 64 bd 22 2f 1a 3d 87 0d 04 be 51 c9 96 bc
       -0.055759553 0.037642606 -0.12895785 -0.018406542
0001a0 f2 e3 a7 bd 38 73 a5 bc e4 b8 7e bd a1 08 07 be
       -0.08197774 -0.020196542 -0.062188044 -0.13186885
0001b0 fe d8 19 be aa 28 39 3c 2b 9c 7f bd c1 98 b2 bd
       -0.15024182 0.011301199 -0.062404793 -0.08720542
0001c0 67 51 9a bc d7 ec 51 3d 71 ac f7 bd 05 43 de bc
       -0.018837644 0.05125126 -0.120934375 -0.027131567
0001d0 f8 e7 35 3d cc b4 95 bd 80 11 5a bd b1 ef 86 bd
       0.044410676 -0.07309875 -0.053239346 -0.06588686
0001e0 de d4 f6 3d 7b c6 f3 3d 90 d0 b7 bd 96 a6 93 3d
       0.1205232 0.119030915 -0.08975327 0.07209508
0001f0 e4 d9 e1 bd 96 45 06 3e a1 ea d0 3c 6f 29 01 3e
       -0.110278875 0.13112482 0.025502505 0.12613462
000200 d9 52 15 bb 3d 16 25 3e 1f bc 01 3e 49 0f f9 bd
       -0.0022784977 0.16121764 0.12669419 -0.121611185
000210 b7 a8 5e bd dd de 1f 3e 48 5f 04 3b f4 55 2b 3c
       -0.054360118 0.1561236 0.0020198394 0.010457505
000220 8d 54 7c 3e d2 ad da 3d f4 79 0b be b0 15 ba bc
       0.24641629 0.10677685 -0.1362074 -0.02271542
000230 89 21 2b be c6 94 f2 3c c4 2f 1b bd 3b a0 01 bc
       -0.16712011 0.029611956 -0.03788735 -0.007911737
000240 50 51 62 3d b0 64 fa bb 1f eb 3e 3d bb bd b0 bd
       0.055253327 -0.0076413974 0.046610948 -0.08629938
000250 18 15 cc 3d 2c 52 3e 3d 7a 6a 62 bc a0 82 c0 bd
       0.09964961 0.046465084 -0.013819331 -0.09399915
000260 89 ea f9 3c fc 4a 8a 3d 8b 6a f7 bb d9 d4 27 be
       0.030507343 0.067525834 -0.0075505427 -0.16389789
000270 ed f4 ba bd 98 88 3c be aa 60 8c 3c f7 b0 a7 bd
       -0.09128747 -0.18411481 0.017135937 -0.0818805
000280 6e ea d5 3d d0 1e 1a be 14 05 33 be b2 90 e7 3d
       0.104451045 -0.15050817 -0.17482406 0.11306895
000290 fa 8d 83 bb 5b e9 8c bb 4e 4e d2 bb ed 14 5e 3d
       -0.0040147277 -0.004300279 -0.006418026 0.054219175
0002a0 0d 53 f5 bc 91 b6 60 bb 43 34 30 bd d0 fb 5e 3c
       -0.029946828 -0.0034288506 -0.04301859 0.0136098415
0002b0 8f 4e c1 bc 7c 7e f5 bd 18 b4 d3 3c c5 af dc 3c
       -0.02359703 -0.119870156 0.025842711 0.026939282
0002c0 3b 22 9c bd 8d cd bf bd 79 6d 57 bc 3e 85 02 be
       -0.076237164 -0.093653776 -0.013148659 -0.1274614
0002d0 6a f7 82 3d 83 e5 d1 3d b7 58 f8 bd e4 b2 02 bd
       0.06394847 0.10248854 -0.12126296 -0.031908885
0002e0 46 53 78 bc 9b b6 e2 bc ac 00 e8 bc 98 35 da bd
       -0.015156573 -0.027674964 -0.028320633 -0.106547534
0002f0 78 31 9e 3d 2c d8 4b be e0 6e be bb 4e 18 7d bd
       0.07724279 -0.19906682 -0.005811557 -0.061790757
000300 08 a2 0b 3c 49 79 da bd 70 cb cb 3d e1 34 95 bd
       0.008522518 -0.106676646 0.09950912 -0.072854765
000310 de d4 a1 bd 8e 46 6e 3d dc 2b b3 3c 50 05 85 bd
       -0.07901929 0.058172755 0.0218715 -0.06495154
000320 d4 72 cf 3d 5f 0a 0e be 54 f0 80 3d ca d2 c2 3c
       0.101293236 -0.13871144 0.06295839 0.023782153
000330 1a 3c 32 3d fa f9 da 3c 28 c1 7b bd ab 06 c5 3d
       0.04351435 0.026730526 -0.061463505 0.096204124
000340 4b 86 8d bc 02 45 ac 3d 1e 51 db 3c a7 93 9b 3d
       -0.01727595 0.084116 0.026772078 0.07596522
000350 92 16 3f 3d 8a db b8 3d 92 da 98 3c c1 93 62 3d
       0.046652384 0.09026249 0.01865891 0.05531669
000360 eb 3f 4d be df a2 4d 3c aa 97 ab 3c a4 92 4c bd
       -0.20043914 0.0125510385 0.020946342 -0.049944535
000370 72 90 9d bd 3f 68 32 be 9b 22 19 be 45 a4 f5 bd
       -0.076935664 -0.17422579 -0.14954607 -0.119942226
000380 09 9a 80 bc 16 84 a0 bd a5 3b 35 3e 5d 66 cb bd
       -0.01569845 -0.078376934 0.17698534 -0.099316336
000390 8e 05 a5 bd 47 be 89 3c 4f 9d 23 3e f7 4a db bb
       -0.080577 0.016814364 0.15977977 -0.006692286
0003a0 d8 e4 dc 3d fb 49 b1 3c 52 95 09 3e 34 2b 02 bd
       0.10785836 0.021641722 0.13435867 -0.031779483
0003b0 61 db 87 3d 08 75 10 bb 8d c7 b3 bb bd 7c a8 bc
       0.0663364 -0.0022042412 -0.005486435 -0.020567292
0003c0 7b e2 22 3d fe 44 0f 3d ea ee 00 bd bd ee e3 3d
       0.03976677 0.034977905 -0.031477846 0.1112952
0003d0 53 41 e2 3d 08 f9 b3 bd 5f a2 6a 3c 7d 06 05 3e
       0.11047616 -0.08787733 0.014320939 0.12990756
0003e0 55 8a 45 3c 62 71 99 bc c4 f1 1b bd 59 c6 96 3d
       0.012056907 -0.018730823 -0.038072363 0.073620506
0003f0 5f 56 06 bd 17 29 ef 3c fc ae bc 3b dc 40 04 3d
       -0.032797214 0.029194398 0.0057581645 0.032288417

network_body._body_endoder.seq_layers.2.bias f4 [128]
000000 00 00 00 00 00 00 00 00 00 00 00 00 00 00 00 00
       0.0 0.0 0.0 0.0
000010 00 00 00 00 00 00 00 00 00 00 00 00 00 00 00 00
       0.0 0.0 0.0 0.0
000020 00 00 00 00 00 00 00 00 00 00 00 00 00 00 00 00
       0.0 0.0 0.0 0.0
000030 00 00 00 00 00 00 00 00 00 00 00 00 00 00 00 00
       0.0 0.0 0.0 0.0
000040 00 00 00 00 00 00 00 00 00 00 00 00 00 00 00 00
       0.0 0.0 0.0 0.0
000050 00 00 00 00 00 00 00 00 00 00 00 00 00 00 00 00
       0.0 0.0 0.0 0.0
000060 00 00 00 00 00 00 00 00 00 00 00 00 00 00 00 00
       0.0 0.0 0.0 0.0
000070 00 00 00 00 00 00 00 00 00 00 00 00 00 00 00 00
       0.0 0.0 0.0 0.0
000080 00 00 00 00 00 00 00 00 00 00 00 00 00 00 00 00
       0.0 0.0 0.0 0.0
000090 00 00 00 00 00 00 00 00 00 00 00 00 00 00 00 00
       0.0 0.0 0.0 0.0
0000a0 00 00 00 00 00 00 00 00 00 00 00 00 00 00 00 00
       0.0 0.0 0.0 0.0
0000b0 00 00 00 00 00 00 00 00 00 00 00 00 00 00 00 00
       0.0 0.0 0.0 0.0
0000c0 00 00 00 00 00 00 00 00 00 00 00 00 00 00 00 00
       0.0 0.0 0.0 0.0
0000d0 00 00 00 00 00 00 00 00 00 00 00 00 00 00 00 00
       0.0 0.0 0.0 0.0
0000e0 00 00 00 00 00 00 00 00 00 00 00 00 00 00 00 00
       0.0 0.0 0.0 0.0
0000f0 00 00 00 00 00 00 00 00 00 00 00 00 00 00 00 00
       0.0 0.0 0.0 0.0
000100 00 00 00 00 00 00 00 00 00 00 00 00 00 00 00 00
       0.0 0.0 0.0 0.0
000110 00 00 00 00 00 00 00 00 00 00 00 00 00 00 00 00
       0.0 0.0 0.0 0.0
000120 00 00 00 00 00 00 00 00 00 00 00 00 00 00 00 00
       0.0 0.0 0.0 0.0
000130 00 00 00 00 00 00 00 00 00 00 00 00 00 00 00 00
       0.0 0.0 0.0 0.0
000140 00 00 00 00 00 00 00 00 00 00 00 00 00 00 00 00
       0.0 0.0 0.0 0.0
000150 00 00 00 00 00 00 00 00 00 00 00 00 00 00 00 00
       0.0 0.0 0.0 0.0
000160 00 00 00 00 00 00 00 00 00 00 00 00 00 00 00 00
       0.0 0.0 0.0 0.0
000170 00 00 00 00 00 00 00 00 00 00 00 00 00 00 00 00
       0.0 0.0 0.0 0.0
000180 00 00 00 00 00 00 00 00 00 00 00 00 00 00 00 00
       0.0 0.0 0.0 0.0
000190 00 00 00 00 00 00 00 00 00 00 00 00 00 00 00 00
       0.0 0.0 0.0 0.0
0001a0 00 00 00 00 00 00 00 00 00 00 00 00 00 00 00 00
       0.0 0.0 0.0 0.0
0001b0 00 00 00 00 00 00 00 00 00 00 00 00 00 00 00 00
       0.0 0.0 0.0 0.0
0001c0 00 00 00 00 00 00 00 00 00 00 00 00 00 00 00 00
       0.0 0.0 0.0 0.0
0001d0 00 00 00 00 00 00 00 00 00 00 00 00 00 00 00 00
       0.0 0.0 0.0 0.0
0001e0 00 00 00 00 00 00 00 00 00 00 00 00 00 00 00 00
       0.0 0.0 0.0 0.0
0001f0 00 00 00 00 00 00 00 00 00 00 00 00 00 00 00 00
       0.0 0.0 0.0 0.0
