results/Shoot_v1/Shooter/Shooter-71564.pt (torch, 444937 bytes, 44 tensors)

network_body.observation_encoder.processors.0.normalizer.running_mean f4 [7]
0	0x3b0bf072	0.0021353033
1	0x3bfa4e7c	0.0076387506
2	0x00000000	0.0
3	0x3f5de0b2	0.8667098
4	0x3f7fff13	0.9999859
5	0xbda92862	-0.082596555
6	0xbe6e2560	-0.23256445

network_body.observation_encoder.processors.0.normalizer.running_variance f4 [7]
0	0x417ca39b	15.789943
1	0x41a5464c	20.659325
2	0x3f800000	1.0
3	0x4556491c	3428.5693
4	0x4000005e	2.0000224
5	0x46fd6905	32436.51
6	0x4707d29a	34770.6

network_body.processors.0.normalizer.running_mean f4 [7]
0	0x3b0bf072	0.0021353033
1	0x3bfa4e7c	0.0076387506
2	0x00000000	0.0
3	0x3f5de0b2	0.8667098
4	0x3f7fff13	0.9999859
5	0xbda92862	-0.082596555
6	0xbe6e2560	-0.23256445

network_body.processors.0.normalizer.running_variance f4 [7]
0	0x417ca39b	15.789943
1	0x41a5464c	20.659325
2	0x3f800000	1.0
3	0x4556491c	3428.5693
4	0x4000005e	2.0000224
5	0x46fd6905	32436.51
6	0x4707d29a	34770.6

network_body._body_endoder.seq_layers.0.weight f4 [128, 7]
0	0x3dd28d89	0.10280902
1	0xbe62bbe4	-0.22141987
2	0x3e8f7e11	0.2802587
3	0xbee4f25f	-0.44716164
4	0xbcad4192	-0.02114943
5	0x3dfdb395	0.12387768
6	0x3ea79a2d	0.32734814
7	0x3e813bcd	0.25240937
8	0xbf6b62f7	-0.91947883
9	0x3f1a8566	0.603598
10	0xbe59629c	-0.21229023
11	0xbe1bf225	-0.1522909
12	0x3e702e2d	0.23455115
13	0x3e0330f9	0.1281165
14	0x3dc5c7b5	0.09657232
15	0xbf399c6d	-0.7250431
16	0x3ea2b427	0.3177807
17	0xbd270887	-0.040779617
18	0xbebdff07	-0.37108633
19	0x3e7b4030	0.24536204
20	0x3f02f5b8	0.5115619
21	0xbec2be2f	-0.38035724
22	0xbf26d84d	-0.651738
23	0x3f32e556	0.6988119
24	0x3e6cb78e	0.23116896
25	0x3f0b6f05	0.5446628
26	0x3d4bd6f1	0.04976553
27	0x3f08eeae	0.53489196
28	0x3f364d76	0.71211946
29	0xbd9e0894	-0.0771648
30	0x3e1bca28	0.15213835
31	0xbee6b1aa	-0.45057422
32	0xbd375dd3	-0.044767212
33	0x3e1d0f50	0.15337873
34	0xbedbef67	-0.42956087
35	0x3d2d0b61	0.04224718
36	0x3f497ef7	0.7870936
37	0x3eced7e5	0.4039909
38	0x3d0659b1	0.03280038
39	0x3d962bc9	0.0733257
40	0xbd0538da	-0.03252492
41	0x3e4bd9d5	0.19907315
42	0xbed59b61	-0.41720107
43	0x3ebeedb8	0.3729074
44	0xbef1d4a8	-0.47232556
45	0x3d8bf021	0.0683291
46	0xbedcc159	-0.43116263
47	0xbdb8638a	-0.090033606
48	0xbe835eaf	-0.25658175
49	0xbeb7d54b	-0.35904917
50	0x3d31130a	0.043231048
51	0xbe9c93d7	-0.30581543
52	0xbec2ce1d	-0.38047877
53	0x3d94206f	0.07232749
54	0xbf52f7cd	-0.82409364
55	0x3e4990f5	0.19684203
56	0xbe0b311d	-0.13592954
57	0x3e0a4bc6	0.13505468
58	0xbf567512	-0.83772385
59	0xbc9b77c3	-0.018978005
60	0x3cedf3d9	0.02904694
61	0xbeb43bdf	-0.35201928
62	0x3f87ace1	1.0599633
63	0xbc388efb	-0.011264558
64	0xbdda86ca	-0.1067024
65	0x3eae35d5	0.34025446
66	0x3e36e9b1	0.17862584
67	0x3f25e1f2	0.6479789
68	0xbeeeb1b3	-0.4661995
69	0x3eccf4e7	0.40030596
70	0x3ee21092	0.44153267
71	0x3ec3d12f	0.38245532
72	0xbcd286c9	-0.025699036
73	0x3de73a54	0.11290422
74	0xbdd94ffe	-0.106109604
75	0xbdc77dd8	-0.097408
76	0xbe785c64	-0.24253994
77	0x3db27aa8	0.08714801
78	0xbe1ef763	-0.15524058
79	0xbee67687	-0.45012304
80	0xbdeb84d7	-0.114999466
81	0xbed91b8d	-0.42403832
82	0x3eee000d	0.46484414
83	0xbf2acbe2	-0.6671735
84	0xbe999503	-0.299965
85	0xbd0f0658	-0.03491816
86	0x3f1479bb	0.57998246
87	0x3e1562b8	0.1458844
88	0x3e6d9344	0.23200709
89	0x3f01f473	0.50763625
90	0xbef3121d	-0.47474757
91	0xbe2fd101	-0.17169572
92	0x3e1a20c4	0.15051562
93	0xbf11d19b	-0.5696046
94	0x3e2d447c	0.16920656
95	0x3e5a13a8	0.21296561
96	0x3ea192b2	0.31557232
97	0x3f19239f	0.5981998
98	0xbf3cbd47	-0.73726314
99	0xbe28e004	-0.16491705
100	0xbebf348e	-0.37344784
101	0x3ef0d7bb	0.4703959
102	0x3e4a832a	0.19776598
103	0x3f011dc4	0.50436044
104	0x3ebb528a	0.3658641
105	0xbccb0873	-0.024784302
106	0x3ed38b20	0.4131708
107	0x3ef8e2d9	0.4861057
108	0x3f090287	0.5351948
109	0xbdf9bc92	-0.1219417
110	0x3e041ba0	0.12901163
111	0xbe6e91ed	-0.23297854
112	0x3e833707	0.2562792
113	0x3dc1a712	0.09455694
114	0x3ea6627c	0.32497013
115	0xbe06e590	-0.13173509
116	0x3e63231a	0.22181359
117	0x3f00b480	0.5027542
118	0x3d8d2d86	0.068934485
119	0xbe1ac27e	-0.15113255
120	0x3f1f39af	0.62197393
121	0xbefd28bc	-0.4944514
122	0xbf20de64	-0.6283934
123	0xbde0a57f	-0.10969066
124	0xbe87db46	-0.2653448
125	0xbe3a9055	-0.18219121
126	0xbee86224	-0.45387375
127	0xbe9711d8	-0.295058
128	0x3f0cefef	0.5505361
129	0xbecb3bde	-0.39694113
130	0xbea46b4c	-0.3211311
131	0x3ea42171	0.32056764
132	0x3e14fd2c	0.14549702
133	0x3edd9ab2	0.43282086
134	0x3c25b206	0.010113245
135	0x3f52b8e8	0.82313395
136	0xbe10a39e	-0.14124915
137	0xbe41d8d0	-0.18930364
138	0x3ec248d0	0.37946177
139	0x3e1fc368	0.15601885
140	0x3e9ac64a	0.30229408
141	0xbe163a7d	-0.14670749
142	0xbf0477c3	-0.5174524
143	0xbecebf01	-0.403801
144	0x3f381b9a	0.71917117
145	0x3d7a2cad	0.061077762
146	0xbeb924c1	-0.36160854
147	0xbe80f987	-0.25190374
148	0xbdfcf4db	-0.1235139
149	0x3ee62044	0.44946492
150	0x3da43da8	0.080195725
151	0xbd9615b9	-0.07328362
152	0x3ebc6746	0.3679754
153	0xbdd7aeb7	-0.10531371
154	0xbee1d4a0	-0.44107533
155	0xbd038d76	-0.03211733
156	0xbec78d59	-0.38975027
157	0x3d4b9a09	0.049707446
158	0xbeb23b49	-0.34810856
159	0x3e26b0d0	0.16278386
160	0xbe813fbf	-0.25243947
161	0xbee4fc49	-0.44723728
162	0xbed51e3c	-0.4162463
163	0xbec156aa	-0.37761432
164	0xbf602e94	-0.8757107
165	0x3eaec04e	0.34131092
166	0xbf174c23	-0.5910055
167	0x3ec7aecc	0.39000547
168	0x3dcfd7d8	0.10148591
169	0xbf0359c8	-0.5130887
170	0x3e46dc8e	0.19420072
171	0xbe29097a	-0.16507521
172	0x3ed14bca	0.40878135
173	0x3eb41a55	0.3517634
174	0xbd6712d2	-0.056414433
175	0x3e10805b	0.14111464
176	0xbe513eb9	-0.20434083
177	0xbe24824d	-0.16065331
178	0x3da7e052	0.081970826
179	0xbe5f0a96	-0.21781382
180	0x3f82ba8f	1.0213183
181	0xbe9f50f5	-0.31116453
182	0xbef9e01f	-0.48803803
183	0x3f2501c3	0.64455813
184	0x3eb695a4	0.35661042
185	0x3ed7806a	0.4209016
186	0x3ef9553c	0.4869784
187	0xbe518c20	-0.2046361
188	0xbeb862f9	-0.3601301
189	0x3d3bab10	0.045817435
190	0x3ee497c4	0.44647038
191	0xbde3e2e1	-0.11127258
192	0xbdf6d380	-0.12052059
193	0xbd3c9cc7	-0.046047952
194	0x3e54b690	0.20772767
195	0x3e3ede52	0.18639496
196	0x3eadd886	0.33954257
197	0x3eb8392a	0.35981113
198	0xbf7d2e32	-0.98898613
199	0x3e1fc6c5	0.15603168
200	0xbe203220	-0.15644121
201	0x3dd4bc8a	0.103875235
202	0x3e6198b6	0.22030911
203	0xbf270169	-0.65236527
204	0x3ee79f9d	0.45238963
205	0xbe40df4c	-0.18835181
206	0x3e9f4bc4	0.31112492
207	0xbdd8555f	-0.10563158
208	0x3f36eea6	0.714579
209	0xbd7b16ef	-0.061301168
210	0x3e0c53c4	0.13703829
211	0xbd326eb9	-0.043562625
212	0x3e8f0a81	0.279377
213	0xbedb9f34	-0.428949
214	0x3f7221df	0.94582933
215	0xbd5a4411	-0.05328757
216	0xbe20a938	-0.15689552
217	0x3df4b632	0.119488135
218	0x3eae2204	0.34010327
219	0xbcdfffa0	-0.027343571
220	0x3d9fdee4	0.07806185
221	0x3f04aea3	0.51828974
222	0xbf2c3b6f	-0.6727819
223	0x3e53876d	0.2065713
224	0x3eb4dde2	0.35325533
225	0xbd43e422	-0.047824986
226	0x3ea04a79	0.31306818
227	0x3e901343	0.28139696
228	0x3ec3898b	0.38190874
229	0xbe1409f4	-0.14456922
230	0x3e155418	0.1458286
231	0x3f214188	0.6299062
232	0x3d16e82a	0.036842503
233	0x3dc74c74	0.09731379
234	0xbe3954f0	-0.18098807
235	0xbd691f8c	-0.05691485
236	0xbe0c7267	-0.13715516
237	0x3ece64c8	0.40311265
238	0xbec35e3e	-0.3815784
239	0xbd2d0261	-0.042238597
240	0xbefb9dfb	-0.49143967
241	0x3dc9e14d	0.09857426
242	0x3f3a4337	0.7275881
243	0x3f1d4b77	0.61443275
244	0x3e81663f	0.2527332
245	0x3e045646	0.12923536
246	0xbefd1846	-0.49432582
247	0xbd908522	-0.07056643
248	0xbf02a694	-0.5103543
249	0xbb8e267d	-0.0043380843
250	0xbe329900	-0.17441177
251	0xbe3bc200	-0.18335724
252	0x3efb6162	0.49097735
253	0xbec268b7	-0.37970516
254	0xbd826673	-0.06367197
255	0x3ecb912a	0.3975919

network_body._body_endoder.seq_layers.0.bias f4 [128]
0	0x39544cf2	0.0002024656
1	0x3b57c38b	0.003292295
2	0xba316105	-0.0006766471
3	0x3b84ee18	0.0040567033
4	0xbb26261f	-0.0025352312
5	0x3a68ea6a	0.0008885028
6	0xbb184578	-0.0023234766
7	0x3a4d5148	0.0007832241
8	0xbaedcc53	-0.0018142558
9	0x3b3adf28	0.002851436
10	0x3b033f69	0.002002681
11	0x3b33b174	0.0027419003
12	0x3b825bf8	0.0039782487
13	0x3b3f7a35	0.0029217128
14	0x3ac9917e	0.0015378443
15	0xba759dbf	-0.00093695143
16	0x3a437b95	0.0007457075
17	0x3aeb54e1	0.0017954373
18	0xbb7340a3	-0.0037117384
19	0x39ed0197	0.00045205347
20	0x3ab5f1ef	0.0013881306
21	0xbb2c8bf9	-0.0026328547
22	0xbb3a1e91	-0.0028399567
23	0x3a1287b9	0.0005589682
24	0xbb65cf0e	-0.003506604
25	0xbb4a515c	-0.0030871248
26	0x3b0f8425	0.0021898833
27	0xba057426	-0.0005090855
28	0x3a53d741	0.00080810866
29	0xbb7963a0	-0.0038053766
30	0x3a785857	0.0009473613
31	0x3a77b6bf	0.00094495335
32	0xbad72758	-0.0016414924
33	0xbb0665e7	-0.0020507516
34	0xbb130d62	-0.0022438397
35	0x3a6cfceb	0.0009040373
36	0x3a368776	0.0006962934
37	0x3b341dd5	0.0027483602
38	0xba38a59f	-0.00070437224
39	0x3b343b9c	0.002750135
40	0x3a276101	0.0006384999
41	0x3a45cea7	0.0007545747
42	0xbb305266	-0.0026904582
43	0xbac638b7	-0.0015123104
44	0x3a3ce803	0.00072062033
45	0xba31f37c	-0.0006788296
46	0x3b678c4c	0.0035331426
47	0xbb18f937	-0.0023341903
48	0xbb293f30	-0.0025825016
49	0xbaf2f556	-0.001853625
50	0x3a67dad4	0.00088445586
51	0xbaac95e1	-0.0013167226
52	0x3a8a2eab	0.0010542473
53	0x3b4958ac	0.0030723019
54	0x39ac956c	0.00032917724
55	0xba4ecc2f	-0.0007888702
56	0xbaad3597	-0.0013214824
57	0xba920e92	-0.0011143258
58	0x39a91190	0.00032247277
59	0x3b25ff55	0.0025329192
60	0x3985218c	0.0002539273
61	0x3b513c17	0.0031926685
62	0x3b53fbb0	0.0032346062
63	0x3a037b5b	0.0005015635
64	0xbb668d6d	-0.0035179511
65	0x3bb2748a	0.0054460214
66	0xb9fadda7	-0.0004784886
67	0xbadd8bce	-0.0016902627
68	0x3b1c91c7	0.00238906
69	0x3a5799ea	0.0008224534
70	0xbb86240f	-0.004093654
71	0x3b38fe53	0.002822776
72	0x3aa3e7db	0.0012505011
73	0xba574070	-0.0008211201
74	0xbaed96aa	-0.0018126566
75	0x3b7f1ed7	0.0038928294
76	0xb8692e47	-5.5594628e-05
77	0x3b5bbb26	0.0033528297
78	0x3af23855	0.0018479923
79	0xbacaf610	-0.0015484709
80	0x3ae35430	0.0017343815
81	0x3a0c0313	0.0005341034
82	0x3a505987	0.0007947911
83	0xba5ad4d3	-0.00083477533
84	0x3b997c9a	0.004684043
85	0xbad77ce7	-0.0016440422
86	0xba1bb9c6	-0.0005940463
87	0xba21cf80	-0.00061725825
88	0xbb21a28b	-0.0024663534
89	0xba189a04	-0.000582129
90	0x3b339d9b	0.0027407173
91	0x3b7f6867	0.003897214
92	0x3b527cc9	0.0032117835
93	0x3b5bcc90	0.0033538677
94	0xbb8477ec	-0.004042616
95	0x3b25e090	0.0025310852
96	0xbb2686dc	-0.0025409972
97	0x3b15dabd	0.0022865974
98	0x3b3c2b30	0.0028712265
99	0xba90b6b4	-0.0011040778
100	0x3a8d1054	0.0010762312
101	0xbb30869d	-0.0026935705
102	0xbb136f5e	-0.00224968
103	0x3b39a558	0.0028327312
104	0xbabe492e	-0.0014517659
105	0xb9422304	-0.00018514326
106	0xba93a451	-0.001126418
107	0x399f9800	0.00030440092
108	0x3b8a2dd1	0.0042168875
109	0xbb73c39c	-0.003719545
110	0x3b251cbf	0.0025194136
111	0xbb510c29	-0.0031898117
112	0x3bab5c8b	0.005229538
113	0x3aa7cdb0	0.0012802389
114	0x3ae847c8	0.0017721588
115	0x3b0e6e96	0.0021733395
116	0xb9f526ee	-0.00046759046
117	0x3af5cd39	0.0018753178
118	0xbaf550fa	-0.001871615
119	0x3a204a7e	0.0006114616
120	0x3b377bc0	0.0027997345
121	0x3b0ed441	0.0021793994
122	0x3b17a829	0.0023141003
123	0xbb181596	-0.0023206226
124	0x3a52182b	0.00080144656
125	0xbb4d5fe4	-0.0031337673
126	0xbb623601	-0.0034517052
127	0x3b6f3e38	0.003650559

network_body._body_endoder.seq_layers.2.weight f4 [128, 128]
0	0xbe15b406	-0.14619455
1	0xbc4ac5e5	-0.012376283
2	0x3d918c79	0.07106871
3	0xbd51047c	-0.051029667
4	0x3d13c4cc	0.036076352
5	0xbd8026b9	-0.06257386
6	0x3c82ad3e	0.015951749
7	0x3ce23e4f	0.027617602
8	0xbd3c1beb	-0.045925062
9	0xbdcbba91	-0.09947694
10	0x3d84b00f	0.06478893
11	0xbdeaa89e	-0.114579424
12	0x3d0cb7cc	0.03435497
13	0x3b4e92b5	0.003152055
14	0xbe321980	-0.1739254
15	0xba81dac0	-0.0009907112
16	0xbd1978e7	-0.037468817
17	0x3e0576ed	0.13033648
18	0x3d69a92e	0.057046108
19	0xbdda9519	-0.10672969
20	0x3bd015e9	0.006350268
21	0xbc872152	-0.01649538
22	0xbcbb623c	-0.02287399
23	0xbd99622f	-0.0748943
24	0xbb79cc7c	-0.0038116267
25	0x3de654cf	0.11246645
26	0x3e09962c	0.13436192
27	0xbde0bb31	-0.10973204
28	0x3d4cc275	0.049990136
29	0x3e094ab2	0.134074
30	0xbd6e669c	-0.058203325
31	0xbd08d193	-0.03340299
32	0xbe2e077e	-0.16995046
33	0x3dd43c9c	0.10363123
34	0xbe2d032b	-0.1689574
35	0x3d4aeccc	0.049542233
36	0x3ccda129	0.025101261
37	0x3b1366ad	0.002249162
38	0x3d3e989b	0.046532255
39	0xbe30c036	-0.17260823
40	0x3e0b6633	0.13613205
41	0xbdb2d5d9	-0.087321945
42	0xbd020898	-0.031746477
43	0x3e3c8fed	0.18414278
44	0x3cc4cadd	0.024022514
45	0xbd5eab9d	-0.054362882
46	0x3cce09e8	0.025151208
47	0xbc7eed62	-0.015559526
48	0x3a9d0532	0.0011979698
49	0xbdcc3151	-0.09970344
50	0x3e0b4b32	0.13602903
51	0xbd01aa7a	-0.03165672
52	0xbddc2500	-0.10749245
53	0xbdbd12ca	-0.09232099
54	0xbd32ae57	-0.043623295
55	0x3d437662	0.04772032
56	0xbcc38217	-0.023865743
57	0x3dbf782d	0.093490936
58	0xbe2bec37	-0.16789328
59	0xbe71f2d8	-0.23627794
60	0x3def8ae4	0.11696413
61	0x3cdbd5c6	0.026835334
62	0xbd84cd22	-0.064844385
63	0x3cdea3f3	0.027177786
64	0x3c8c5a90	0.017133027
65	0xbdf48bce	-0.11940728
66	0xbc842b3c	-0.016133897
67	0x3e1521a0	0.14563608
68	0xbbda2dbb	-0.0066582835
69	0x3d6da7a7	0.058021214
70	0x3cdfc386	0.027314913
71	0x3db2ad01	0.08724404
72	0xbd26f2b3	-0.0407588
73	0x3d663ff1	0.056213323
74	0x3d52f42f	0.051502403
75	0x3d1af0d2	0.03782732
76	0x3ca5069e	0.020144757
77	0xbb7cdfe9	-0.003858561
78	0x3e25c962	0.16190103
79	0xbd699054	-0.057022408
80	0xbd48a203	-0.04898263
81	0xbe02fe39	-0.12792291
82	0x3afe732e	0.0019412988
83	0xbdd233c4	-0.1026378
84	0xbe315761	-0.17318489
85	0x3df2e804	0.1186066
86	0x3cbe69c5	0.023243794
87	0x3dcda483	0.10041144
88	0x3d6e4f5c	0.05818115
89	0x3b8da251	0.004322328
90	0xbdd7e352	-0.10541405
91	0xbda5b16e	-0.08090483
92	0x3e2f68da	0.17129841
93	0xbb8e0b0b	-0.0043348125
94	0xbe02d14e	-0.12775156
95	0x3d520c63	0.051281344
96	0xbc048602	-0.008088591
97	0xbaeab981	-0.0017908068
98	0x3d20da3f	0.039270636
99	0xbb0afb4c	-0.0021206914
100	0xbdd14002	-0.10217287
101	0x3e0333fb	0.12812798
102	0x3c91c73c	0.017795198
103	0x3e0aac81	0.13542368
104	0x3ce8d2a0	0.028420746
105	0xbdaaabe7	-0.08333569
106	0x3d2d64fc	0.042332634
107	0x3d6f4541	0.058415655
108	0xbd6aaeb7	-0.057295527
109	0xbcb074ea	-0.021540124
110	0x3e2ea67c	0.17055696
111	0x3cfcd946	0.030865323
112	0xbda4ef98	-0.080535114
113	0xbdbce274	-0.0922288
114	0xbce61357	-0.028085394
115	0x3e00a3d2	0.12562492
116	0xbdb34968	-0.087542355
117	0xbe3e31fe	-0.18573758
118	0x3dbf2e50	0.09335005
119	0xbcdac1c3	-0.02670372
120	0xbe2cb959	-0.1686758
121	0x3d9169b0	0.071002364
122	0x3ce162a8	0.027512863
123	0x3e982e5c	0.2972287
124	0xbd0e13bd	-0.034686793
125	0xbb40aea0	-0.002940096
126	0x3c821f59	0.015884088
127	0x3cbb7098	0.022880837
128	0x3bc8c8e3	0.006127463
129	0xbd5e654b	-0.05429582
130	0xbdb949a5	-0.0904725
131	0x3d8cce29	0.068752594
132	0x3cbcf86c	0.023067676
133	0x3ccbe607	0.024889959
134	0xbdb6aec6	-0.08920054
135	0xbd9a7255	-0.07541338
136	0xbc973891	-0.01845959
137	0xbd0db055	-0.03459199
138	0xbddb215b	-0.106997214
139	0x3ccb81b4	0.02484212
140	0x3df1ee58	0.118130386
141	0xbbfa39c6	-0.0076362817
142	0xbdefa1cd	-0.11700783
143	0xbcd6e87d	-0.026233906
144	0x3e3419f1	0.17588021
145	0xbe4eb511	-0.20186259
146	0xbcd8c9ce	-0.026463415
147	0xbd603057	-0.0547336
148	0xbc9848c7	-0.01858939
149	0xbca3331e	-0.019921836
150	0xbd85a3ed	-0.06525407
151	0x39d1ae31	0.0003999337
152	0xbd8dc7ed	-0.069228984
153	0x3c2453b3	0.010029721
154	0x3c5b96a6	0.013402617
155	0xbc2478a3	-0.010038528
156	0xbe166af7	-0.14689241
157	0x3d9eb34c	0.07749042
158	0x3e24e4a0	0.16102839
159	0x3de770b0	0.1130079
160	0x3cd6df9a	0.026229668
161	0x3dc14f3b	0.0943894
162	0x3cea8f8c	0.028632902
163	0xbe380457	-0.17970406
164	0xbdf69e26	-0.12041883
165	0xbdb96484	-0.09052375
166	0xbe077c95	-0.13231118
167	0x3cc724c1	0.024309518
168	0xbc929a66	-0.017895889
169	0x3d215309	0.03938583
170	0xbdb4a749	-0.088209696
171	0xbd4ce9ba	-0.050027587
172	0xbc332127	-0.010933197
173	0xbd9102cd	-0.07080612
174	0xbcd92336	-0.026506048
175	0xbc69e76d	-0.014276368
176	0x3c3646b0	0.011125252
177	0x3d4d0c61	0.050060634
178	0x3d3ee485	0.046604652
179	0x3dc2001c	0.09472677
180	0x3d768ff0	0.060195863
181	0x3cc32547	0.023821486
182	0xbda2fd10	-0.07958424
183	0xbb759d4c	-0.003747779
184	0x3df99e8a	0.12188442
185	0xbe1ab072	-0.15106371
186	0x3c9fe43e	0.019518014
187	0x3dd48a70	0.10377967
188	0xbd7eb073	-0.062179994
189	0x3d893716	0.0669996
190	0xbdd3ff92	-0.103514805
191	0x3c031ce5	0.008002494
192	0xbd192f2c	-0.037398502
193	0xbba2e218	-0.0049708
194	0xbd874cff	-0.06606483
195	0x3d898e5a	0.067166045
196	0x3c4ffaa7	0.0126940375
197	0xbdb9d70b	-0.09074219
198	0x3e2f6c19	0.1713108
199	0x3e0f9fa4	0.14025742
200	0xbd51c6dc	-0.051215038
201	0x3def9a7b	0.11699387
202	0xbcf5bb6e	-0.0299966
203	0x3e272994	0.16324455
204	0x3d74c3c0	0.059756994
205	0xbcd68213	-0.026185071
206	0x3d5b0540	0.053471804
207	0xbd902399	-0.0703804
208	0xbd7bba58	-0.061457008
209	0xbd9c149d	-0.07621119
210	0xbe622aa0	-0.22086573
211	0x3d4f1460	0.05055654
212	0xbdafc72f	-0.08582913
213	0xbd85c170	-0.06531036
214	0xbdc961be	-0.09833096
215	0x3cd8ba27	0.026455952
216	0xbd67561d	-0.05647861
217	0x3da2ffa2	0.07958914
218	0x3dced936	0.101000234
219	0x3d2d05cc	0.042241856
220	0x3dc75868	0.09733659
221	0xbdf566c1	-0.119824894
222	0x3c54915d	0.01297411
223	0x3d4bac97	0.04972514
224	0x3d6d0bbe	0.057872526
225	0xbe3a18ea	-0.18173566
226	0x3d18f555	0.03734334
227	0xbda8698e	-0.08223258
228	0xbc8602c9	-0.01635875
229	0x3d6a30b2	0.057175346
230	0xbd2e5c4e	-0.042568497
231	0x3e029b08	0.12754452
232	0x3c5692ec	0.013096552
233	0x3cca555a	0.024698902
234	0xbe1106e1	-0.1416278
235	0x3c3ccaa3	0.011522922
236	0x3cc743c4	0.024324305
237	0x3cf989a7	0.030461146
238	0xbdb76379	-0.0895452
239	0xbb0351df	-0.0020037813
240	0xbd9888be	-0.074479565
241	0x3d0d8554	0.03455098
242	0xbdd2d065	-0.10293654
243	0xbe6a54b3	-0.22883873
244	0x3e10c05b	0.14135878
245	0x3dd120cd	0.102113344
246	0xbd08fcde	-0.033444278
247	0x3c9291c3	0.01789177
248	0x3bd97044	0.0066356976
249	0xbe65234b	-0.22376744
250	0xbc51476d	-0.012773377
251	0xbd5f1c28	-0.05447021
252	0x3e27cd85	0.16386993
253	0xbd90deb1	-0.07073725
254	0x3e3aae37	0.1823052
255	0x3d900b50	0.07033408

network_body._body_endoder.seq_layers.2.bias f4 [128]
0	0x398bc639	0.00026659833
1	0xbb0d7f01	-0.0021590593
2	0x3a8cceaa	0.0010742743
3	0x3b36b4f4	0.0027878853
4	0xbb311b86	-0.0027024462
5	0xbb0af27e	-0.0021201666
6	0x3a566eb6	0.00081799494
7	0x3a5e20d2	0.00084735185
8	0x3a8801e2	0.0010376538
9	0x3a41245f	0.00073677854
10	0x3b5a307d	0.0033293061
11	0x3b31f245	0.002715246
12	0x3b406a53	0.002936025
13	0xbaf69c29	-0.001881485
14	0xbb7037c3	-0.003665433
15	0x3ad15681	0.0015971215
16	0xba9b0d16	-0.0011829461
17	0x3a7f53f8	0.00097399903
18	0x3783e47e	1.5722817e-05
19	0xbb826a65	-0.0039799684
20	0xb71982e8	-9.14999e-06
21	0x3ab87a95	0.0014074618
22	0x3b4a09e3	0.0030828647
23	0xbad882f5	-0.001651852
24	0x394fdf8b	0.00019824335
25	0xbb1589c0	-0.00228177
26	0x3a90d0e0	0.0011048578
27	0xbb188c26	-0.0023276894
28	0xbb13852f	-0.0022509804
29	0x39f4148d	0.00046554618
30	0x39a58116	0.0003156743
31	0xbaa1d9bd	-0.0012348216
32	0xbadaa0f6	-0.001668005
33	0x3b015834	0.001973641
34	0x3ac695f6	0.0015150893
35	0xb9ce8b9b	-0.00039395396
36	0xba26a8ac	-0.00063575315
37	0xbb29fe20	-0.0025938824
38	0xba59e794	-0.0008312401
39	0xbafd7443	-0.0019337017
40	0xbabce8c5	-0.0014412632
41	0x3af1db9a	0.0018452287
42	0xbb1fd012	-0.0024385494
43	0xbb3fc90b	-0.0029264118
44	0xbb0bcab5	-0.002133054
45	0x3ad26ba9	0.0016053814
46	0x3b0122d5	0.00197046
47	0x3b098d1c	0.0020988649
48	0x39240c95	0.00015644946
49	0x3b37e41c	0.0028059548
50	0x3a8e6c15	0.0010865951
51	0xb9aa4696	-0.00032477517
52	0x399a1f4a	0.0002939648
53	0x3a31f798	0.00067889085
54	0xbb2db1c3	-0.002650366
55	0xbaf2214b	-0.0018473057
56	0x39b306d5	0.0003414663
57	0xbb0b2431	-0.0021231289
58	0xbaef647e	-0.0018264202
59	0x3b213de0	0.002460353
60	0x3b77295c	0.003771386
61	0xb99aa937	-0.00029499244
62	0x3af8c5a2	0.0018979798
63	0x3a8ebc43	0.0010889847
64	0xbb841775	-0.0040311166
65	0x3b5487fe	0.003242969
66	0xbb1f7bcd	-0.0024335266
67	0x390668eb	0.00012818321
68	0xb9ad0602	-0.00033001608
69	0xbb529563	-0.0032132498
70	0x3b33794f	0.0027385538
71	0xbb1edf72	-0.002424207
72	0x3a3c257e	0.00071772176
73	0x3a42d1c0	0.0007431768
74	0xbb308aba	-0.0026938156
75	0x39531823	0.0002013152
76	0xbb17c840	-0.002316013
77	0xbb20e406	-0.0024549975
78	0x3a6ad534	0.00089581613
79	0x3a2f4135	0.0006685437
80	0x3a18d564	0.00058301375
81	0x3ae65be4	0.0017574993
82	0xbab28bd7	-0.0013621998
83	0x3b38baa6	0.0028187423
84	0xba9048c4	-0.0011008014
85	0xbb2bf61e	-0.0026239227
86	0x3a8bb3ee	0.0010658482
87	0x3b14cd01	0.00227052
88	0x39c53de2	0.00037620874
89	0xba907268	-0.0011020424
90	0xbb18c55d	-0.0023310997
91	0x3acee6e3	0.0015785362
92	0xbb19f0e5	-0.0023489532
93	0xbb121779	-0.0022291823
94	0x3ada12b3	0.0016637653
95	0xbad52edb	-0.0016264574
96	0x3b28258c	0.0025657145
97	0x3afa449d	0.0019093935
98	0x39a3d358	0.00031247246
99	0x3b3a95f2	0.0028470722
100	0x3b2191f9	0.0024653657
101	0x3b867907	0.004103783
102	0xbb32a2c2	-0.0027257656
103	0x3969715b	0.0002226284
104	0xb99d2d3a	-0.0002997907
105	0xba7cf485	-0.00096494734
106	0x3b4743d3	0.0030405417
107	0xb8f88b79	-0.0001185154
108	0x3b6f60b0	0.0036526136
109	0x3ae9051e	0.0017778014
110	0x3a92e762	0.0011207873
111	0xba050c61	-0.0005075392
112	0x3ad39753	0.0016143121
113	0x3b17edaa	0.002318243
114	0x3af3dbc7	0.0018604927
115	0xbaf79ce4	-0.0018891362
116	0xbb865893	-0.0040999143
117	0x3a7c1d94	0.00096174446
118	0x398f7505	0.00027362272
119	0xbb8fea95	-0.004391978
120	0x3b371821	0.0027937966
121	0xbb106682	-0.0022033756
122	0xbb0567ae	-0.0020355987
123	0xbaf83064	-0.001893532
124	0x3a183bb8	0.00058072386
125	0x3b0ce4d2	0.0021498692
126	0x3b1cb7e2	0.0023913314
127	0xbb00d110	-0.001965586

action_model._continuous_distribution.log_sigma f4 [1, 3]
0	0xbb92f28a	-0.0044844793
1	0xb9ae726e	-0.00033273123
2	0xbab0a5c7	-0.001347714

action_model._continuous_distribution.mu.weight f4 [3, 128]
0	0xbc1c36e6	-0.009534573
1	0xbb968569	-0.0045935404
2	0x3cc57c63	0.024107164
3	0x3c52a764	0.012857292
4	0x3bc149ec	0.0058987048
5	0xbc8c59e6	-0.01713271
6	0x3cf1e11f	0.029526291
7	0xbb5df75b	-0.003386936
8	0x3d01da9f	0.031702634
9	0x3cc2bc31	0.023771377
10	0x3c8cd188	0.017189756
11	0x3c728eac	0.014804523
12	0x3cd66ef3	0.026175952
13	0xbd1490df	-0.036270972
14	0xbb058060	-0.0020370707
15	0x3c48be4c	0.012252402
16	0x3ac3b54a	0.0014931348
17	0x3c754896	0.014970919
18	0xbcf87f48	-0.03033413
19	0xbc2235bc	-0.009900507
20	0xbccd1f81	-0.025039436
21	0xbcd9c9e3	-0.026585525
22	0x3bf1cfdf	0.0073795165
23	0xbbc26fe1	-0.005933747
24	0x3c395314	0.011311311
25	0xbca345af	-0.019930689
26	0x3bd260d4	0.006420234
27	0xbce59a9b	-0.028027823
28	0xbb756a74	-0.0037447484
29	0x3c8efe74	0.017455317
30	0x3ca14e0b	0.019690534
31	0x3b11e05c	0.0022258973
32	0xbca8de82	-0.020613912
33	0x3c05fc95	0.008177896
34	0x3bcd2462	0.0062604407
35	0xbc98fa16	-0.018673938
36	0xbb92ef6c	-0.0044841077
37	0xbb76b8ac	-0.0037646694
38	0x3bff9f03	0.007800938
39	0xbaa86411	-0.0012847205
40	0x3c2374d0	0.009976581
41	0xbc24527f	-0.010029434
42	0xbc22c6a4	-0.009935055
43	0xbaea0a7b	-0.0017855907
44	0x3bd21d2b	0.0064121685
45	0x3c2ce2b5	0.010552098
46	0x3bf78a9b	0.007554365
47	0x3d0130c4	0.031540647
48	0x3c98603a	0.018600572
49	0x3c153879	0.009107702
50	0xbc29c0d3	-0.010360914
51	0xbb80b18f	-0.0039274166
52	0xbc95c31e	-0.018281516
53	0x3ca410c1	0.02002752
54	0xbc8946e7	-0.016757442
55	0xbc81053d	-0.015749568
56	0x3b60aadb	0.0034281525
57	0xbc8d55f2	-0.017252896
58	0xbb6fb891	-0.0036578516
59	0xbb9c65fa	-0.0047728987
60	0x3b41562f	0.0029500832
61	0xbc553ea2	-0.013015421
62	0xbc064889	-0.008196005
63	0x3ba2efaf	0.00497242
64	0x39c99d3a	0.0003845485
65	0x3c8a230c	0.016862415
66	0xbcd570d2	-0.026054773
67	0xbc46d46e	-0.012135608
68	0x3c96779c	0.018367581
69	0xbc92a2f9	-0.017899977
70	0x3d2b33ad	0.04179733
71	0xbd032a7a	-0.03202293
72	0x3b928c66	0.004472303
73	0xbc2bf9a3	-0.01049653
74	0xbcb3b212	-0.021935496
75	0xbbb787ef	-0.0056009213
76	0xbd272b19	-0.040812586
77	0xbc9f1b97	-0.019422336
78	0x3d28a776	0.04117533
79	0xbad30fcc	-0.001610273
80	0x3d23260f	0.039831217
81	0xbc48868f	-0.0122391125
82	0x3bb625db	0.005558712
83	0x3ab06429	0.0013457584
84	0xbc8dae04	-0.017294891
85	0xbc8dd0e2	-0.017311517
86	0x3d1f6523	0.03891481
87	0x3c817cd2	0.01580659
88	0x3bfdedd7	0.0077493
89	0xbc64b52b	-0.013959209
90	0xbcbb9507	-0.02289821
91	0x3b90d036	0.004419352
92	0x3bdb0c92	0.006684848
93	0x3a92c4c2	0.0011197554
94	0x3cb833ff	0.022485731
95	0xbd286519	-0.04111204
96	0xbbac90af	-0.005266271
97	0x3cd204a8	0.025636986
98	0x3bf34c0b	0.0074248365
99	0x3c6dd37c	0.014515754
100	0x3b8c1c5f	0.004275843
101	0x3ba63b2d	0.0050729723
102	0xbb9140be	-0.0044327667
103	0xbc8de63e	-0.017321702
104	0xbabd0816	-0.0014421965
105	0xbc96be4a	-0.018401284
106	0x3d5fe1fb	0.05465887
107	0xbc305149	-0.010761567
108	0xbc5aab05	-0.013346438
109	0x3cb3f2ea	0.021966416
110	0xbc546657	-0.012963853
111	0xbc69ad88	-0.0142625645
112	0x3b81b983	0.0039588823
113	0x3ccaf3c2	0.024774436
114	0xbb686734	-0.0035461904
115	0x3b61cce2	0.0034454395
116	0xbc01bb90	-0.007918254
117	0x3caeeed3	0.021354115
118	0xbbef3daf	-0.0073010544
119	0xbcad8964	-0.021183677
120	0xbc693f30	-0.0142362565
121	0xbc98187f	-0.018566368
122	0xbc8837d3	-0.016628182
123	0xbc7d5433	-0.015461969
124	0x3bd1064e	0.0063789254
125	0x3c344bec	0.011004429
126	0x3c4c7a9b	0.012480403
127	0xbc6d8a27	-0.01449827
128	0x3c65e200	0.014030933
129	0x3cc88a10	0.024479896
130	0xbc1e7a97	-0.009672782
131	0xbbe92455	-0.007114927
132	0xb9da83d5	-0.00041678423
133	0xbc8c973f	-0.017161964
134	0xbb67ed04	-0.0035389075
135	0x3c6f68ae	0.01461236
136	0xbbe019a9	-0.0068389964
137	0xbba5f47d	-0.0050645457
138	0x3d02b827	0.031913903
139	0x3a5d1663	0.0008433817
140	0x3ca275f8	0.019831643
141	0xbd16cffe	-0.03681945
142	0x3993d1a0	0.00028194208
143	0xbb37264a	-0.0027946406
144	0xbbb252c8	-0.005441997
145	0xbc8d0614	-0.017214812
146	0xbce5f54d	-0.02807107
147	0x3ac4c49e	0.001501221
148	0xbd1c6a4a	-0.038187303
149	0xbcad61ec	-0.021164857
150	0xbc37ceeb	-0.011218767
151	0x3c3e9e61	0.01163444
152	0xbb5fe6a3	-0.003416457
153	0x3c63be49	0.013900348
154	0x3cd5dfee	0.026107755
155	0x3bb2563c	0.005442409
156	0x3a60ba60	0.0008572694
157	0xbd0d7d1d	-0.034543145
158	0xbbe19771	-0.0068845083
159	0xbcbf9545	-0.023386607
160	0xbc569c36	-0.013098767
161	0xbbc8aa5f	-0.0061238254
162	0xbd0c5365	-0.03425922
163	0xbba48380	-0.005020559
164	0x3c7485a9	0.014924445
165	0xbb05b79e	-0.0020403634
166	0xbb3e74d2	-0.002906133
167	0x3c80ec3c	0.015737645
168	0x3c452c87	0.012034542
169	0x3d010e6f	0.031507906
170	0xbd353c07	-0.0442467
171	0x3c081a66	0.008307075
172	0x3c83ed7f	0.016104458
173	0xbc7b7a4e	-0.015348984
174	0xbc7ea17c	-0.015541431
175	0x3bdf9af6	0.0068238927
176	0xbce71018	-0.028205916
177	0x3d2a9f3c	0.041655764
178	0xbcd67c9b	-0.026182463
179	0x3c2ba3f7	0.010476104
180	0x3d445a6a	0.047937788
181	0xbba23577	-0.004950221
182	0xbca37b96	-0.019956391
183	0xbbeaf6f8	-0.0071705543
184	0x3ceb2dde	0.028708395
185	0xbb5176c7	-0.0031961666
186	0xbaf80182	-0.0018921348
187	0x3ca2afd8	0.01985924
188	0x3c092c3b	0.008372362
189	0xbc6fd41c	-0.014637973
190	0x3d1b0fa0	0.037856698
191	0x3d0cc061	0.034363154
192	0x3ba4c905	0.005028846
193	0x3c063598	0.008191489
194	0xbb97e822	-0.0046358267
195	0xbccf49a2	-0.025303666
196	0xbc2c0559	-0.010499322
197	0x3c085498	0.00832095
198	0x3c902fc5	0.017600903
199	0x3be893a0	0.0070976764
200	0xbc9679be	-0.018368598
201	0xbca3ef99	-0.02001171
202	0x3b809ae5	0.003924715
203	0xba587bc0	-0.0008258186
204	0xbc9f8003	-0.01947022
205	0x3c271a8d	0.010199201
206	0xbc2fb39f	-0.010723977
207	0xbb88155a	-0.004152936
208	0xbb44cf9e	-0.0030030976
209	0xbbc163a2	-0.0059017697
210	0x3c793984	0.015211467
211	0xbbce5a0c	-0.0062973555
212	0x3c26f5c4	0.010190431
213	0xbcc8ca14	-0.02451042
214	0xbc5f97b5	-0.01364701
215	0x39e2403b	0.00043153935
216	0x3c6024a9	0.013680615
217	0xbc5a7c39	-0.013335281
218	0x3be78753	0.0070656925
219	0x3cc40f39	0.02393304
220	0xbb1d4cb4	-0.0024002017
221	0x3ca47bff	0.020078657
222	0x3ce3af22	0.02779347
223	0x3c64f18b	0.013973604
224	0x3cb3c401	0.021944048
225	0x3cb95201	0.02262211
226	0xbc138f24	-0.009006295
227	0x3b910543	0.004425676
228	0xbc23a37e	-0.00998771
229	0xbb6ffa5e	-0.0036617736
230	0xb9233378	-0.00015564065
231	0xbaa8f5fc	-0.0012890692
232	0x3c77c089	0.015121588
233	0xbd191bf5	-0.037380178
234	0x3c0da6b2	0.0086457
235	0xbbb2c951	-0.0054561277
236	0x3cce6d4a	0.025198597
237	0xbc6d9bab	-0.014502446
238	0xbc3bbd28	-0.011458673
239	0x3d38104d	0.04493742
240	0xbcdc1d33	-0.026869392
241	0xbc9f39c1	-0.019436719
242	0xbc61c86a	-0.013780693
243	0xbce125f6	-0.027483921
244	0x3b4feaec	0.0031725718
245	0xbc85c3b2	-0.016328666
246	0xbca43827	-0.020046307
247	0xbcf483ad	-0.029847944
248	0xbd22983b	-0.03969596
249	0xbc346da7	-0.011012471
250	0xbc44c613	-0.012010115
251	0xbbd6a6d7	-0.0065506506
252	0xbca91ff7	-0.020645125
253	0x3c9e8b27	0.019353462
254	0x3a6bdff0	0.0008997908
255	0xbc653888	-0.013990529

action_model._continuous_distribution.mu.bias f4 [3]
0	0x3aec789f	0.0018041319
1	0x39a72dde	0.00031886896
2	0xbb2969fb	-0.0025850523

exp_avg f4 [128, 7]
0	0xb5f32f81	-1.8118736e-06
1	0x36272755	2.4907833e-06
2	0x00000000	0.0
3	0xb7225daa	-9.67776e-06
4	0xb32fd4cc	-4.09389e-08
5	0xb81d559e	-3.7511454e-05
6	0xb80d3aac	-3.3671662e-05
7	0xb7c259fa	-2.31685e-05
8	0x3768b4ab	1.3870343e-05
9	0x00000000	0.0
10	0xb76328b6	-1.3539733e-05
11	0xb37605e1	-5.7281685e-08
12	0xb82d6546	-4.1340732e-05
13	0xb76b97d8	-1.4042445e-05
14	0x38f72f8b	0.000117867334
15	0x38605fc3	5.3494947e-05
16	0x00000000	0.0
17	0xb8257c83	-3.9455026e-05
18	0xb4333bb2	-1.6692391e-07
19	0xb8a7a3a3	-7.99366e-05
20	0xb7968b87	-1.7946366e-05
21	0x37951522	1.7772025e-05
22	0xb77f1fb9	-1.520657e-05
23	0x00000000	0.0
24	0x347d5b25	2.359562e-07
25	0x3089b9ed	1.0020905e-09
26	0xb77bb0b1	-1.5001905e-05
27	0xb8124fca	-3.4883422e-05
28	0x382b2490	4.080363e-05
29	0x36d82c7b	6.44248e-06
30	0x00000000	0.0
31	0x369353d3	4.3907e-06
32	0x329f996d	1.8579806e-08
33	0x35017eda	4.824084e-07
34	0x38329ee3	4.2586482e-05
35	0x3713eb72	8.816702e-06
36	0xb7bce539	-2.2518087e-05
37	0x00000000	0.0
38	0xb6d49d49	-6.3364027e-06
39	0xb2e643c8	-2.6806347e-08
40	0xb71fa4e6	-9.515532e-06
41	0xb6fd0e30	-7.541639e-06
42	0xb720219e	-9.54457e-06
43	0xb397e44f	-7.0730145e-08
44	0x00000000	0.0
45	0xb78055c3	-1.5298725e-05
46	0xb38afe18	-6.472345e-08
47	0x3797a4c9	1.8077337e-05
48	0x36fef9e5	7.5988814e-06
49	0x3692d9df	4.3765026e-06
50	0x3728f25e	1.0070011e-05
51	0x00000000	0.0
52	0xb5f75b40	-1.8429491e-06
53	0xb2060dc3	-7.802956e-09
54	0xb70d5c04	-8.425679e-06
55	0x37497ea7	1.2010022e-05
56	0xb5651a72	-8.534763e-07
57	0x35406627	7.1674225e-07
58	0x00000000	0.0
59	0xb767290a	-1.3778228e-05
60	0xb37a5cf1	-5.829219e-08
61	0x3700c7d1	7.675918e-06
62	0xb7f16b9a	-2.8779545e-05
63	0x3803df00	3.144052e-05
64	0xb7bc2441	-2.2428228e-05
65	0x00000000	0.0
66	0xb772a5ec	-1.4462956e-05
67	0xb38367d6	-6.1190505e-08
68	0x37720ce0	1.4427322e-05
69	0xb7df984b	-2.6654589e-05
70	0xb808aad8	-3.2584037e-05
71	0x379580cb	1.7822158e-05
72	0x00000000	0.0
73	0x369cfde8	4.678721e-06
74	0x32aa023b	1.9791619e-08
75	0xb7d9f639	-2.5983072e-05
76	0xb7e1c712	-2.691479e-05
77	0x37859861	1.5925792e-05
78	0xb715dc7a	-8.932426e-06
79	0x00000000	0.0
80	0xb75ff122	-1.3347979e-05
81	0xb3728ce9	-5.6473173e-08
82	0x3485ed10	2.4945666e-07
83	0x37bc0450	2.2413355e-05
84	0x36c1ea98	5.7791585e-06
85	0xb7417c29	-1.1532605e-05
86	0x00000000	0.0
87	0x35aae600	1.2732926e-06
88	0x31b9100f	5.3860343e-09
89	0xb7ab4abf	-2.0419595e-05
90	0xb791af8c	-1.7367092e-05
91	0x37e6b02e	2.7500177e-05
92	0xb68399ad	-3.9219944e-06
93	0x00000000	0.0
94	0xb73d63ed	-1.1288544e-05
95	0xb34d1e5c	-4.7757894e-08
96	0x375be942	1.3107727e-05
97	0xb76d13ab	-1.413088e-05
98	0xb7d3121e	-2.5161597e-05
99	0xb69090b7	-4.3083814e-06
100	0x00000000	0.0
101	0xb7f6fef0	-2.94442e-05
102	0xb405c06c	-1.2456593e-07
103	0xb8a1eb4d	-7.7209064e-05
104	0xb788b836	-1.6298243e-05
105	0x38441cda	4.675691e-05
106	0x37dafd70	2.6105641e-05
107	0x00000000	0.0
108	0x35e0352b	1.6704774e-06
109	0x31f2ff13	7.0721256e-09
110	0xb617f895	-2.2645447e-06
111	0xb7417ee9	-1.1533245e-05
112	0x37be3ab6	2.2677104e-05
113	0x37a16e9c	1.9244202e-05
114	0x00000000	0.0
115	0xb7098beb	-8.1984135e-06
116	0xb314f3ec	-3.468078e-08
117	0xb80615af	-3.1968284e-05
118	0xb8158ae6	-3.5653728e-05
119	0x37ce922c	2.462518e-05
120	0xb79da722	-1.8793686e-05
121	0x00000000	0.0
122	0xb775c8ae	-1.4649862e-05
123	0xb3851fa5	-6.199051e-08
124	0x37832d7e	1.56376e-05
125	0x37a508d9	1.9673653e-05
126	0xb81eabe5	-3.7830225e-05
127	0x36998450	4.5751585e-06
128	0x00000000	0.0
129	0x36663b29	3.4307106e-06
130	0x32795794	1.45136205e-08
131	0x375258ef	1.2537682e-05
132	0xb58ce09c	-1.0496183e-06
133	0xb8523b9d	-5.012342e-05
134	0xb7dfd5cc	-2.6683228e-05
135	0x00000000	0.0
136	0x3688fcf1	4.082562e-06
137	0x32944f94	1.7265656e-08
138	0x384704fd	4.7449943e-05
139	0x3836944c	4.3530294e-05
140	0x37c6093c	2.360774e-05
141	0xb75218db	-1.25227625e-05
142	0x00000000	0.0
143	0x3731f778	1.060764e-05
144	0x3340c230	4.4880096e-08
145	0xb3db0b36	-1.02000214e-07
146	0xb6893601	-4.089205e-06
147	0x37d04615	2.4828167e-05
148	0xb762974b	-1.3505875e-05
149	0x00000000	0.0
150	0xb7fa9792	-2.9872903e-05
151	0xb407b502	-1.2638705e-07
152	0x3798411e	1.8150135e-05
153	0x3886b2aa	6.422897e-05
154	0x359c95db	1.1666519e-06
155	0xb70f8a38	-8.555646e-06
156	0x00000000	0.0
157	0x36f72dde	7.3665133e-06
158	0x3305d706	3.116204e-08
159	0x37ea08d0	2.7899077e-05
160	0xb5cbfb46	-1.5197809e-06
161	0x3759593b	1.29549835e-05
162	0xb7e3ab8a	-2.7140388e-05
163	0x00000000	0.0
164	0xb786af50	-1.6055681e-05
165	0xb391e253	-6.793257e-08
166	0x3802f41c	3.122176e-05
167	0xb716d365	-8.989916e-06
168	0x376093ff	1.33858985e-05
169	0xb7a0e8cc	-1.918189e-05
170	0x00000000	0.0
171	0x36ccaa25	6.099481e-06
172	0x32ddb2e6	2.580914e-08
173	0xb628f104	-2.517424e-06
174	0xb7900727	-1.7169468e-05
175	0x372fd7dd	1.0481072e-05
176	0x38025eab	3.108258e-05
177	0x00000000	0.0
178	0xb689351b	-4.0891005e-06
179	0xb2949acc	-1.7299861e-08
180	0xb6931771	-4.3836703e-06
181	0x3696d511	4.4951526e-06
182	0x37ccf8a7	2.4434483e-05
183	0x36ea584f	6.984024e-06
184	0x00000000	0.0
185	0x3727a98c	9.993451e-06
186	0x333592eb	4.2275968e-08
187	0xb899100d	-7.298598e-05
188	0xb78b6c85	-1.6620625e-05
189	0xb7010694	-7.690531e-06
190	0xb7828df0	-1.5563302e-05
191	0x00000000	0.0
192	0x36f8831d	7.4062395e-06
193	0x3306923b	3.1332302e-08
194	0x385cf0bd	5.2676292e-05
195	0x37f3f25c	2.9080715e-05
196	0xb8486b7b	-4.7783815e-05
197	0xb7043af0	-7.881536e-06
198	0x00000000	0.0
199	0x37196916	9.143978e-06
200	0x332623a1	3.868229e-08
201	0x38389b72	4.401379e-05
202	0x381b034f	3.695796e-05
203	0xb83e5c2e	-4.538538e-05
204	0x373262ee	1.0632661e-05
205	0x00000000	0.0
206	0x37a6eeee	1.9900002e-05
207	0x33b4ccbd	8.419145e-08
208	0x37bc1ac8	2.2423817e-05
209	0xb731bc4f	-1.0593866e-05
210	0xb848776b	-4.7794932e-05
211	0xb818a64e	-3.6394507e-05
212	0x00000000	0.0
213	0xb602d90b	-1.9497845e-06
214	0xb20db6a7	-8.2488105e-09
215	0x3640d60e	2.8734826e-06
216	0x35f09ae4	1.7926473e-06
217	0xb927a60a	-0.00015988215
218	0x380e9bea	3.4000645e-05
219	0x00000000	0.0
220	0xb71d7abc	-9.386506e-06
221	0xb32a996d	-3.972075e-08
222	0xb7921d67	-1.7418248e-05
223	0x37932b2d	1.754387e-05
224	0x38f8fb16	0.0001187233
225	0x384f06ee	4.93591e-05
226	0x00000000	0.0
227	0xb76a0364	-1.3948276e-05
228	0xb37d728f	-5.9010343e-08
229	0x377b4f9a	1.49792995e-05
230	0x37cd8527	2.4499908e-05
231	0x37e2b1fb	2.7024178e-05
232	0x373d9de8	1.1302043e-05
233	0x00000000	0.0
234	0x36deb507	6.63719e-06
235	0x32f130e9	2.8078334e-08
236	0xb75b3151	-1.30649e-05
237	0x3695154b	4.443025e-06
238	0xb71a3381	-9.191107e-06
239	0x3799d1ce	1.833672e-05
240	0x00000000	0.0
241	0x36d86c0e	6.449881e-06
242	0x32ea64fb	2.7287106e-08
243	0xb71c5442	-9.317942e-06
244	0xb78c9b84	-1.6761718e-05
245	0x37eaed5f	2.8005508e-05
246	0xb76ca581	-1.4105231e-05
247	0x00000000	0.0
248	0x378068ed	1.5307649e-05
249	0x338b17f1	6.477047e-08
250	0xb7e2cef8	-2.7037677e-05
251	0xb82ae321	-4.074269e-05
252	0xb5d6b3ec	-1.5996607e-06
253	0xb8281950	-4.0077895e-05
254	0x00000000	0.0
255	0x36fed5fd	7.5947014e-06

exp_avg_sq f4 [128, 7]
0	0x312d7b3f	2.524487e-09
1	0x3109b37d	2.0038151e-09
2	0x00000000	0.0
3	0x309397cf	1.0738804e-09
4	0x28507c43	1.1573264e-14
5	0x306eac3c	8.6828655e-10
6	0x307a1f03	9.099354e-10
7	0x31198ba7	2.2343813e-09
8	0x3113e81a	2.152325e-09
9	0x00000000	0.0
10	0x30e6a20b	1.6780758e-09
11	0x2878ad7e	1.3804386e-14
12	0x3087cee6	9.881347e-10
13	0x3073672b	8.8549496e-10
14	0x332dab1a	4.0435317e-08
15	0x32c6e9c1	2.3156533e-08
16	0x00000000	0.0
17	0x32389d64	1.0745996e-08
18	0x2a29f805	1.5096264e-13
19	0x321e05f5	9.198165e-09
20	0x32088c4a	7.94814e-09
21	0x31f80671	7.2184823e-09
22	0x31f0ef32	7.0121127e-09
23	0x00000000	0.0
24	0x30db36e4	1.5949948e-09
25	0x28e577c7	2.5476052e-14
26	0x310ad10d	2.0200475e-09
27	0x3126f3b2	2.4294704e-09
28	0x3322a0f3	3.7864947e-08
29	0x329833d9	1.7718707e-08
30	0x00000000	0.0
31	0x3289f534	1.6060405e-08
32	0x2a21c20a	1.4366993e-13
33	0x31e9d576	6.80546e-09
34	0x3196a974	4.384839e-09
35	0x31451df6	2.8684304e-09
36	0x30fb2616	1.8273478e-09
37	0x00000000	0.0
38	0x2fedab1d	4.3231632e-10
39	0x27e26add	6.2843462e-15
40	0x2ff5cc14	4.4710247e-10
41	0x2ff875bc	4.5194593e-10
42	0x313337ad	2.6079576e-09
43	0x30f63184	1.7912929e-09
44	0x00000000	0.0
45	0x30771256	8.9884133e-10
46	0x2864b3dd	1.2695544e-14
47	0x30232e70	5.9365046e-10
48	0x304a094f	7.35004e-10
49	0x313c8656	2.7433962e-09
50	0x3188a568	3.9769255e-09
51	0x00000000	0.0
52	0x310bbd15	2.0334643e-09
53	0x28ca5d01	2.2466839e-14
54	0x30846a93	9.634554e-10
55	0x3080e2d8	9.377699e-10
56	0x30d25300	1.5303101e-09
57	0x31204521	2.332236e-09
58	0x00000000	0.0
59	0x30105e58	5.2520965e-10
60	0x28718ab3	1.3408263e-14
61	0x30170376	5.49384e-10
62	0x308a333a	1.0055381e-09
63	0x315cde70	3.2140655e-09
64	0x31381222	2.6785831e-09
65	0x00000000	0.0
66	0x3025fb4f	6.038378e-10
67	0x2868c45a	1.2921164e-14
68	0x3047c318	7.2673023e-10
69	0x30d126ac	1.5217743e-09
70	0x31fc5956	7.3443216e-09
71	0x320b2560	8.099363e-09
72	0x00000000	0.0
73	0x30dad618	1.5922437e-09
74	0x28edd323	2.6403852e-14
75	0x30a2eb04	1.1853847e-09
76	0x30989d61	1.1104185e-09
77	0x3153e2cb	3.0833458e-09
78	0x311dce73	2.296386e-09
79	0x00000000	0.0
80	0x3156263d	3.1162835e-09
81	0x28d40b4c	2.3541627e-14
82	0x303f1f64	6.9530004e-10
83	0x308e6056	1.035924e-09
84	0x30a4506c	1.1955428e-09
85	0x30a25b34	1.1812973e-09
86	0x00000000	0.0
87	0x305b3d55	7.9758894e-10
88	0x284e8a2e	1.146526e-14
89	0x301a5f24	5.6160077e-10
90	0x302d1593	6.296769e-10
91	0x31154624	2.1722224e-09
92	0x30f997eb	1.8160312e-09
93	0x00000000	0.0
94	0x30363acb	6.6294764e-10
95	0x28499b96	1.1191479e-14
96	0x30522ed7	7.646412e-10
97	0x3098993f	1.1103011e-09
98	0x3214d6f6	8.66361e-09
99	0x31b04f9b	5.1313243e-09
100	0x00000000	0.0
101	0x312609da	2.416178e-09
102	0x29287e5e	3.74131e-14
103	0x314f3215	3.0150933e-09
104	0x313458ad	2.6243854e-09
105	0x31e2ee0f	6.60453e-09
106	0x316773bc	3.3680712e-09
107	0x00000000	0.0
108	0x3080503d	9.336031e-10
109	0x28a87c13	1.8705555e-14
110	0x30a0544a	1.1665489e-09
111	0x30a61052	1.2082728e-09
112	0x31f4a436	7.1200033e-09
113	0x321f2dae	9.265404e-09
114	0x00000000	0.0
115	0x3104891e	1.928647e-09
116	0x29113847	3.224528e-14
117	0x310acdb6	2.0198576e-09
118	0x30c56a28	1.4363808e-09
119	0x3220f7e3	9.369589e-09
120	0x32210a78	9.373814e-09
121	0x00000000	0.0
122	0x31c9562c	5.8596665e-09
123	0x294e9385	4.586914e-14
124	0x310f694d	2.0869095e-09
125	0x310b9883	2.0313855e-09
126	0x31b6589d	5.3069713e-09
127	0x3194f3f7	4.3351025e-09
128	0x00000000	0.0
129	0x31a2e933	4.741332e-09
130	0x2922afe1	3.6123777e-14
131	0x30ddd940	1.6141612e-09
132	0x30deb153	1.6203024e-09
133	0x321bd7f4	9.0712895e-09
134	0x320b176a	8.096189e-09
135	0x00000000	0.0
136	0x316adc67	3.4176766e-09
137	0x2939f48f	4.1290373e-14
138	0x311ab7da	2.2514457e-09
139	0x3125daea	2.4135098e-09
140	0x30ecaea4	1.7220896e-09
141	0x30e618c3	1.674174e-09
142	0x00000000	0.0
143	0x310d8a56	2.0596835e-09
144	0x284fdbf2	1.1538501e-14
145	0x2fe997bf	4.2490275e-10
146	0x2fdfb724	4.0693593e-10
147	0x324f776a	1.2076137e-08
148	0x3235482f	1.0551999e-08
149	0x00000000	0.0
150	0x315c7430	3.2080258e-09
151	0x295b3e1d	4.8681643e-14
152	0x313b633b	2.7268487e-09
153	0x3131d7c8	2.5879547e-09
154	0x30980542	1.106095e-09
155	0x30906152	1.0505039e-09
156	0x00000000	0.0
157	0x3086404e	9.76806e-10
158	0x2816f02d	8.3787525e-15
159	0x300438cf	4.810205e-10
160	0x2fe06261	4.0815265e-10
161	0x31e14b36	6.5569123e-09
162	0x31bce126	5.4971165e-09
163	0x00000000	0.0
164	0x3209c57e	8.019354e-09
165	0x29892f1d	6.092195e-14
166	0x314aae4e	2.949395e-09
167	0x312f066a	2.5469498e-09
168	0x30e03339	1.6312703e-09
169	0x3170fea8	3.5069352e-09
170	0x00000000	0.0
171	0x30bafe37	1.3605533e-09
172	0x285c8398	1.2240988e-14
173	0x30233bdb	5.9384114e-10
174	0x2ff5f09f	4.4736212e-10
175	0x31559e63	3.1085612e-09
176	0x3120d314	2.3403048e-09
177	0x00000000	0.0
178	0x30544233	7.7219225e-10
179	0x28595a49	1.2065497e-14
180	0x3080d87e	9.374757e-10
181	0x302945b3	6.158089e-10
182	0x322cf336	1.0067017e-08
183	0x32463550	1.1537239e-08
184	0x00000000	0.0
185	0x314f4bc1	3.0165526e-09
186	0x2995909a	6.6420136e-14
187	0x315e3264	3.2333896e-09
188	0x315a6b42	3.1784144e-09
189	0x32184c79	8.864952e-09
190	0x323979cd	1.0796112e-08
191	0x00000000	0.0
192	0x311f397a	2.3170217e-09
193	0x2929ac45	3.7674958e-14
194	0x310688d4	1.9577344e-09
195	0x310265c5	1.897534e-09
196	0x324a3cb4	1.177175e-08
197	0x3265e239	1.3380991e-08
198	0x00000000	0.0
199	0x312fee34	2.5601254e-09
200	0x29649509	5.0755437e-14
201	0x314b5507	2.958872e-09
202	0x314db487	2.9934044e-09
203	0x31e27e46	6.5918213e-09
204	0x321e8c33	9.228688e-09
205	0x00000000	0.0
206	0x30d40356	1.5425978e-09
207	0x2924c18a	3.6583184e-14
208	0x30f661d6	1.7926662e-09
209	0x30dee432	1.6217483e-09
210	0x329e00d3	1.8393996e-08
211	0x31df8432	6.505183e-09
212	0x00000000	0.0
213	0x3139ecf9	2.7055747e-09
214	0x291bbcd8	3.458071e-14
215	0x310c4ca6	2.041625e-09
216	0x30a8a1c3	1.2269584e-09
217	0x32f90300	2.898878e-08
218	0x328c3c9e	1.632571e-08
219	0x00000000	0.0
220	0x31a1dfd4	4.711163e-09
221	0x29c95fb1	8.942793e-14
222	0x31a4265a	4.7773883e-09
223	0x319e256b	4.602659e-09
224	0x3307c658	3.161253e-08
225	0x3292b979	1.708098e-08
226	0x00000000	0.0
227	0x3180a9b8	3.744585e-09
228	0x29ca7eb3	8.992581e-14
229	0x31b5d57c	5.2920637e-09
230	0x31ae63c1	5.075407e-09
231	0x320bca49	8.136859e-09
232	0x317de9ee	3.694932e-09
233	0x00000000	0.0
234	0x31014816	1.8812947e-09
235	0x28bd0ce9	2.0988814e-14
236	0x30725640	8.8161656e-10
237	0x308afc8e	1.0112602e-09
238	0x30bd062f	1.3753317e-09
239	0x30a812e8	1.2228982e-09
240	0x00000000	0.0
241	0x2f9c4bac	2.8430003e-10
242	0x27a5d6ab	4.6029443e-15
243	0x2f9ababe	2.8145125e-10
244	0x2fa95761	3.0803007e-10
245	0x32641b89	1.32776075e-08
246	0x3219f828	8.962196e-09
247	0x00000000	0.0
248	0x31caa76c	5.8980074e-09
249	0x294a6646	4.4941718e-14
250	0x312f0338	2.5467681e-09
251	0x3104f415	1.9347273e-09
252	0x32a2adde	1.8938348e-08
253	0x321a37f6	8.976704e-09
254	0x00000000	0.0
255	0x30bd5467	1.3775548e-09

exp_avg f4 [128]
0	0xb76fb4f4	-1.42876415e-05
1	0xb7a7b19d	-1.9990659e-05
2	0xb8745858	-5.825641e-05
3	0x34bc1ee2	3.50402e-07
4	0x36d9888a	6.482999e-06
5	0xb71cf45c	-9.355219e-06
6	0xb7bd7bf3	-2.2588274e-05
7	0xb636b778	-2.7226906e-06
8	0xb7aaa811	-2.0343841e-05
9	0xb7b32332	-2.1354852e-05
10	0x36e7ca5a	6.9078933e-06
11	0xb7a55335	-1.9708279e-05
12	0x35fc5080	1.8798892e-06
13	0xb78bd0b9	-1.6667285e-05
14	0xb83656b9	-4.3472948e-05
15	0x362599fe	2.4676551e-06
16	0xb74b118e	-1.210383e-05
17	0xb7b579cc	-2.1633597e-05
18	0x36a9f2e6	5.0648696e-06
19	0x36ca362a	6.0263746e-06
20	0x37836407	1.5662996e-05
21	0xb839015d	-4.4108707e-05
22	0x373675b4	1.087545e-05
23	0xb7c6e02c	-2.3707827e-05
24	0x37171c38	9.006872e-06
25	0xb6ca98f5	-6.0378757e-06
26	0x37778ab4	1.4754642e-05
27	0x37377443	1.0934719e-05
28	0x37627f5e	1.3500305e-05
29	0x37f67950	2.9381976e-05
30	0xb641265b	-2.8781567e-06
31	0xb7688f38	-1.3861623e-05
32	0xb7acc4be	-2.0595613e-05
33	0x3724651a	9.798701e-06
34	0x371fc4bb	9.522943e-06
35	0x37bd9e64	2.2604312e-05
36	0x373c2acd	1.1215639e-05
37	0x36dfad4a	6.6660914e-06
38	0x36157a5d	2.2273955e-06
39	0x363a7e1f	2.7789572e-06
40	0xb7d2a893	-2.511245e-05
41	0x34b39371	3.3448626e-07
42	0x37c52cf0	2.3505156e-05
43	0xb7034ddf	-7.826339e-06
44	0xb753744c	-1.26036575e-05
45	0x358ddad2	1.0569004e-06
46	0x372698f9	9.929988e-06
47	0xb79a5f3c	-1.8402578e-05
48	0xb72146a6	-9.612797e-06
49	0xb80bf44f	-3.3367713e-05
50	0xb7a07fb4	-1.9132953e-05
51	0x37c9627a	2.4006924e-05
52	0xb871d2ad	-5.7655085e-05
53	0x36bd00a6	5.6327144e-06
54	0x3613dbf0	2.2032727e-06
55	0x379784ba	1.8062408e-05
56	0x37c7643d	2.3769326e-05
57	0xb78a268b	-1.646883e-05
58	0xb5e85829	-1.7311005e-06
59	0xb63deb00	-2.8299983e-06
60	0x375b1601	1.305854e-05
61	0xb7b36b11	-2.138832e-05
62	0xb67ff0ea	-3.8138191e-06
63	0xb46da233	-2.2131353e-07
64	0x37a19167	1.9260404e-05
65	0xb6d9a7c0	-6.4866326e-06
66	0xb81e48c9	-3.7737922e-05
67	0xb6ec6dc9	-7.0461288e-06
68	0xb6a9fac9	-5.0657877e-06
69	0x36a271a2	4.841205e-06
70	0xb7a2c31f	-1.9402765e-05
71	0xb75d7150	-1.3199009e-05
72	0xb65894be	-3.2273088e-06
73	0x37b53c4f	2.1604965e-05
74	0xb826a27a	-3.9728802e-05
75	0xb6c2537c	-5.7913694e-06
76	0x362d1b60	2.5794943e-06
77	0x37d25373	2.507281e-05
78	0x37221758	9.661388e-06
79	0xb7b2084c	-2.1223117e-05
80	0xb82cd1cd	-4.1203388e-05
81	0x364d7ce2	3.0620072e-06
82	0xb71aaa53	-9.218772e-06
83	0xb51320a1	-5.480925e-07
84	0xb7cc5658	-2.4358902e-05
85	0x3690d970	4.3168475e-06
86	0xb76c17b0	-1.4072211e-05
87	0x3599c420	1.1456468e-06
88	0x3810e39e	3.454426e-05
89	0xb7c6b277	-2.3686543e-05
90	0xb70bb206	-8.326495e-06
91	0x37076219	8.069467e-06
92	0xb744297b	-1.1692168e-05
93	0x378e52e6	1.6966322e-05
94	0x37e0f65f	2.6817606e-05
95	0xb817dac7	-3.6204958e-05
96	0xb6f5439a	-7.309439e-06
97	0x37c5361c	2.3509427e-05
98	0xb86d73c4	-5.661302e-05
99	0xb81573d4	-3.563224e-05
100	0x3796ed22	1.7991817e-05
101	0xb7313cc4	-1.056417e-05
102	0xb60f0bd8	-2.1315554e-06
103	0xb6e0849b	-6.6911575e-06
104	0xb72c7426	-1.0279042e-05
105	0x37544866	1.2653041e-05
106	0xb75ae0ec	-1.3046181e-05
107	0xb6a5fe2b	-4.9469722e-06
108	0xb7cdae0b	-2.451895e-05
109	0xb7cfc1e8	-2.4766618e-05
110	0xb7edaccf	-2.8333072e-05
111	0xb76a11be	-1.3951618e-05
112	0xb75ac1b5	-1.30389135e-05
113	0xb81bdfff	-3.7163492e-05
114	0xb4f08c68	-4.4805643e-07
115	0xb5bdc391	-1.4138515e-06
116	0xb8883fb6	-6.4968524e-05
117	0x37406998	1.1468677e-05
118	0x378dece1	1.6918815e-05
119	0x37ff2872	3.0417203e-05
120	0x370709e2	8.048928e-06
121	0x37ede9a9	2.8361408e-05
122	0xb7a19c4b	-1.9265475e-05
123	0x369c23ac	4.653315e-06
124	0x377820e9	1.4789614e-05
125	0xb77ab081	-1.4942257e-05
126	0x373cb28d	1.1247245e-05
127	0x3462ba7e	2.1115736e-07

exp_avg_sq f4 [128]
0	0x303a6bee	6.7819783e-10
1	0x306aba76	8.539368e-10
2	0x322af63a	9.951288e-09
3	0x30fc469b	1.835548e-09
4	0x31ecab84	6.888003e-09
5	0x2fd92dd6	3.9504638e-10
6	0x30561245	7.787871e-10
7	0x309d91b1	1.1464661e-09
8	0x3044c178	7.157932e-10
9	0x307494f7	8.8978375e-10
10	0x30d1eef0	1.5274662e-09
11	0x309ae2ab	1.1269398e-09
12	0x3048a24e	7.2990225e-10
13	0x304d431c	7.4673934e-10
14	0x31476034	2.9012996e-09
15	0x30b8dfdc	1.3451387e-09
16	0x30f1c005	1.7589633e-09
17	0x311bf4ed	2.2694693e-09
18	0x30e9e15c	1.7017032e-09
19	0x3127dcf0	2.4427287e-09
20	0x30130804	5.348968e-10
21	0x3156d3c6	3.1261478e-09
22	0x30066377	4.8890264e-10
23	0x314f9552	3.0207343e-09
24	0x30384184	6.7031913e-10
25	0x3041df35	7.053019e-10
26	0x318fbecd	4.1835393e-09
27	0x310e105d	2.067302e-09
28	0x315c92ab	3.2097585e-09
29	0x310b6acb	2.0287867e-09
30	0x310be73a	2.03586e-09
31	0x31c335ec	5.681377e-09
32	0x31c2a557	5.66494e-09
33	0x309c726a	1.1383012e-09
34	0x2f9e97e3	2.8847955e-10
35	0x3126aefb	2.4255644e-09
36	0x31005853	1.8676658e-09
37	0x318e2722	4.137193e-09
38	0x30d42040	1.5434196e-09
39	0x2fd88e50	3.939129e-10
40	0x30ac6a32	1.254483e-09
41	0x30caaa28	1.4745796e-09
42	0x31696bf2	3.3967322e-09
43	0x306b33bc	8.556602e-10
44	0x310fcef3	2.0926876e-09
45	0x3073672a	8.854949e-10
46	0x306c0540	8.586376e-10
47	0x30f0c769	1.7518974e-09
48	0x31e3b6fd	6.627373e-09
49	0x32217f5b	9.400391e-09
50	0x3082e8da	9.524925e-10
51	0x3109d298	2.0055833e-09
52	0x317de980	3.6949075e-09
53	0x313c35a2	2.7388087e-09
54	0x30522518	7.645027e-10
55	0x31c94f6f	5.8589005e-09
56	0x3098f2e2	1.1128487e-09
57	0x31238514	2.3795268e-09
58	0x30965983	1.0939377e-09
59	0x3164e99a	3.3311154e-09
60	0x30b1465a	1.289844e-09
61	0x318652f1	3.9093426e-09
62	0x309bc45e	1.1333545e-09
63	0x3000f9ff	4.6921395e-10
64	0x3008afcf	4.972635e-10
65	0x310f261f	2.0830908e-09
66	0x30a05a17	1.1667137e-09
67	0x311abb2f	2.251635e-09
68	0x310a5c22	2.0134014e-09
69	0x30efc70c	1.7446111e-09
70	0x31702918	3.4947956e-09
71	0x314d032f	2.9833236e-09
72	0x309ffd2c	1.1640728e-09
73	0x31b8fc6f	5.383803e-09
74	0x3191f77a	4.2481902e-09
75	0x309e57f7	1.1521014e-09
76	0x30958931	1.0880169e-09
77	0x3174f15b	3.5643868e-09
78	0x310129a8	1.879565e-09
79	0x30dc0dd4	1.6011037e-09
80	0x318937c2	3.9935637e-09
81	0x3162f928	3.3028957e-09
82	0x314aa831	2.9490475e-09
83	0x317d14c5	3.6828152e-09
84	0x310f3f5d	2.0845257e-09
85	0x2fd27a01	3.8285466e-10
86	0x309bad58	1.1327002e-09
87	0x301cf247	5.7096766e-10
88	0x31a079dd	4.670467e-09
89	0x30fe7219	1.8513361e-09
90	0x309b0dbd	1.1281639e-09
91	0x3113ed6a	2.152627e-09
92	0x30dd8bce	1.6119601e-09
93	0x30d30894	1.5354709e-09
94	0x31092403	1.9956594e-09
95	0x3091b3cb	1.0601239e-09
96	0x30653df3	8.339775e-10
97	0x31150ce6	2.1689686e-09
98	0x3215015d	8.6732515e-09
99	0x316d4f5c	3.453315e-09
100	0x30f3e487	1.7745528e-09
101	0x30b74af0	1.3336301e-09
102	0x31893f49	3.9944195e-09
103	0x30a40f95	1.1936999e-09
104	0x3031c84f	6.467688e-10
105	0x316fcb65	3.4894694e-09
106	0x31150a2c	2.1688136e-09
107	0x315c36d2	3.2045375e-09
108	0x321184ec	8.470334e-09
109	0x31686d4b	3.382257e-09
110	0x306d29fe	8.627977e-10
111	0x303eecb8	6.9457995e-10
112	0x307165fa	8.7820207e-10
113	0x31810e2d	3.7560057e-09
114	0x3077e463	9.0182634e-10
115	0x318254ed	3.793153e-09
116	0x3150d23d	3.038749e-09
117	0x3139167d	2.6933826e-09
118	0x3169299e	3.392962e-09
119	0x30973ad5	1.1003417e-09
120	0x31097973	2.000516e-09
121	0x314a459c	2.9434437e-09
122	0x30806389	9.341515e-10
123	0x317b91fa	3.6608285e-09
124	0x31997fd9	4.4674207e-09
125	0x3039cca7	6.7593436e-10
126	0x3125a146	2.4102333e-09
127	0x318f62ed	4.1730943e-09
