results/Shoot_v1/Shooter/Shooter-3003.onnx (onnx, 74243 bytes, 9 tensors)

network_body.observation_encoder.processors.0.normalizer.running_mean f4 [7]
0	0xba98315a	-0.0011611388
1	0x3ba5ab32	0.0050558085
2	0x00000000	0.0
3	0x3f7720ee	0.9653462
4	0x3ebb2479	0.36551264
5	0xbda29df3	-0.07940283
6	0x3ba46d6c	0.005017927

network_body._body_endoder.seq_layers.0.weight f4 [128, 7]
0	0x3eca3cfa	0.39499646
1	0x3ddb8387	0.10718446
2	0x3c22d4a9	0.009938397
3	0x3ec53e8d	0.38524285
4	0xbbf78a31	-0.0075543155
5	0x3e972073	0.29516944
6	0xbf53a095	-0.82666904
7	0x3e81d704	0.25359356
8	0xbf07e44f	-0.53082746
9	0x3e1a9f5d	0.15099855
10	0x3ea97269	0.330951
11	0x3e6a3117	0.22870289
12	0xbf20629b	-0.6265046
13	0xbf284f51	-0.6574603
14	0xbe157ce2	-0.1459842
15	0xbe7f01d7	-0.24903046
16	0x3ed44326	0.4145748
17	0x3e43ad02	0.19108966
18	0xbe7fd37f	-0.24983023
19	0x3e14b965	0.14523847
20	0xbda240dd	-0.07922528
21	0xbde5d30e	-0.11221896
22	0xbf0b93fd	-0.5452269
23	0xbecca562	-0.39969927
24	0x3dbe1e78	0.09283155
25	0xbb8e78cc	-0.004347896
26	0x3ebc6342	0.36794478
27	0x3e3ac016	0.18237337
28	0xbe5eddb3	-0.21764259
29	0x3ef77ab1	0.48335794
30	0xbf845a03	-1.0339969
31	0xbe171e09	-0.14757551
32	0x3e5d270b	0.21596925
33	0xbefe47ab	-0.49664053
34	0xbf1e4b11	-0.6183329
35	0xbe8569d7	-0.26057312
36	0x3e31f5d6	0.17378935
37	0xbe32d442	-0.17463782
38	0x3e81b045	0.25329795
39	0xbea37d21	-0.31931403
40	0x3e9dda0b	0.30830416
41	0x3eede711	0.46465352
42	0x3e8c7c77	0.2743871
43	0xbe0c325e	-0.13691089
44	0x3f26354f	0.6492509
45	0xbf0a78d9	-0.5409065
46	0xbf0250b9	-0.50904423
47	0xbea873fd	-0.32900992
48	0x3eb64edf	0.3560705
49	0xbea7c3be	-0.32766527
50	0x3f0b6ebc	0.5446584
51	0x3e73dc87	0.23814593
52	0xbe341a4d	-0.17588158
53	0x3d9decb3	0.077111624
54	0x3d8ffa01	0.07030106
55	0x3f0516c5	0.5198787
56	0x3d9f625b	0.07782432
57	0x3db1c2fd	0.08679769
58	0xbd4db0b1	-0.050217334
59	0x3d59c82d	0.053169418
60	0xbdca4da0	-0.09878087
61	0xbea56f9e	-0.3231172
62	0xbecaa864	-0.39581597
63	0x3e443975	0.19162543
64	0x3e9a2f31	0.3011413
65	0xbf5467f4	-0.8297112
66	0xbd5b74da	-0.053578235
67	0x3eabedc7	0.33579847
68	0x3db40dc7	0.0879169
69	0xbe11f9ec	-0.14255494
70	0xbf0eedad	-0.55831414
71	0xbd610b21	-0.054942254
72	0x3f56a41d	0.83844167
73	0xbe965763	-0.29363546
74	0x3d5c01ea	0.053712763
75	0xbcf1078d	-0.029422546
76	0xbe311596	-0.1729339
77	0xbf0a362f	-0.5398893
78	0xbf015d80	-0.50533295
79	0xbe9c5f7d	-0.30541602
80	0xbe0991e2	-0.13434556
81	0xbea5279b	-0.3225678
82	0x3e99407d	0.29932013
83	0x3e205518	0.1565746
84	0x3ebc288c	0.36749685
85	0x3ba44915	0.005013595
86	0xbeeaac67	-0.45834658
87	0xbd2b24c4	-0.04178311
88	0xbdfdcf63	-0.123930715
89	0xbf1b2501	-0.6060334
90	0x3dccbf9c	0.09997484
91	0x3caebe23	0.021330899
92	0xbe0c040d	-0.1367342
93	0xbd512443	-0.051059972
94	0x3e99a643	0.3000966
95	0xbcc90e54	-0.024542965
96	0xbf17a6b8	-0.5923877
97	0xbd607f52	-0.054808922
98	0x3f044902	0.516739
99	0xbe47d638	-0.19515312
100	0xbd72a0c3	-0.059235346
101	0xbdb3770c	-0.08762941
102	0x3e2799d2	0.16367272
103	0xbd46df0d	-0.04855256
104	0xbde4a994	-0.11165157
105	0x3e853910	0.26020098
106	0x3e9c8b67	0.30575106
107	0x3e6d3f81	0.23168756
108	0x3eb27fa2	0.34863
109	0xbeb72125	-0.35767475
110	0x3e0ed622	0.13948873
111	0xbe260663	-0.16213374
112	0xbf646e91	-0.8923121
113	0x3e844ccd	0.25839844
114	0x3e2b8518	0.1674999
115	0x3e1b1349	0.15144075
116	0xbdf93f83	-0.12170317
117	0x3d59c58c	0.05316691
118	0x3e9b20fc	0.30298603
119	0xbf3e0208	-0.7422185
120	0x3e095efa	0.13415137
121	0xbe916e81	-0.2840462
122	0x3d6f3817	0.0584031
123	0x3ea46a42	0.32112318
124	0xbdd2dea7	-0.10296374
125	0x3e437b1b	0.1908993
126	0xbefe3032	-0.49646145
127	0x3e66e93f	0.22549914
128	0x3e7266ec	0.23672074
129	0x3f4170d0	0.75562763
130	0x3e48c47a	0.196062
131	0x3f3af4a9	0.7302957
132	0xbe3514f1	-0.1768377
133	0x3e10da78	0.14145839
134	0x3d8be1fd	0.06830213
135	0x3da60450	0.08106291
136	0xbe9aaec7	-0.3021147
137	0x3cd1a449	0.025591033
138	0xbeb7eccf	-0.35922858
139	0x3eef3677	0.4672124
140	0xbd695505	-0.056965847
141	0x3eef92bc	0.46791637
142	0xbed97443	-0.42471513
143	0x3e884f3a	0.26622945
144	0xbf012924	-0.504534
145	0x3f46011e	0.77345455
146	0xbf8095cd	-1.0045716
147	0x3dd6e6f3	0.10493269
148	0xbdbcd793	-0.09220805
149	0xbf5eb3a4	-0.8699286
150	0xbdd66ba6	-0.10469751
151	0x3f09dfd3	0.53857154
152	0x3ed08c8e	0.40732235
153	0x3eab5a16	0.33467168
154	0xbeddae37	-0.43296978
155	0xbe99cf56	-0.30040997
156	0x3ee77ecf	0.45213935
157	0x3f199a89	0.60001427
158	0xbe199717	-0.14999042
159	0x3ea0ffa3	0.31445035
160	0x3e80acb3	0.2513176
161	0xbf0a0bfc	-0.53924537
162	0xbf0eb4f2	-0.5574485
163	0xbe134542	-0.14381889
164	0xbe961799	-0.2931488
165	0xbdda2966	-0.106524274
166	0xbcbc8903	-0.023014551
167	0x3dd36d52	0.103235856
168	0xbeb3f4ba	-0.3514765
169	0xbd948bf0	-0.072532535
170	0xbe3175f4	-0.17330152
171	0x3e967089	0.29382733
172	0x3e343b3f	0.17600726
173	0x3ea8527b	0.32875428
174	0x3e0b4e22	0.13604024
175	0x3f0ba858	0.5455375
176	0xbe0fa68c	-0.14028376
177	0xbde58a4d	-0.112080194
178	0xbd86a74f	-0.0657488
179	0x3e2a2280	0.16614723
180	0xbe1d6a73	-0.15372638
181	0xbe615bf1	-0.22007729
182	0x3e51e5c4	0.20497805
183	0x3ea8deef	0.32982585
184	0xbf95e13f	-1.1709365
185	0x3e8583bd	0.2607707
186	0x3db59e8d	0.08868132
187	0xbef81c8e	-0.48459285
188	0x3e3b26df	0.18276547
189	0x3e63aeb3	0.22234611
190	0x3dcfbc25	0.101433076
191	0xbe13ba0a	-0.14426437
192	0x3f1812b8	0.5940356
193	0xbe710667	-0.23537599
194	0xbe94f29d	-0.2909135
195	0x3d886d34	0.06661454
196	0x3ed9af79	0.42516688
197	0xbda83519	-0.082132526
198	0xbe39bf85	-0.18139465
199	0xbf07f208	-0.53103685
200	0xbe97f15c	-0.2967633
201	0xbdeed3cb	-0.1166149
202	0xbeb0349a	-0.34415132
203	0x3c624c64	0.013812158
204	0x3e549323	0.20759253
205	0xbe0d927a	-0.13825408
206	0x3e15d49c	0.14631885
207	0xbd9de88d	-0.07710371
208	0xbed7e8cf	-0.42169806
209	0xbf1a1cf5	-0.60200435
210	0xbcda7a5c	-0.026669674
211	0xbf47ff11	-0.78123575
212	0xbe324d9e	-0.17412421
213	0xbd155685	-0.036459465
214	0x3f1f189c	0.62146926
215	0xbe43714d	-0.1908619
216	0xbee3541f	-0.44400117
217	0x3d199053	0.037491154
218	0xbf64f411	-0.89434916
219	0xbf17cc3a	-0.59296
220	0x3ea2db87	0.3180811
221	0x3de7a4d3	0.113107346
222	0xbe774df1	-0.24150826
223	0x3e92f4b0	0.28702307
224	0x3ea6252d	0.32450238
225	0x3e384ae5	0.1799732
226	0x3e5d8feb	0.21636932
227	0xba3ead36	-0.0007273735
228	0x3da459a2	0.080249086
229	0x3de84d58	0.11342877
230	0xbe70d754	-0.23519641
231	0xbe43d28b	-0.19123285
232	0x3eb9f0cc	0.36316526
233	0x3c126bdf	0.008936851
234	0x3f0600c6	0.5234493
235	0x3f5e778e	0.86901176
236	0xbd649502	-0.055806167
237	0xbf105848	-0.56384706
238	0x3deb04db	0.114755355
239	0x3cd03317	0.025414987
240	0x3ed12333	0.40847167
241	0x3e5af649	0.21383013
242	0xbe11177a	-0.14169112
243	0xbc48b6f8	-0.012250654
244	0xbed1f71e	-0.41008848
245	0xbf3ba470	-0.73297787
246	0x3f26b180	0.65114594
247	0x3da090b3	0.07840099
248	0x3ef179f7	0.47163364
249	0xbe234049	-0.15942492
250	0xbeeb5aab	-0.45967612
251	0xbeba1ced	-0.36350194
252	0xbe42fe8f	-0.19042419
253	0x3e0e15f3	0.1387556
254	0xbec1865c	-0.3779782
255	0xbf1aafdc	-0.6042459

network_body._body_endoder.seq_layers.0.bias f4 [128]
0	0x00000000	0.0
1	0x00000000	0.0
2	0x00000000	0.0
3	0x00000000	0.0
4	0x00000000	0.0
5	0x00000000	0.0
6	0x00000000	0.0
7	0x00000000	0.0
8	0x00000000	0.0
9	0x00000000	0.0
10	0x00000000	0.0
11	0x00000000	0.0
12	0x00000000	0.0
13	0x00000000	0.0
14	0x00000000	0.0
15	0x00000000	0.0
16	0x00000000	0.0
17	0x00000000	0.0
18	0x00000000	0.0
19	0x00000000	0.0
20	0x00000000	0.0
21	0x00000000	0.0
22	0x00000000	0.0
23	0x00000000	0.0
24	0x00000000	0.0
25	0x00000000	0.0
26	0x00000000	0.0
27	0x00000000	0.0
28	0x00000000	0.0
29	0x00000000	0.0
30	0x00000000	0.0
31	0x00000000	0.0
32	0x00000000	0.0
33	0x00000000	0.0
34	0x00000000	0.0
35	0x00000000	0.0
36	0x00000000	0.0
37	0x00000000	0.0
38	0x00000000	0.0
39	0x00000000	0.0
40	0x00000000	0.0
41	0x00000000	0.0
42	0x00000000	0.0
43	0x00000000	0.0
44	0x00000000	0.0
45	0x00000000	0.0
46	0x00000000	0.0
47	0x00000000	0.0
48	0x00000000	0.0
49	0x00000000	0.0
50	0x00000000	0.0
51	0x00000000	0.0
52	0x00000000	0.0
53	0x00000000	0.0
54	0x00000000	0.0
55	0x00000000	0.0
56	0x00000000	0.0
57	0x00000000	0.0
58	0x00000000	0.0
59	0x00000000	0.0
60	0x00000000	0.0
61	0x00000000	0.0
62	0x00000000	0.0
63	0x00000000	0.0
64	0x00000000	0.0
65	0x00000000	0.0
66	0x00000000	0.0
67	0x00000000	0.0
68	0x00000000	0.0
69	0x00000000	0.0
70	0x00000000	0.0
71	0x00000000	0.0
72	0x00000000	0.0
73	0x00000000	0.0
74	0x00000000	0.0
75	0x00000000	0.0
76	0x00000000	0.0
77	0x00000000	0.0
78	0x00000000	0.0
79	0x00000000	0.0
80	0x00000000	0.0
81	0x00000000	0.0
82	0x00000000	0.0
83	0x00000000	0.0
84	0x00000000	0.0
85	0x00000000	0.0
86	0x00000000	0.0
87	0x00000000	0.0
88	0x00000000	0.0
89	0x00000000	0.0
90	0x00000000	0.0
91	0x00000000	0.0
92	0x00000000	0.0
93	0x00000000	0.0
94	0x00000000	0.0
95	0x00000000	0.0
96	0x00000000	0.0
97	0x00000000	0.0
98	0x00000000	0.0
99	0x00000000	0.0
100	0x00000000	0.0
101	0x00000000	0.0
102	0x00000000	0.0
103	0x00000000	0.0
104	0x00000000	0.0
105	0x00000000	0.0
106	0x00000000	0.0
107	0x00000000	0.0
108	0x00000000	0.0
109	0x00000000	0.0
110	0x00000000	0.0
111	0x00000000	0.0
112	0x00000000	0.0
113	0x00000000	0.0
114	0x00000000	0.0
115	0x00000000	0.0
116	0x00000000	0.0
117	0x00000000	0.0
118	0x00000000	0.0
119	0x00000000	0.0
120	0x00000000	0.0
121	0x00000000	0.0
122	0x00000000	0.0
123	0x00000000	0.0
124	0x00000000	0.0
125	0x00000000	0.0
126	0x00000000	0.0
127	0x00000000	0.0

network_body._body_endoder.seq_layers.2.weight f4 [128, 128]
0	0xbd1dee97	-0.038557615
1	0x3e527517	0.20552479
2	0xbd760397	-0.060062017
3	0x3ddf495d	0.10902665
4	0x3d239944	0.039941087
5	0xbc9c862d	-0.019106949
6	0xbdc1de36	-0.094662115
7	0xbda306b7	-0.07960265
8	0x3d2b78df	0.04186332
9	0xbde2f502	-0.11081888
10	0xbd99cecf	-0.07510149
11	0x3dbb0c4f	0.09133207
12	0xbd198a55	-0.03748544
13	0xbd1d9e4a	-0.038481034
14	0xbdbd5c92	-0.09246172
15	0x3dff288a	0.12458904
16	0x3d5e79ea	0.054315485
17	0x3de36532	0.11103286
18	0x3dad60f6	0.084657595
19	0xbcdf28dd	-0.027241165
20	0x3e290fac	0.16509885
21	0x3d85fa4d	0.06541882
22	0x3c874490	0.016512185
23	0x3d39a727	0.045325425
24	0x3e02900f	0.12750266
25	0x3c84e94c	0.016224526
26	0x3c11f5ed	0.008908731
27	0x3a05cf5e	0.00051044475
28	0x3d0bafb7	0.03410312
29	0x3d1ed967	0.03878155
30	0x3b949162	0.0045339325
31	0xbc7d72c9	-0.015469261
32	0x3c4fc225	0.012680565
33	0xbd974482	-0.07386114
34	0x3c388916	0.011263153
35	0x3df4cbfc	0.119529694
36	0xbd2ba64b	-0.041906636
37	0xbb9752be	-0.004618018
38	0x3b3f5edd	0.002920083
39	0x3d211aad	0.03933208
40	0xbd4c45ed	-0.049871374
41	0x3d6da938	0.058022708
42	0x3df107b5	0.11769048
43	0xbe61c47d	-0.2204761
44	0xbd47ba8f	-0.0487619
45	0x3d05688b	0.032570403
46	0xbcf8e348	-0.030381814
47	0xbd198284	-0.037477985
48	0xbcfddddd	-0.030989582
49	0x3c22e458	0.009942137
50	0x3c9186d8	0.017764494
51	0x3cade3b4	0.021226741
52	0x3d2da603	0.04239465
53	0x3dda4c61	0.10659099
54	0x3dd2b68f	0.102887265
55	0xbd6199d6	-0.05507835
56	0xbcb10717	-0.021609826
57	0xbdf5154d	-0.119669534
58	0xbe06ffa0	-0.1318345
59	0xbd5c482b	-0.053779762
60	0x3d91fc51	0.07128204
61	0xbd2e455f	-0.042546626
62	0xbd3573c4	-0.044299856
63	0x3af8d395	0.0018983955
64	0xbd4fa9d7	-0.05069908
65	0xb9305d06	-0.00016819322
66	0xbce5474b	-0.027988097
67	0x3d398fd0	0.045303166
68	0xbd019822	-0.031639226
69	0x3dffb928	0.124864876
70	0x3d884f34	0.06655732
71	0xbd6a5052	-0.057205506
72	0xbd123956	-0.03569921
73	0x3dfe37d5	0.12412993
74	0xbde5e671	-0.11225594
75	0x3a8c2699	0.0010692655
76	0xbcc09330	-0.023507684
77	0xbdb6414b	-0.088991724
78	0xbd9c1e21	-0.07622934
79	0x3c7e25ec	0.015511971
80	0x3d29d798	0.04146537
81	0x3b9b17ba	0.004733053
82	0x3e21df34	0.15807801
83	0x3d38312f	0.04496878
84	0x3df93b0d	0.12169466
85	0xbd99522c	-0.07486376
86	0x3ccb0193	0.024781024
87	0x3c12321d	0.008923081
88	0x3ca93e11	0.020659478
89	0xbdebb5f6	-0.11509316
90	0xbe20a765	-0.15688856
91	0xbd86c0c9	-0.065797396
92	0xbd039f32	-0.032134242
93	0x3d444451	0.047916714
94	0xbdb62990	-0.08894646
95	0x3bf12d67	0.0073601487
96	0x3cf3ac8e	0.029745366
97	0xbe3d6127	-0.18494092
98	0x3dc179e5	0.09447078
99	0xbdb49547	-0.08817535
100	0x3dec6872	0.11543359
101	0xbdbc9c76	-0.0920953
102	0x3d823d93	0.063594006
103	0x3de33643	0.11094334
104	0x3a0e8b55	0.0005437632
105	0xbd0bcc5c	-0.03413044
106	0x3dc598d2	0.09648289
107	0xbd576bf4	-0.052593186
108	0x3d893de4	0.06701258
109	0xbc4993b8	-0.012303285
110	0xbb8fe540	-0.0043913424
111	0x3e230793	0.15920858
112	0xbd83030a	-0.06397064
113	0xbd8750e7	-0.06607228
114	0xbdecb82d	-0.11558566
115	0x3d90c2fb	0.070684396
116	0xbcc87754	-0.024470963
117	0x3d46755e	0.048451774
118	0xbd8b379b	-0.06797715
119	0x3c86d420	0.016458571
120	0xbe0e7c06	-0.13914499
121	0xbde50f2a	-0.11184533
122	0x3e52f70e	0.20602056
123	0xbe43c624	-0.19118553
124	0xbcd49c5f	-0.02595347
125	0xbd0cc556	-0.03436788
126	0xbd830319	-0.06397075
127	0xbe06b993	-0.13156728
128	0x3dc75259	0.097325034
129	0x3ccb94d3	0.024851238
130	0x3db57f19	0.088621326
131	0xbdeb0b94	-0.11476818
132	0x3c576a8e	0.013147963
133	0x3da18f98	0.078887165
134	0x3e604f12	0.21905163
135	0xbda2a33c	-0.07941291
136	0xbd55d562	-0.05220545
137	0xbdf58bc7	-0.11989551
138	0x3cee395e	0.02908009
139	0x3d269679	0.040670846
140	0x3c999758	0.018748924
141	0x3d8baa19	0.06819553
142	0x3deddd0c	0.11614427
143	0x3dc710b3	0.09719982
144	0xbdb10429	-0.086433716
145	0xbd2fb82b	-0.042900246
146	0xbcf9d8da	-0.03049891
147	0xbc5505d2	-0.013001876
148	0x3d880485	0.06641487
149	0x3d165216	0.036699377
150	0xbd98fdd4	-0.07470289
151	0x3d2874b1	0.04112691
152	0x3d9fc247	0.07800727
153	0x3dd55957	0.10417431
154	0x3d368876	0.044563733
155	0xbdcdf387	-0.10056215
156	0x3cae36a3	0.021266287
157	0xbd157914	-0.036492422
158	0xbc0d11dc	-0.008610215
159	0xbdc1cf5a	-0.09463377
160	0x3daedff0	0.085388064
161	0x3d73f00a	0.05955509
162	0x3d4dcd29	0.050244484
163	0xbdb27935	-0.08714525
164	0xbdab741f	-0.08371758
165	0x3d622203	0.055208217
166	0xbdec71da	-0.11545153
167	0x3e119229	0.14215912
168	0x3d092150	0.033479035
169	0xbd4953f6	-0.049152337
170	0xbd8c8240	-0.06860781
171	0x3d8ed8ea	0.06974967
172	0x3d73bbcc	0.05950527
173	0x3dbcefd8	0.09225434
174	0x3d8938e5	0.06700305
175	0xbd868e92	-0.06570162
176	0x3d2ce927	0.04221454
177	0x3d30bc55	0.043148357
178	0xbe0723b7	-0.13197218
179	0xbd80c66d	-0.06287847
180	0xbdf52e15	-0.1197168
181	0xbc3c13c2	-0.01147932
182	0x3df24690	0.11829865
183	0x3d56cb80	0.052440166
184	0xbd0349e9	-0.032052908
185	0x3e1c9c3c	0.15293974
186	0x3e082394	0.13294822
187	0x3d445395	0.047931273
188	0xbd01a4de	-0.03165137
189	0xbcec2d12	-0.028830085
190	0x3adf763f	0.001704879
191	0x3e066d94	0.13127738
192	0xbdff734d	-0.12473164
193	0x3dd9080d	0.10597239
194	0xbdb45872	-0.08805932
195	0xbcc7d024	-0.024391241
196	0xbe1ad922	-0.15121892
197	0xbd367bd8	-0.0445517
198	0xbcb10254	-0.021607555
199	0xbce691ee	-0.028145757
200	0x3d2e1280	0.04249811
201	0x3bd590a9	0.006517489
202	0xbd5409fb	-0.05176733
203	0xbd3ead53	-0.046552014
204	0x3ccc4e79	0.024939762
205	0x3d0819d4	0.033227757
206	0xbcd9615a	-0.026535679
207	0xbd9932eb	-0.07480415
208	0x3c8c3152	0.017113362
209	0xbdd2a5ee	-0.10285555
210	0x3d87fa45	0.06639532
211	0x3bc9f092	0.0061627114
212	0x3dfeac1d	0.12435172
213	0xbe0e2635	-0.13881762
214	0xbb811c20	-0.0039401203
215	0x3d411818	0.04714212
216	0x3d68ac37	0.056804862
217	0x3d25e46e	0.04050105
218	0xbd9fad68	-0.077967465
219	0xbdb714bd	-0.089395024
220	0xbcca6055	-0.024704138
221	0x3d5adbeb	0.053432386
222	0xbd7be75f	-0.06149995
223	0x3d26c0e1	0.040711287
224	0xbe523a35	-0.20530017
225	0xbd576b61	-0.05259264
226	0x3d75aa7e	0.059977047
227	0x3d0420f7	0.032258
228	0x3d39f2c2	0.045397528
229	0x3c0cde1b	0.008597876
230	0x3b5a83c6	0.0033342703
231	0xbd9440da	-0.07238932
232	0x3a8bb15d	0.0010657717
233	0x3b05c321	0.0020410495
234	0xbca0fecb	-0.019652745
235	0x3cb23379	0.02175306
236	0xbd9096ce	-0.07060014
237	0xbd974032	-0.07385291
238	0xbc827f02	-0.015929703
239	0xbd34a06d	-0.044098306
240	0x3c2d93af	0.010594293
241	0xbd635b33	-0.055506896
242	0x3d8481bd	0.06470058
243	0xbb135e55	-0.0022486646
244	0xbe3de04b	-0.18542592
245	0xbe02a868	-0.12759554
246	0xbd6b78f6	-0.057488404
247	0xbbd872be	-0.006605475
248	0x3cbac9e8	0.022801355
249	0x3b56b745	0.0032763046
250	0x3d53d539	0.051717017
251	0xbd6cd6c1	-0.057821993
252	0xbdfdb77c	-0.123885125
253	0x3e0ac6ce	0.135524
254	0x3d753bc6	0.059871458
255	0x3da4c36a	0.08045085

network_body._body_endoder.seq_layers.2.bias f4 [128]
0	0x00000000	0.0
1	0x00000000	0.0
2	0x00000000	0.0
3	0x00000000	0.0
4	0x00000000	0.0
5	0x00000000	0.0
6	0x00000000	0.0
7	0x00000000	0.0
8	0x00000000	0.0
9	0x00000000	0.0
10	0x00000000	0.0
11	0x00000000	0.0
12	0x00000000	0.0
13	0x00000000	0.0
14	0x00000000	0.0
15	0x00000000	0.0
16	0x00000000	0.0
17	0x00000000	0.0
18	0x00000000	0.0
19	0x00000000	0.0
20	0x00000000	0.0
21	0x00000000	0.0
22	0x00000000	0.0
23	0x00000000	0.0
24	0x00000000	0.0
25	0x00000000	0.0
26	0x00000000	0.0
27	0x00000000	0.0
28	0x00000000	0.0
29	0x00000000	0.0
30	0x00000000	0.0
31	0x00000000	0.0
32	0x00000000	0.0
33	0x00000000	0.0
34	0x00000000	0.0
35	0x00000000	0.0
36	0x00000000	0.0
37	0x00000000	0.0
38	0x00000000	0.0
39	0x00000000	0.0
40	0x00000000	0.0
41	0x00000000	0.0
42	0x00000000	0.0
43	0x00000000	0.0
44	0x00000000	0.0
45	0x00000000	0.0
46	0x00000000	0.0
47	0x00000000	0.0
48	0x00000000	0.0
49	0x00000000	0.0
50	0x00000000	0.0
51	0x00000000	0.0
52	0x00000000	0.0
53	0x00000000	0.0
54	0x00000000	0.0
55	0x00000000	0.0
56	0x00000000	0.0
57	0x00000000	0.0
58	0x00000000	0.0
59	0x00000000	0.0
60	0x00000000	0.0
61	0x00000000	0.0
62	0x00000000	0.0
63	0x00000000	0.0
64	0x00000000	0.0
65	0x00000000	0.0
66	0x00000000	0.0
67	0x00000000	0.0
68	0x00000000	0.0
69	0x00000000	0.0
70	0x00000000	0.0
71	0x00000000	0.0
72	0x00000000	0.0
73	0x00000000	0.0
74	0x00000000	0.0
75	0x00000000	0.0
76	0x00000000	0.0
77	0x00000000	0.0
78	0x00000000	0.0
79	0x00000000	0.0
80	0x00000000	0.0
81	0x00000000	0.0
82	0x00000000	0.0
83	0x00000000	0.0
84	0x00000000	0.0
85	0x00000000	0.0
86	0x00000000	0.0
87	0x00000000	0.0
88	0x00000000	0.0
89	0x00000000	0.0
90	0x00000000	0.0
91	0x00000000	0.0
92	0x00000000	0.0
93	0x00000000	0.0
94	0x00000000	0.0
95	0x00000000	0.0
96	0x00000000	0.0
97	0x00000000	0.0
98	0x00000000	0.0
99	0x00000000	0.0
100	0x00000000	0.0
101	0x00000000	0.0
102	0x00000000	0.0
103	0x00000000	0.0
104	0x00000000	0.0
105	0x00000000	0.0
106	0x00000000	0.0
107	0x00000000	0.0
108	0x00000000	0.0
109	0x00000000	0.0
110	0x00000000	0.0
111	0x00000000	0.0
112	0x00000000	0.0
113	0x00000000	0.0
114	0x00000000	0.0
115	0x00000000	0.0
116	0x00000000	0.0
117	0x00000000	0.0
118	0x00000000	0.0
119	0x00000000	0.0
120	0x00000000	0.0
121	0x00000000	0.0
122	0x00000000	0.0
123	0x00000000	0.0
124	0x00000000	0.0
125	0x00000000	0.0
126	0x00000000	0.0
127	0x00000000	0.0

action_model._continuous_distribution.log_sigma f4 [1, 3]
0	0x00000000	0.0
1	0x00000000	0.0
2	0x00000000	0.0

action_model._continuous_distribution.mu.weight f4 [3, 128]
0	0xbc74e19d	-0.0149463685
1	0xbcd31963	-0.025768941
2	0xbcbf54b4	-0.02335582
3	0x3cac691c	0.021046214
4	0x3b738edf	0.0037164015
5	0xbcb4eb3f	-0.02208483
6	0x3c8987c5	0.016788373
7	0x3ae743b5	0.001764408
8	0x3afd534b	0.0019327191
9	0xbcbdda77	-0.023175461
10	0x3cfad4ca	0.030619044
11	0xbbeb46bb	-0.0071800626
12	0xbcd9daff	-0.026593683
13	0x3c91a263	0.017777627
14	0xb7eb8ccf	-2.8079752e-05
15	0xbb95bc39	-0.004569557
16	0x3ba7f7aa	0.0051259594
17	0x3bf6c04f	0.007530249
18	0x3caafb4a	0.020871777
19	0x3a6a0cff	0.0008928328
20	0x3ccfe4bd	0.025377626
21	0x3b9fc661	0.0048759435
22	0x3cb8e73b	0.022571197
23	0x3cde5035	0.027137855
24	0x3bfd0a9a	0.007722211
25	0xbc286df0	-0.010280117
26	0x3cd0bf75	0.025481919
27	0xbbba3525	-0.005682605
28	0xbb0fcff3	-0.0021944016
29	0x3b66c6ff	0.0035213826
30	0xbc5e5113	-0.013569134
31	0xbc336723	-0.010949883
32	0x3d2f3e21	0.04278386
33	0x3cac0a9b	0.02100115
34	0xbbf8186d	-0.007571271
35	0x3ccce47a	0.02501129
36	0xbc9d0955	-0.019169489
37	0x3cd04b15	0.025426427
38	0xbbae0ea3	-0.0053118034
39	0xbc0cfd5d	-0.008605328
40	0xbc17b6df	-0.009259908
41	0x3bd3abbb	0.006459681
42	0x3baba672	0.0052383477
43	0xbce621f3	-0.02809236
44	0xbc5f844f	-0.013642385
45	0x3cb9b1ea	0.022667844
46	0x3beab362	0.0071624974
47	0xbcbc859b	-0.023012927
48	0x3d1a3425	0.037647385
49	0x3c32c050	0.010910109
50	0xba9a97c0	-0.0011794493
51	0x3980143f	0.00024429147
52	0x3b2534bd	0.0025208436
53	0xbcd14662	-0.025546256
54	0xbcbb78d0	-0.022884756
55	0xb9b8ca5d	-0.00035245987
56	0x3b299133	0.00258739
57	0x3be186f8	0.0068825446
58	0x3c03ae4d	0.008037162
59	0x3cdc3c2f	0.026884167
60	0xbbecdcfa	-0.007228491
61	0x3cabd097	0.020973487
62	0x3c9df0d3	0.019279873
63	0xbc95be94	-0.018279351
64	0xbd28d40d	-0.041217852
65	0xbc34cce8	-0.011035182
66	0x3c8c26c4	0.017108329
67	0x3c9baf0e	0.019004371
68	0xbbe555d8	-0.0069987588
69	0xba08d2d8	-0.00052194064
70	0x3c01cd2f	0.007922455
71	0x3c34554f	0.011006667
72	0x3c34505f	0.01100549
73	0x3c9bff4b	0.019042632
74	0xbbd6cc02	-0.0065550813
75	0x3c382368	0.01123891
76	0x3bd8c54d	0.006615317
77	0xbb37b3f7	-0.0028030851
78	0xbc231034	-0.009952594
79	0xbc494cb9	-0.0122863585
80	0x3cafdc53	0.021467363
81	0xbbbd20ec	-0.005771747
82	0xbd0fd9b6	-0.035119735
83	0xba0fab16	-0.0005480511
84	0xbc2cf31c	-0.010556009
85	0x3cbe4e60	0.023230731
86	0x3cc76338	0.024339303
87	0xbc0537fa	-0.008131022
88	0x3bf120cb	0.0073586456
89	0x3c3decf5	0.0115921395
90	0x3c18fefd	0.009338138
91	0x3d0fbf4b	0.03509454
92	0xbc935ca3	-0.017988509
93	0x3af13002	0.0018401148
94	0xbc9522f5	-0.018205145
95	0xbc0c7438	-0.008572631
96	0xbcdfa832	-0.027301881
97	0xbb28c3bf	-0.002575144
98	0xbc58a6a8	-0.013223328
99	0x3a36b235	0.0006969304
100	0xbc595b57	-0.013266406
101	0xbcb7b09d	-0.022423083
102	0xbc44807b	-0.011993523
103	0x3c55563d	0.013021049
104	0x3a9c4163	0.0011921342
105	0xbc66316f	-0.014049872
106	0x3a5de675	0.0008464822
107	0x3bb612a4	0.0055564214
108	0x3c8807a1	0.0166052
109	0x3ce90b4b	0.028447768
110	0xbc33915b	-0.010959948
111	0xbb4b13fd	-0.0030987256
112	0xbb91b3b9	-0.0044464734
113	0xbd139567	-0.036031153
114	0x3c4fba33	0.012678671
115	0xbcecc5e5	-0.028902957
116	0x3c5f4bad	0.013628882
117	0xbc9fb18a	-0.019493837
118	0x3cb57443	0.022150164
119	0xbc0a1b5b	-0.008429374
120	0xbc0d8ef7	-0.0086400425
121	0xbcea6bb2	-0.028615806
122	0xbc7a5da7	-0.0152811175
123	0xbaa89c40	-0.0012863949
124	0x3b26fed0	0.002548147
125	0x3b51ed52	0.0032032323
126	0xbc703ccd	-0.014662934
127	0x3b0f8aa1	0.0021902698
128	0xbd0513f3	-0.03248973
129	0x3c971a93	0.018445289
130	0x3c2cfb5b	0.010557975
131	0x3c544b42	0.012957396
132	0x3b850b7c	0.004060207
133	0x3c3cf0bb	0.011532004
134	0xbc9a071e	-0.018802222
135	0x3c72f01b	0.014827753
136	0xbc762bd5	-0.015025099
137	0x3d2a14ff	0.04152393
138	0x3bb75c1d	0.0055956976
139	0xbba88f60	-0.0051440448
140	0x3ba6089b	0.005066944
141	0xbab0b45b	-0.0013481484
142	0x3add4947	0.00168828
143	0xbcb1b7b5	-0.021694044
144	0xbb117a93	-0.0022198304
145	0x38c18ff8	9.2297734e-05
146	0x3cb75dd6	0.022383612
147	0xbb64cb63	-0.0034911267
148	0x3c491879	0.012273901
149	0xbcd4f79f	-0.025996981
150	0x3bab44f3	0.0052267252
151	0xbce32b08	-0.02773048
152	0x3c97e341	0.01854098
153	0xbb2654a2	-0.0025380035
154	0xbac3849e	-0.0014916842
155	0x3bad419b	0.005287362
156	0xbca4ad8a	-0.020102281
157	0x3bdfc6d7	0.0068291235
158	0x3c004acb	0.007830332
159	0x3cfe7a6a	0.031064231
160	0x3cfe0805	0.031009683
161	0xbc717e83	-0.014739635
162	0x3c58aee7	0.013225294
163	0x3c7d41cd	0.015457583
164	0x3d1c4fe0	0.038162112
165	0xbcae383f	-0.021267055
166	0xbcb869b5	-0.022511343
167	0x3ba3e8c9	0.0050021154
168	0x3c49eac6	0.012324041
169	0xbc1532a0	-0.009106308
170	0x3ad8f34a	0.0016551998
171	0x3c8aa86b	0.016926011
172	0x3cc53380	0.024072409
173	0xbadd6255	-0.0016890267
174	0xbc9f90cb	-0.019478222
175	0x3c23abbc	0.009989675
176	0x3c972bd6	0.01845352
177	0x3badaeb7	0.0053003686
178	0xbc20efff	-0.0098228445
179	0x3bd6100b	0.006532674
180	0xbbeffe87	-0.007324043
181	0xbc1478f2	-0.009062039
182	0x3b34e205	0.0027600538
183	0x3bc6e42e	0.0060696816
184	0xbb60aadf	-0.0034281535
185	0x3c25d5dc	0.010121789
186	0x3caffbe0	0.021482408
187	0xbd0ea04a	-0.034820832
188	0xbb963dfc	-0.004585026
189	0x3d287136	0.04112359
190	0xbc84cc1f	-0.016210614
191	0xbca0c837	-0.01962672
192	0x3b38fc23	0.0028226457
193	0xbccbe23f	-0.024888156
194	0xbba9394c	-0.005164301
195	0x3c01c34e	0.007920099
196	0x3ce1195b	0.02747791
197	0x3ca63cd4	0.020292677
198	0xbb11ee98	-0.0022267457
199	0x3cd1e15b	0.025620153
200	0x3cb46c09	0.022024171
201	0x38fead8f	0.000121439916
202	0x3b212edf	0.0024594588
203	0x3b9c1757	0.0047635245
204	0x3cb43feb	0.022003135
205	0xb962af27	-0.00021618289
206	0x3c6508f8	0.013979189
207	0xba13fd1f	-0.0005645323
208	0xbccd35b8	-0.02505003
209	0xbcc2d803	-0.023784643
210	0xbcad31e3	-0.021141952
211	0xbbcff78a	-0.0063466476
212	0x3c9d4267	0.019196702
213	0x3c5a528d	0.013325346
214	0xbb8f3b2c	-0.0043710675
215	0x3c816f5f	0.015800176
216	0x3c9e6b44	0.019338258
217	0x3d084bbb	0.033275347
218	0xbce74c0d	-0.028234506
219	0xbbab0623	-0.0052192374
220	0xbb138a5a	-0.0022512884
221	0x3c4e3968	0.012586929
222	0xbb4b9973	-0.0031066805
223	0xbbc172ec	-0.0059035923
224	0x385f0473	5.3171487e-05
225	0x3c648110	0.0139467865
226	0x3b8b455a	0.0042502107
227	0x3d304c9b	0.043041807
228	0x39764d03	0.00023489077
229	0x3b99d767	0.0046948674
230	0xbb748340	-0.0037309676
231	0x3cb1bd6e	0.021696772
232	0x3a1cf664	0.0005987643
233	0xbb83cb70	-0.0040220544
234	0x3d0cd4b7	0.03438255
235	0x3b8d3937	0.004309799
236	0xbc91e0fe	-0.01780748
237	0x3c10af02	0.008830788
238	0x3c1c9fba	0.009559566
239	0xbc8c4bbe	-0.01712596
240	0x3c881b2e	0.016614523
241	0x3c1fba6f	0.009749039
242	0xbc5c03a3	-0.013428601
243	0x3c10c5ea	0.008836249
244	0x3bed9a87	0.007251087
245	0xbbb2499b	-0.0054409034
246	0x3cf1643a	0.029466737
247	0xbd34ba70	-0.044123113
248	0x3c84cd0d	0.016211057
249	0xbca18622	-0.01971728
250	0xbc2595f5	-0.010106553
251	0xbca6ab4a	-0.020345349
252	0x3ce36eeb	0.02776285
253	0x3b845685	0.0040386342
254	0xbb46da47	-0.0030342506
255	0xbb8e516f	-0.0043432037

action_model._continuous_distribution.mu.bias f4 [3]
0	0x00000000	0.0
1	0x00000000	0.0
2	0x00000000	0.0

53 f4 [7]
0	0x3cb547fc	0.022129051
1	0x3cc67b8b	0.024228832
2	0x3c957715	0.01824526
3	0x3dee0a37	0.11623042
4	0x3ef6be1b	0.48191914
5	0x3efe82f9	0.497093
6	0x3eabeb1f	0.3357782
